Neural Networks Codes/PINN/Save_models/model_PySindy_based_PINN_couette.pth (torch, 161246 bytes, 22 tensors)

input_layer.0.weight f4 [64, 4]
000000 f7 aa c8 39 4e 04 51 bb e3 92 99 3c cf 71 ef 3c
       0.0003827435 -0.0031893435 0.018746799 0.029229073
000010 1b 05 bf 39 71 8a c9 38 3d 4c 31 3b 9a ac f2 3c
       0.00036434163 9.6102136e-05 0.0027053498 0.029623318
000020 79 50 16 b9 fb 3f d4 be 3e e6 b7 3d 97 98 86 bd
       -0.00014335093 -0.41455063 0.08979462 -0.06572073
000030 f6 08 8b b9 e6 fe b2 3b 0d ef 86 bc 5c 2f bd bc
       -0.00026518822 0.005462515 -0.01647141 -0.023093872
000040 83 33 2a be 6b fe e1 bb 3d 2e 35 be 16 ef 1b 3b
       -0.16621213 -0.006896784 -0.1769342 0.002379363
000050 54 aa 1a 3e 13 38 3e be 9e f3 43 be b6 c9 cb bc
       0.15104038 -0.18576078 -0.19135901 -0.024876457
000060 a5 a8 66 3e 9d 57 2a bc a8 2e 1a be da 6c 35 3a
       0.2252527 -0.010396865 -0.1505686 0.0006920822
000070 85 c6 22 b9 4f ad 6d 3a 02 25 59 bc 04 b0 0e bd
       -0.00015523478 0.00090666575 -0.013253452 -0.03483583
000080 b7 31 35 3c e3 0f cc bd 00 0c 63 3e b4 4c cb be
       0.011059216 -0.09963968 0.22172546 -0.39706957
000090 33 22 1b bc 19 3b 3d bd 5f 61 d3 3e cf 54 a6 bd
       -0.009468603 -0.046198938 0.41285226 -0.08121645
0000a0 1e b2 4b 3d 6c 34 5a bd 6c 38 2d be 81 63 ad ba
       0.049730413 -0.05327265 -0.16916054 -0.0013228507
0000b0 13 4d 1d ba f7 d6 9b 3b 59 34 93 3e e1 2a 5e be
       -0.00060005597 0.0047558504 0.28750876 -0.21696045
0000c0 0c 3a a4 3a 05 23 8d 3e 38 81 86 be a9 87 db 3e
       0.0012529506 0.2756578 -0.2627046 0.42876938
0000d0 d9 9b cc 38 2e e8 fd 39 a4 2c 50 3c c0 ed 09 3d
       9.756507e-05 0.00048428908 0.012705956 0.033674
0000e0 ac 06 ea 3b 26 f1 4e bc e0 ac 5b 3a ff 87 2a 3c
       0.0071419086 -0.012630736 0.00083799474 0.010408401
0000f0 a8 05 da bd ad 8d 89 3e d3 f7 d6 bd 68 8a 9e ba
       -0.1064561 0.26865903 -0.104964875 -0.0012095692
000100 b4 bf 2d be ff aa 8d be f1 e2 34 3e aa 35 cc bb
       -0.1696766 -0.27669522 0.17664696 -0.006231983
000110 17 17 3b bd d6 f6 61 bd a9 21 0d ba 3b 09 71 3b
       -0.045676317 -0.05516704 -0.0005383739 0.0036779183
000120 fe ec 1f be f7 b3 c9 be f7 a8 1b be 86 8a 9a 3e
       -0.15617749 -0.39395115 -0.15201174 0.3018381
000130 27 69 1f 3d be e7 02 bd 2b 28 f5 bb 62 57 47 3c
       0.03891864 -0.031959288 -0.007481595 0.01216683
000140 15 a7 c7 38 1b 8d 20 3a ca b5 0b bc fc 77 e0 bc
       9.520181e-05 0.0006124542 -0.008527229 -0.027400963
000150 e6 14 40 bc 57 fd 41 bd b2 ce 81 bd 6a 26 04 bb
       -0.011723733 -0.047360744 -0.06338252 -0.0020164498
000160 99 f8 69 37 df 1b e5 bd 45 08 ac be 36 62 ce 3e
       1.3945763e-05 -0.111869566 -0.3360006 0.40309304
000170 7f 01 ef b9 86 63 56 3b 2e b3 88 ba 2b 2e f4 bc
       -0.00045586747 0.003271313 -0.0010429376 -0.02980717
000180 8e d1 d7 38 b0 8b 8d 3a 82 f8 3a bc 3d 73 d0 bc
       0.000102910315 0.0010799076 -0.011411788 -0.025445575
000190 ee da d2 39 a5 c8 cd 3d 9f fa 61 be 3c 6e 3a 3e
       0.00040217437 0.100480355 -0.2206826 0.18206114
0001a0 93 7b ab bc 37 3b dd 3c 88 05 06 3e f3 9f db 3a
       -0.020932948 0.027005775 0.13088048 0.0016756043
0001b0 c7 e1 35 be 5a f4 9c be 42 59 05 be f6 bc 83 3e
       -0.17761908 -0.30655175 -0.1302233 0.25730103
0001c0 10 e8 31 bc c4 ec ff bd 8d 17 01 3d 65 f1 22 3c
       -0.010858551 -0.12496331 0.0315166 0.009945248
0001d0 8e d1 ab b9 85 91 ac 3c c1 2e e3 be ef c6 a8 3e
       -0.00032771792 0.021065483 -0.44371608 0.32964274
0001e0 e3 46 ba bc b3 2d 92 3c da 4c 97 bc 7f 3e 96 bc
       -0.02273888 0.017844057 -0.018469263 -0.018340347
0001f0 38 eb a3 bd 11 47 1c be b5 e7 99 bc e7 b4 28 3c
       -0.08003849 -0.15261485 -0.018787244 0.010297037
000200 2c ad 84 b8 7e 6d 8a 37 a8 d3 85 3b bb cb ea 3c
       -6.326506e-05 1.6501868e-05 0.0040840693 0.0286616
000210 45 e1 8d 3a 80 67 6c 3e b6 9a 71 3e 69 f6 37 be
       0.0010824582 0.23086357 0.23594174 -0.17965092
000220 ac 2e a8 b9 c7 68 20 b9 9c 61 51 bb 7f b9 ee bc
       -0.0003207823 -0.00015297822 -0.003194905 -0.029141186
000230 b0 2b 0f b9 f2 ab 6b 38 3c 2c 3d bc f6 27 f5 bc
       -0.00013653818 5.6188503e-05 -0.011546191 -0.029926281
000240 9a 4e 76 b9 ab ab 04 be 8e 1f 73 be e8 33 93 3e
       -0.0002348967 -0.12956111 -0.23742506 0.2875054
000250 aa d7 59 be 39 e5 23 bd 7a 6b ee 3b e4 e7 85 bc
       -0.21273676 -0.040013526 0.007275996 -0.016345926
000260 29 e2 18 bb 54 9f 47 be ad 71 ce 3e 43 c9 89 be
       -0.0023328161 -0.19494373 0.40321103 -0.26911363
000270 7f 11 9a bd 3d 8e 28 be 4f 16 bb 3e 91 6a 91 bd
       -0.07522868 -0.1646051 0.36540458 -0.07100404
000280 ca e9 85 bd 06 3f 26 3e be 99 8a bc d5 7e 05 3d
       -0.06538732 0.16234979 -0.016919013 0.03259166
000290 0d e6 43 3a 90 c9 d0 3b ed a8 38 bc d7 c7 b4 bb
       0.000747294 0.0063716844 -0.011270744 -0.005516987
0002a0 11 0e 4b be 4e 4a 87 3e 54 66 6d 3e ce be e8 be
       -0.19829585 0.26423877 0.23183566 -0.45458072
0002b0 9e a6 eb bd 3f 2f dd bd 50 98 13 3e 8c de 9c ba
       -0.11506389 -0.10800027 0.14413571 -0.001196818
0002c0 9a 92 d1 bc 24 62 05 3d 71 86 58 bc b2 15 12 3d
       -0.0255826 0.032564297 -0.013215647 0.03566522
0002d0 29 74 01 3a 80 0b 52 3d 2c b5 f4 3e 05 65 20 be
       0.00049382687 0.0512805 0.47794473 -0.15663536
0002e0 52 09 e6 be 9d 50 af bd 98 21 e9 3d af aa 8a b9
       -0.44928986 -0.08560298 0.113833606 -0.0002644858
0002f0 2e 9c 06 bd 05 fa a3 3c d2 81 98 bc 4d 7f 1d 3d
       -0.03286379 0.02001668 -0.01861659 0.03845148
000300 02 6d a5 ba 1f 3f e4 3a 0d d5 c0 3b 26 04 be bc
       -0.0012620988 0.0017413831 0.0058847726 -0.023195338
000310 24 65 76 b9 07 7e be bb 2b df 41 ba 30 aa e3 bc
       -0.00023498066 -0.0058133635 -0.00073956203 -0.027791113
000320 e9 ce b4 ba 8a 13 e9 bd ff 63 a7 bb b1 b2 5a 3c
       -0.0013794574 -0.1138068 -0.005108356 0.013348267
000330 5b 2d a8 3d f9 64 94 be 90 ff 03 bd c3 26 88 3d
       0.08211776 -0.28983286 -0.032226145 0.06648018
000340 3a 17 df 3d 16 5c 17 be eb cd ef bd 23 9d f1 3a
       0.10893102 -0.14781222 -0.117091976 0.0018433671
000350 f3 b4 bf bc e1 0c 88 3c 44 7e 20 3c ac 0e 83 bc
       -0.023401713 0.016607704 0.009795729 -0.015998207
000360 59 a3 d2 3d 28 27 b1 3c d2 d6 47 ba 2c 64 f8 ba
       0.10285062 0.021625116 -0.0007623258 -0.0018950752
000370 40 a5 c9 3a 30 78 e0 bd 1d 35 64 be 7f c6 3d 3d
       0.0015384331 -0.10960424 -0.22285886 0.04633188
000380 4b 67 fc bd 39 1b 93 3e cd a4 16 bd ee 59 84 ba
       -0.12324389 0.28731707 -0.03677826 -0.0010097602
000390 3b 7e 08 3e 2a 73 00 3e d0 0a c5 bc 82 5a 41 3d
       0.13329403 0.12543932 -0.024053007 0.047205456
0003a0 00 9d 26 ba 46 02 06 bb c1 1a 8b 3c 90 ab 7a 3c
       -0.0006355792 -0.0020448132 0.01698053 0.015299693
0003b0 01 f9 0f 3a b6 f3 a6 3c ca 65 83 be b9 2f e4 3d
       0.00054921216 0.020379882 -0.25663596 0.11141915
0003c0 9a f7 d3 3c 13 1b 87 bd 7f 84 1d be f7 0b 2b 38
       0.025874902 -0.06596961 -0.15382574 4.078072e-05
0003d0 38 16 dc 3d f5 23 07 3f 27 d3 0e be 48 c7 3c ba
       0.107464254 0.5278924 -0.13947736 -0.0007201326
0003e0 3b fd fb bc f7 ff 75 3c 91 5f 20 3e be 54 73 ba
       -0.030760398 0.01501464 0.15661456 -0.0009282342
0003f0 a6 f0 cb 3a f8 cc a2 be 58 0f 57 be 42 05 25 3e
       0.001555939 -0.31797004 -0.21001947 0.16115287

input_layer.0.bias f4 [64]
000000 f5 3f 77 38 58 1b 17 ba 64 78 ae 3d f2 15 84 3a
       5.8948954e-05 -0.00057642674 0.085190564 0.0010077341
000010 63 45 fa 3b 55 4c 22 bd 10 62 7e 3e d9 ed e4 b8
       0.007637666 -0.039623577 0.24842095 -0.0001091619
000020 6a 01 8f b9 b6 63 05 39 c8 9c 2e 3d bd 16 f3 ba
       -0.0002727614 0.00012721014 0.042629987 -0.0018546205
000030 7f 5d b8 3b 0a 5d de 38 a4 8e 7b bb 95 f5 56 3e
       0.00562638 0.00010603115 -0.003838458 0.2099212
000040 0c 3b 73 bb c2 bd 10 bd f2 a6 94 bd 18 76 5a bc
       -0.0037114052 -0.035337217 -0.07258405 -0.01333382
000050 b6 36 71 38 38 82 17 3c fe 23 10 3a 33 76 d5 39
       5.750983e-05 0.009247355 0.00054985273 0.0004071459
000060 31 ee ba 37 7f 14 bf 3c 40 5e e4 bb 92 7d e2 3b
       2.2283844e-05 0.023325203 -0.0069692433 0.006911942
000070 f9 e7 3a bd e1 8f 80 bb 06 72 14 39 44 c9 bf 3d
       -0.045631383 -0.0039234017 0.00014156857 0.0936456
000080 7a 13 5f b9 e3 9f b7 bc c6 5d c5 b8 f6 24 4d ba
       -0.00021274193 -0.022415107 -9.411159e-05 -0.0007825637
000090 09 ad 2f bb 58 e5 8c 3e e7 d4 7e 3a 0f 40 dd bc
       -0.0026806018 0.27518725 0.0009721056 -0.027008085
0000a0 9c 9d b6 3d 90 cd 34 3b 3a c9 a7 3d 2f e6 39 bd
       0.0891678 0.0027588345 0.08192678 -0.045385536
0000b0 ff a9 2f bb db f8 f5 3a bd ba 99 be 89 87 d7 3c
       -0.0026804206 0.0018766181 -0.30025283 0.026309745
0000c0 24 ac c6 3a 69 01 20 ba 53 22 37 bc 34 60 16 be
       0.0015157503 -0.0006103726 -0.011177617 -0.14685136
0000d0 17 57 31 be 72 3f 18 3c c0 39 85 3d 36 f6 bc ba
       -0.17318378 0.00929247 0.065051556 -0.0014416638
0000e0 ad eb 96 3d c3 d6 ea bc b6 11 ef b9 1f be 4f 3b
       0.0736917 -0.02866686 -0.00045598828 0.0031699014
0000f0 cf f9 b1 3a 6c e7 30 3d f5 83 0f bc 1f 06 f9 3b
       0.0013578477 0.04318945 -0.008759488 0.0075996066

hidden_layers.0.0.weight f4 [64, 64]
000000 72 a5 a7 bc f5 b6 52 3d df 83 1c ba b4 2f 89 3c
       -0.020464633 0.051444013 -0.0005970578 0.01674638
000010 ac e4 9d bd c8 a0 a7 3c cf 19 f0 bb c3 c0 41 bc
       -0.07709631 0.020462409 -0.0073272954 -0.011825743
000020 c6 3f 75 bc e5 31 7f bc 29 25 4d 3c 18 2d e6 3c
       -0.014968818 -0.015575861 0.012521067 0.028097674
000030 29 97 48 3d 82 fd df 3d 77 f6 d7 bd b1 55 e4 bc
       0.048972283 0.10937025 -0.10545056 -0.027872892
000040 59 05 e7 3d c0 53 e2 bd c3 fa a2 bc 35 0a 16 3d
       0.11280317 -0.1105113 -0.019894963 0.036630828
000050 4e 57 0b bd cd 93 a1 3d 42 aa 30 3d 15 16 22 3c
       -0.034018807 0.07889519 0.04313112 0.00989296
000060 dc 40 81 3c 8e 5f c8 3d 8b ce 08 bd 31 b7 e7 3d
       0.015777998 0.097838506 -0.0334001 0.11314238
000070 07 7c 38 3c cc 0d 40 3d cf 0d 07 3d ba b2 4e bd
       0.011260039 0.046888158 0.032972153 -0.050463416
000080 86 2f ea 3d c8 ad dd 3b ca 03 13 3d bc 2b cf bd
       0.114348456 0.006765101 0.035892285 -0.101157635
000090 8e 6b a6 bc 46 5e 7d bd 1b 1e d1 3d f6 a5 64 bd
       -0.020314958 -0.061857484 0.1021082 -0.055822335
0000a0 e0 56 5d bd d1 62 aa 3d 80 19 32 bc c5 bf 9e bd
       -0.05403793 0.08319629 -0.0108703375 -0.07751421
0000b0 37 27 02 3d dd 7d d0 bd 04 8d 6d 3a 1b 3b 30 3d
       0.03177568 -0.101802565 0.00090618455 0.043025117
0000c0 28 b2 bb bc ed fb e6 bc 43 7a 92 3c d6 97 3a bb
       -0.0229121 -0.0281963 0.017880565 -0.002847185
0000d0 50 1d f1 bd b2 ac 34 3d c3 7f 9c 3c 67 5e 0e bd
       -0.11773169 0.044110008 0.01910389 -0.034757998
0000e0 40 02 33 3d d5 d5 84 3c dc fd a6 3d 8f 32 7e 3c
       0.043703318 0.016215244 0.081538886 0.015514984
0000f0 ba 90 ca bd eb 08 3b bc 04 4b 8f 3d b4 08 5f bd
       -0.09890886 -0.0114157 0.0699673 -0.05445166
000100 67 e7 0b bd 47 93 b2 bc 8f 6c b9 3d 0d 17 2d 3d
       -0.03415623 -0.021798743 0.09053909 0.04225831
000110 3d 49 7f 3c e4 0a e0 bd 2d 02 83 3d fc 4b ce bd
       0.015581426 -0.10939577 0.06396899 -0.100730866
000120 bd 6d a2 3c 89 2d cb 3d 53 34 bb 3d d2 41 a8 bd
       0.019827718 0.099207945 0.091408394 -0.08215679
000130 08 b3 86 3d 27 e6 ee bc 8a ac fd 3c 2d f3 85 bd
       0.06577116 -0.02916248 0.030966062 -0.06540523
000140 f0 a3 b5 bd 7d 07 a0 bd cf 7d 53 3b 91 75 0b be
       -0.08869159 -0.07813928 0.0032271033 -0.13619067
000150 38 37 a9 bd b6 2e 96 bd e1 00 b0 bd a5 68 5c bd
       -0.08262485 -0.07333128 -0.08593918 -0.053810734
000160 52 07 2a bd 6a e4 3f 3d 1e 6c 27 bc c0 6a 05 bd
       -0.041510887 0.046848692 -0.010218648 -0.032572508
000170 6a 16 94 bc 7c ba cf 3d 2c b7 1f bd 69 46 73 bd
       -0.018077094 0.10142991 -0.038993046 -0.05939332
000180 a6 84 c1 3d d5 37 ba bd ff cc c1 bc e1 f3 ad 3d
       0.09449129 -0.0909268 -0.02365732 0.08493782
000190 dd dd 1f bd 4c 24 9f 3d 6a 5a cb bd 3d 8b ff bc
       -0.039029945 0.07770595 -0.099293545 -0.031194324
0001a0 cd 99 eb 39 98 d4 43 bd 1c 30 0e 3c 8a 74 cb bd
       0.00044937283 -0.047810167 0.008678462 -0.099343374
0001b0 ed c7 88 3d 0b 83 b1 bd 89 7e 02 3e 67 95 95 bd
       0.06678758 -0.086675726 0.12743582 -0.07303887
0001c0 2f ac 38 3d cc 19 99 bd b2 ce f9 bd 85 68 08 3d
       0.045086082 -0.074756235 -0.12197627 0.033302803
0001d0 fa f6 41 3d e6 9f c0 3d f4 e0 e2 bd 43 c6 c2 3c
       0.047354676 0.09405498 -0.11078063 0.02377618
0001e0 89 9f ff 3d 4b d6 f8 3d 0a 17 b7 bd 00 7c 45 3d
       0.12481601 0.12150248 -0.08939941 0.04821396
0001f0 8e 5c d9 3b 32 6d a2 bc a6 70 d6 3c 76 bd f3 bb
       0.006633348 -0.019827459 0.026176762 -0.007438357
000200 f1 80 1a 3d be e5 97 3d 30 e2 61 3d 86 2c f0 3c
       0.037720624 0.07416867 0.05514735 0.029318105
000210 10 97 b0 3d ef e8 5f bd 42 5c 95 3d 81 1f df bc
       0.08622563 -0.054665502 0.072929874 -0.027236702
000220 3c 60 27 bd 4f 8c f0 bb b6 c0 09 3a c6 e2 be 3d
       -0.04086326 -0.007340945 0.00052548514 0.09320597
000230 fc 4f 10 3e c1 f1 f0 3c b6 09 21 bd ef d9 6c 3d
       0.14093012 0.029412152 -0.0393159 0.057825025
000240 59 c2 ce 3c e5 c5 8c 3c f7 b1 a3 bd 63 c5 01 3e
       0.025239157 0.017184207 -0.079929285 0.12672953
000250 58 5c 17 3d 48 1c c7 3d 37 c5 a5 bd 56 a8 c4 3c
       0.0369533 0.09722191 -0.08094256 0.02400605
000260 79 a3 b1 bc 8c ad bf 3d b6 4a 34 bd 8d ae 0e be
       -0.021684395 0.09359273 -0.044016562 -0.13933773
000270 96 db 2f 3d 58 cd 50 bd b3 f9 61 bd fd 36 f5 bd
       0.042934023 -0.05097708 -0.055169772 -0.11973379
000280 75 ec b3 3d 94 41 45 3d a1 ab d5 bd 55 92 53 bd
       0.08785335 0.048158243 -0.10433126 -0.051653225
000290 52 45 5f 3d a4 61 fd bd 09 ad d7 3d 4e cd b6 bd
       0.05450947 -0.12372139 0.10531051 -0.089258775
0002a0 4c 9d 9e bd ff 52 c2 3d 54 6b cf 3c 75 bd d1 bc
       -0.07744846 0.094884865 0.025319733 -0.025603035
0002b0 80 01 4d 3d 09 31 81 bd 33 bc 16 be b5 8b d5 bd
       0.05005026 -0.06308181 -0.1472023 -0.104270376
0002c0 1c 29 6f bd d1 48 5c bc 17 23 d6 3d 6c 8d 82 3d
       -0.058388814 -0.013445095 0.104559116 0.0637463
0002d0 0d 4c c6 bd 45 5d 01 be 47 d4 a2 3b f2 1c 9e bb
       -0.09682474 -0.12633236 0.004969153 -0.004825228
0002e0 d5 12 31 bc 11 f3 9b bd 76 6a 96 bd d8 ba 93 bd
       -0.010807713 -0.076147206 -0.073445246 -0.07213372
0002f0 fc 99 c9 3d 0a f1 0f 3e 11 6c c9 3d bc 55 82 bc
       0.09843823 0.14056793 0.09835065 -0.015910022
000300 81 dd 9d bd df 2a c3 bd b1 ad 23 bd a0 64 c4 3c
       -0.07708264 -0.095296614 -0.039960567 0.023973763
000310 9e 88 46 3d 0f 7b 87 bd ca 17 cd bd d4 e3 48 3d
       0.048470132 -0.066152684 -0.10014303 0.0490454
000320 0a 87 8b 3d a3 60 a5 3d 33 3b 32 3d 44 e8 45 bc
       0.06812866 0.080750726 0.043513488 -0.012079302
000330 ee f0 a9 bd 12 37 ea bd dd e4 d9 bc f4 53 b3 bc
       -0.08297907 -0.11436285 -0.026598388 -0.021890618
000340 33 01 be bd dc 61 9d bd 55 a5 a8 3d 71 3c 0d bd
       -0.092775725 -0.07684681 0.082346596 -0.03448147
000350 e1 60 9f 3d 93 44 b4 bd 10 fc 61 bc cb 91 7f 3d
       0.0778215 -0.08802142 -0.013793007 0.0623949
000360 a7 4b 88 bd a3 49 68 3d 21 8e 4f 3d d4 4e 22 bd
       -0.066550545 0.05671085 0.050672654 -0.039625958
000370 d4 a3 5e bd 92 3b a6 bd a0 17 91 bd 2e b9 a5 3d
       -0.054355457 -0.08116831 -0.07084584 0.08091961
000380 54 ec c1 3c d0 ea 88 bc 4a 0d 42 3d 4f a0 39 3b
       0.02367226 -0.01671353 0.047375955 0.002832431
000390 0f 35 a4 3d 20 de 51 bd f0 27 f6 bc cf 80 43 3d
       0.080179326 -0.051237226 -0.03004834 0.047730263
0003a0 4c 2e fb bc 5f 3b 96 3d d5 8c 9e bd e4 67 b7 3c
       -0.030661725 0.07335543 -0.07741705 0.022388406
0003b0 42 1f f4 bd 3f 94 bd 3d cb dd 7b 3d 45 5c d5 3d
       -0.119200245 0.09256791 0.061490815 0.1041799
0003c0 18 ea 9a bc 41 0e c6 3d 6e 2a be bd e2 d6 c5 bd
       -0.018910453 0.096706875 -0.092854366 -0.09660126
0003d0 f2 d4 c2 bd 07 bc 8f bd 1e 45 93 3d ce ce a9 bd
       -0.09513272 -0.07018285 0.071909174 -0.08291398
0003e0 8a 09 4e bd 07 be bf 3d e4 99 7e bd 29 51 52 bc
       -0.050302066 0.09362417 -0.06215848 -0.012836733
0003f0 af cf 20 3d a4 f3 b5 3d b9 01 8d 3d 5e 93 33 bd
       0.039260563 0.088843614 0.06885094 -0.043841712

hidden_layers.0.0.bias f4 [64]
000000 a2 6b 40 3d 92 5b 02 3d ab f5 30 bd c5 79 34 bd
       0.046977647 0.03182561 -0.043203037 -0.04406144
000010 77 04 9a 3d 28 bb 9b bc 26 e3 60 bb 12 98 7f bd
       0.07520383 -0.019010141 -0.0034315079 -0.062400885
000020 13 ab 2c bc d7 f6 9a 3c 2d 86 8b bc e4 e6 6c bc
       -0.010538834 0.01891653 -0.017031753 -0.0144593455
000030 59 f9 89 bb d2 67 22 3d 2a 0b fb 3b e4 36 b6 3d
       -0.0042106328 0.039649792 0.007661243 0.08897188
000040 f8 4b a6 bc 9d dc 9a bc df 59 15 3d 44 34 b7 3c
       -0.020299897 -0.018904025 0.03646266 0.02236379
000050 ea 48 a9 bb d6 04 07 3d 05 85 25 3b 30 09 01 bd
       -0.0051661627 0.032963596 0.0025256288 -0.031502903
000060 8c b4 67 bc 23 6a 5d bd 7e 21 84 3a 7b d0 de 3c
       -0.014142167 -0.054056298 0.0010080782 0.02719902
000070 3a 18 88 b9 cc 97 8a bd bc ae 16 bc 62 3e 0d bc
       -0.00025957992 -0.06767234 -0.009196933 -0.00862083
000080 49 13 9c bc 78 d7 b8 3d 39 7c 4e bd c4 ec 1e bb
       -0.019052165 0.090254724 -0.050411437 -0.002425001
000090 4b 3e 88 3d cb 80 e2 bc d3 94 80 3d f3 88 ff bc
       0.066525064 -0.027649304 0.06278386 -0.031193232
0000a0 b6 4b f4 bc 3f b5 0d 3c e4 1a 71 bc f5 3d 88 bb
       -0.029821258 0.0086491695 -0.014715884 -0.0041577765
0000b0 74 d4 b2 bb 2b c5 86 3c 0d cc 34 bd c4 1a 0c bd
       -0.0054574553 0.016451439 -0.04413991 -0.034205213
0000c0 23 69 9f b9 65 72 ea bb fc 6d 51 bd f6 d3 f8 bc
       -0.00030405176 -0.00715475 -0.05113028 -0.030374508
0000d0 bd 8b 36 3d 43 08 82 bd 6f a6 0a bd 2d cb 1a bc
       0.04456686 -0.06349232 -0.03385013 -0.009447855
0000e0 f1 3e fd 3b 35 f7 38 bb 8d 75 38 bd 8d 20 8c bc
       0.0077284505 -0.0028223519 -0.04503398 -0.017105365
0000f0 1b 2e 0a 3d 1e f6 35 3c 99 8c 5a bb fb 31 c7 3b
       0.033735376 0.011106042 -0.0033347963 0.006078956

hidden_layers.1.0.weight f4 [64, 64]
000000 27 da c7 bb 99 27 95 bd cb 29 64 3d af 35 76 bd
       -0.006099004 -0.07282943 0.05570392 -0.06010979
000010 d2 91 ea 3d 6c 14 99 ba be 53 b7 bd 14 c3 4e bc
       0.11453594 -0.001167906 -0.089515194 -0.012619752
000020 4f 28 90 bd 61 8c 7f bd 52 98 7c bc 5f a7 9a bb
       -0.07038938 -0.062389735 -0.015417175 -0.004719659
000030 2a 12 cc 3d 22 b3 d9 3c 03 cf 11 bd 1a 21 e2 3d
       0.09964402 0.026574675 -0.035597812 0.1104147
000040 59 b7 8d 3b b4 0d e1 3d 04 8f b8 bd ff 00 99 bd
       0.0043248353 0.10988942 -0.09011653 -0.07470893
000050 91 e3 14 3d 67 4a 99 bd 84 79 c8 3c 66 77 36 bd
       0.036349837 -0.07484894 0.024472006 -0.04454746
000060 d0 99 e6 3d c9 0a c3 3d 5e a9 b9 3d 4b 80 a6 3d
       0.11259806 0.095235415 0.09065507 0.08129939
000070 ac 6e c3 bd ce 7d 3d 3c d0 86 9d bd 39 c3 bd bc
       -0.09542593 0.011565639 -0.07691729 -0.023164378
000080 f5 3e 81 bd e8 88 ac 3c cb 48 cb bd 32 0f 97 3d
       -0.06310836 0.021061376 -0.099259935 0.07375945
000090 d2 e2 38 bc 0d 18 bf bc fa ef ad 3d 64 83 8e 3d
       -0.011284547 -0.023326898 0.084930375 0.069586545
0000a0 7d 86 16 bd 35 f3 86 3d 6a 0f 23 3d 37 c0 c0 bd
       -0.03674935 0.06589357 0.039809622 -0.09411662
0000b0 33 3d cc bd dc fa aa 3c 37 e6 79 bd e2 a0 e0 3d
       -0.0997261 0.020871572 -0.061010566 0.10968186
0000c0 5c 82 4b bd 1e 4c b4 bc a1 15 d6 bd 21 8a 88 3d
       -0.049684867 -0.022008952 -0.10453344 0.06666971
0000d0 c1 a1 dc bd be 4f ae 3c 01 a8 92 bd 2f 61 d4 3d
       -0.107730396 0.021278258 -0.071609505 0.10370099
0000e0 0c b4 8a bb 45 af 91 3d 9b f0 a3 bc cb 92 97 bd
       -0.004232889 0.07113508 -0.02001219 -0.074010454
0000f0 4d ee 91 3c 27 f6 57 3d 60 58 80 bd dd af 80 3b
       0.017813826 0.052724984 -0.06266856 0.0039272145
000100 df 7e 89 bd c5 6a 7f bd 41 75 81 3d de 14 7e 3d
       -0.06713652 -0.062357683 0.063211925 0.06203162
000110 41 18 ad 3d 9a c3 8f bd d8 b9 be 3d df 45 9c 3a
       0.08451892 -0.0701973 0.09312791 0.0011922679
000120 80 6d 49 bc 16 60 dc bd 03 34 6a bd 1f df 1d 3d
       -0.012294173 -0.107605144 -0.05717851 0.038542863
000130 34 44 93 3d 16 1d 92 bd b6 a4 d5 bc dd c5 00 3e
       0.07190743 -0.07134454 -0.026079517 0.12575479
000140 46 8f 70 3d e5 1a 13 3d bc ee 55 bd b0 87 53 3d
       0.058730386 0.03591432 -0.052229628 0.051643074
000150 de 4f ba bd c7 db cc 3d c5 f7 c4 3d 44 61 e8 3d
       -0.09097265 0.10002857 0.09617571 0.11346677
000160 5b 14 d9 3d fe 55 a9 3d f3 55 b1 3c 61 ed f7 bb
       0.105995856 0.08268355 0.02164743 -0.0075661396
000170 03 e1 fc 3b 17 e0 bc 3d aa 0e e9 3d fe ce 09 3a
       0.007717253 0.09222429 0.1137975 0.00052569795
000180 6f ad d1 bb 99 cd fa 3b 9d c9 75 3c e6 27 59 bd
       -0.0063988487 0.0076539037 0.015001682 -0.053016566
000190 06 75 c0 3d a0 ed 86 bd 20 92 aa 3c 89 d3 cf 3d
       0.093973204 -0.06588292 0.020821631 0.10147769
0001a0 f7 47 d1 3d 98 d0 0d 3c 92 14 6a bd fc 58 df 3d
       0.10218804 0.00865569 -0.057148524 0.10905644
0001b0 a1 da c5 bd d2 72 0d 3d 39 9e 7c bd 04 d0 95 3d
       -0.09660841 0.03453333 -0.06167433 0.073150665
0001c0 ba e6 df bd 9a 8f cb bd 98 66 ad 3c ed e0 76 bd
       -0.109326795 -0.09939499 0.021167085 -0.0602731
0001d0 e4 23 ac 3d ba 19 ff 3d 0c 48 d5 bd 0e 2e cc 3c
       0.08405283 0.12456079 -0.104141325 0.024924304
0001e0 29 f0 e9 3d c1 49 92 bb c0 63 6b 3d 8d 4e f1 bd
       0.1142276 -0.0044643586 0.057468176 -0.117825605
0001f0 31 e9 d2 bd b8 1d 91 3d 9a 29 6c 3d 5a 5b a7 bb
       -0.10298384 0.070857465 0.05765686 -0.0051073255
000200 02 83 c7 bd 0a 8d 9d 3c 8d 02 21 3d 5d 94 31 3c
       -0.09741785 0.019232292 0.039309073 0.010838595
000210 d9 a1 9c 3d 98 18 97 bc 16 c5 d6 3d ab 6e d4 bd
       0.076480575 -0.018444344 0.1048681 -0.10372671
000220 63 2a 9a bc 14 59 df bd 47 93 c9 bd cc d8 84 bd
       -0.01881904 -0.10905662 -0.09842544 -0.06486663
000230 98 15 db 3c 73 23 d8 3b a4 c8 a2 bd da 1f c4 bc
       0.026743695 0.0065960228 -0.079484254 -0.02394097
000240 43 43 e6 bd bf c4 88 bd e5 c2 34 bb 5d 9a 5f 3d
       -0.11243298 -0.06678151 -0.0027581987 0.05459057
000250 b4 af 11 3d fe d5 40 bd 82 ce d7 bd b5 7d ab bd
       0.035567954 -0.04707908 -0.10537435 -0.08373586
000260 a5 0f e5 3c 52 45 c7 3d d1 23 95 3c 06 1a 5f 3c
       0.027961561 0.09730019 0.018205555 0.013617044
000270 cd f8 cb bc 11 07 b8 3c 7f 03 8e 3d a6 90 d9 bd
       -0.02489891 0.022464307 0.069342606 -0.106232926
000280 5b 31 d2 bc 8d 84 9c 3d 33 d0 77 3d 20 d2 9b 3d
       -0.0256583 0.076424696 0.06050129 0.076084375
000290 23 3f ae 3d 29 0c d7 bc 59 22 ad 3c 7b 4e b1 bc
       0.08508136 -0.026250916 0.021134542 -0.021643868
0002a0 d5 71 be 3d 51 35 be 3c 0a 79 06 3d e0 2a 65 3d
       0.092990555 0.023218783 0.032830276 0.055949092
0002b0 47 19 b2 3c 6c 54 a9 3d 1d 26 1e bd eb 3a fd 3c
       0.021740569 0.08268055 -0.038610566 0.030911883
0002c0 b2 34 18 bc 2d e5 92 3d a2 48 bf 3c 77 08 46 bd
       -0.009289907 0.07172618 0.023350064 -0.048347916
0002d0 b8 4c f8 3d a3 11 c7 3c 6c a7 02 3d 90 88 29 3c
       0.12124008 0.024300402 0.031897947 0.0103475
0002e0 49 c2 7c 3d 07 63 39 bd aa c1 12 3b 47 06 1d bd
       0.061708722 -0.045260455 0.0022393265 -0.038336065
0002f0 30 cb b8 3d b7 75 79 3c 29 6e e4 bb 3d 75 ce 3c
       0.0902313 0.015225819 -0.00697114 0.025202388
000300 9a c1 1a 3d 4e 45 38 bd 9e 26 fb 3d 74 d2 2e bd
       0.03778229 -0.04498797 0.12263225 -0.042681172
000310 d6 44 9f 3d 42 a3 3f bd 49 21 5e bc 22 64 82 3d
       0.07776801 -0.046786554 -0.0135577405 0.06366755
000320 15 21 0e 3b 01 49 19 bc 50 e2 8d bd d2 99 9e 3d
       0.00216872 -0.009355784 -0.06927931 0.07744183
000330 c8 7f 27 3e 73 fa d1 bc 94 e1 8d 3d 83 09 2c bd
       0.16357338 -0.025632119 0.06927791 -0.04200126
000340 e0 cf c9 bb 26 c4 93 bd 6f e4 a1 bd 27 72 24 3e
       -0.006158814 -0.07215147 -0.079048984 0.1605917
000350 42 95 1b 3c fd de c9 3d 31 35 bc 3c 98 0a c8 3d
       0.009496035 0.09856985 0.022974582 0.097676456
000360 44 f5 73 bd e4 d6 a0 3c 53 53 b3 3d 37 3b 63 3c
       -0.059560075 0.019633718 0.08756127 0.013869098
000370 a8 82 ad bd 2f 5c 20 bd 7c f2 43 bd db 93 0c be
       -0.08472186 -0.039150413 -0.047838673 -0.13728277
000380 f1 23 47 3c 94 f4 c5 bc 00 25 8a bd 43 f9 4f bd
       0.012154565 -0.024164476 -0.067453384 -0.050774824
000390 d6 3b 6b 3d 1d 85 52 3d 8b 37 05 3e 7f 28 4b 3d
       0.05743011 0.051396478 0.13009469 0.049599167
0003a0 40 25 96 3d 6a e1 89 3d 01 af 41 bd 89 ef fe 3c
       0.073313236 0.067324474 -0.047286037 0.031120079
0003b0 04 62 d5 bb f1 f7 ac bb 7b 48 51 3d de ba a2 3d
       -0.0065119285 -0.0052785804 0.051094513 0.07945798
0003c0 50 ab c8 3d 91 be 87 bd 82 4d 29 3c 88 eb 02 bd
       0.097983 -0.066281445 0.010333421 -0.0319629
0003d0 cd 02 c1 3d ac 4a 5a 3d a4 de 32 3d 9e 9b 0b bd
       0.09424362 0.05329387 0.043669358 -0.034083955
0003e0 90 9e 0e bd 3a 91 fb bd a1 5e 0d 3b 72 46 75 bd
       -0.034819186 -0.12283559 0.0021571296 -0.059881635
0003f0 92 b5 fb bb 37 48 ec 3d ba 4f ac 3d dc a2 d9 3d
       -0.007681557 0.115372114 0.08413644 0.10626766

hidden_layers.1.0.bias f4 [64]
000000 78 91 81 bd dd cc cc bc f5 1b 23 3c c8 56 88 bd
       -0.06326574 -0.02500003 0.009955396 -0.06657177
000010 3d fa 83 3c aa 1c 7c 3d a7 45 c8 3c d7 c6 b8 3d
       0.016110534 0.061550774 0.024447275 0.09022301
000020 84 83 4f 3d db 34 c4 bd 33 83 bf 3c 03 fe a9 bd
       0.050662532 -0.09580394 0.02337799 -0.08300402
000030 77 50 a2 3c ac ae 6e 3c a9 5b b2 3d 9b a3 7c bd
       0.01981376 0.014568012 0.08708889 -0.061679464
000040 ad b0 53 bd 13 09 a8 3d e1 e5 40 39 a8 a8 35 3c
       -0.051682163 0.08204856 0.00018396183 0.011087574
000050 58 0c 03 3d 88 43 1f bc 68 9a ae 3d 7f 91 7b bd
       0.031994194 -0.009720691 0.085255444 -0.061418053
000060 ee 1b 84 3d 74 49 aa 3c 76 62 56 bd d2 da 8f 3c
       0.0645064 0.020786978 -0.052339993 0.017560396
000070 8d 64 48 3d ae 4f 95 3d 75 49 af 3d c3 a8 02 bc
       0.048924018 0.07290588 0.08558933 -0.007974806
000080 df af 3f bd 7d b4 c3 3d 74 05 b8 3d a0 7a 85 bd
       -0.046798583 0.0955591 0.08985415 -0.065175295
000090 b9 22 f9 3c 8a 1b ba 3a c0 56 8b 3c 1d 56 56 3c
       0.030412065 0.0014198881 0.017009139 0.013082054
0000a0 f4 6a 95 bc c6 ed 4c bd 3d 87 00 bd b7 b1 0a bb
       -0.018239476 -0.050031446 -0.031378973 -0.0021163055
0000b0 6a 85 3e bc ef d4 81 b7 86 cb 86 3d 15 06 ea bc
       -0.011628488 -1.5477153e-05 0.06581788 -0.028567353
0000c0 ae e3 8f 3d 3c ce e9 bc a4 d1 1f bd ac 12 12 bd
       0.07025848 -0.028540723 -0.03901829 -0.03566234
0000d0 d3 a8 5e 3d b6 02 b9 bc 57 bb bd bd 74 fb bc 3c
       0.054360222 -0.0225843 -0.09264248 0.023069121
0000e0 6b 07 7f 3c 4f bc 86 bd 6f 4b 78 bd e3 9b 86 3c
       0.015565733 -0.06578886 -0.060618814 0.016431754
0000f0 c6 54 8c bc c0 2a d3 3c 9b e8 3e bd f2 47 17 b9
       -0.017130267 0.02577722 -0.04660855 -0.00014427284

hidden_layers.2.0.weight f4 [64, 64]
000000 1d 46 59 bc c9 ef a2 bc f9 d4 69 bd 92 f1 70 ba
       -0.013261345 -0.01988973 -0.057087872 -0.000919127
000010 b5 1a ed bd 84 29 cf bd 51 31 0a 3d f1 d0 11 bd
       -0.115773596 -0.1011534 0.033738438 -0.035599653
000020 62 4c cf 3d e0 52 18 bd bc 5e 80 3d 06 f5 92 3d
       0.10121991 -0.03718841 0.06268069 0.07175641
000030 f6 8a 82 bc be bb c2 3c 32 2e bd 3d ea 69 b7 3d
       -0.015935402 0.023771163 0.09237327 0.089557484
000040 f9 91 22 bd b9 d7 97 bd 57 86 b7 3d 65 1a f6 bd
       -0.03968999 -0.07414193 0.0896117 -0.12016753
000050 66 3a b5 bd 97 be 8a 3d d4 7c c8 3d aa b1 b6 bd
       -0.08849029 0.067746334 0.09789434 -0.089206055
000060 c1 0f 25 bd c3 31 c0 3d d0 b3 63 bc 6e 88 7a bd
       -0.040298227 0.09384491 -0.013897851 -0.061165266
000070 ca 68 47 bd b6 0e 88 bb 89 20 a4 bc b9 df e5 bc
       -0.04868392 -0.0041521443 -0.020035045 -0.02806078
000080 f1 97 a9 3c e1 ce d2 bd 4f fc bf 3d ac ab 06 bc
       0.020702334 -0.10293365 0.09374296 -0.008219641
000090 71 1d 18 3d 63 dd a8 3d 27 8c c3 3a ae d0 82 bd
       0.037137453 0.08245351 0.0014919088 -0.06387459
0000a0 bb bf b7 bd 73 a8 96 3d f2 22 3d bd 1b c9 9d bd
       -0.089721166 0.07356348 -0.046175905 -0.077043734
0000b0 3c de e4 bb 18 db f0 3d 00 b3 b3 bd 90 b2 9d bd
       -0.0069845 0.11760539 -0.08774376 -0.07700074
0000c0 53 e3 56 bc 14 48 88 3d 5c 4e b3 bd f8 35 7c 3d
       -0.013115722 0.06654373 -0.0875518 0.061574906
0000d0 31 24 c0 bd d8 15 34 bd e8 fb 85 bd 79 17 4a bd
       -0.09381903 -0.043966144 -0.06542188 -0.04933879
0000e0 c6 7d c3 3c 79 6c 77 bd 85 67 c4 3d 74 74 76 bd
       0.023863684 -0.060406182 0.09590057 -0.060169652
0000f0 1e 65 47 ba d5 08 de 3b 52 8c 9f bd 7f 2d cf bd
       -0.0007606315 0.006775955 -0.07790436 -0.101160996
000100 53 19 ae 3d 30 6c 4b 3d e9 7c e5 3d 57 6a 76 3d
       0.08500924 0.049663723 0.11205465 0.060160007
000110 c8 da cf 3d 22 af 98 bd 1d 39 e4 bd 94 0b d3 3d
       0.10149151 -0.07455279 -0.11143706 0.10304943
000120 a3 46 7f 3d 83 0c b4 bd a6 1e a2 bd 43 b6 ba bd
       0.062323224 -0.08791449 -0.07916002 -0.09116795
000130 fa 72 ab bd 1c 5d 5f 3d d3 b5 9a bd a6 7f ca bd
       -0.083715394 0.054532155 -0.075542115 -0.09887628
000140 f4 89 f5 3c c9 fb 8b bd 07 59 cc bc 6c 85 8b bd
       0.029973008 -0.068351336 -0.024944795 -0.068125576
000150 21 ff bd bd ac 15 98 bd 6f 90 bf bc 89 d1 90 3d
       -0.092771776 -0.074260086 -0.023384301 0.07071216
000160 85 32 09 bd 1f 21 01 3d 31 e5 a0 3d 77 58 90 3d
       -0.033495445 0.031525727 0.07856215 0.07048123
000170 9c 44 aa bd 36 08 88 3b e9 da 24 3b e2 30 cd bc
       -0.083138674 0.0041513694 0.0025154895 -0.025047723
000180 2e ee 6e bd 02 a6 4b 3d 4e a2 cd bd 7c 5a 4c 3d
       -0.058332615 0.049718864 -0.10040723 0.04989098
000190 cb ec 1c 3d 50 a5 85 3d 20 4a d1 bd 12 95 a8 bd
       0.03831176 0.065256715 -0.10219216 -0.08231558
0001a0 56 e6 ad bd 18 a5 78 3c 49 da 3d bd 4f f1 dd bc
       -0.08491199 0.01517608 -0.04635075 -0.027092604
0001b0 1d ab c5 bd a2 52 2b 3c 67 3e 6c bd d6 18 55 3d
       -0.09651778 0.010456713 -0.0576767 0.05202564
0001c0 6f bb 8a 3d 79 bb 35 bb 02 8c 98 3d 65 7c 92 bd
       0.06774031 -0.002773015 0.07448579 -0.071526326
0001d0 45 ca 28 bd 0d 85 6c bd c3 34 d8 3d 9c 9c 0b bd
       -0.041208524 -0.057744075 0.105569385 -0.0340849
0001e0 54 43 5e bd 20 f7 45 3d 41 4a 9f bd 91 3d f8 bc
       -0.054263428 0.04833138 -0.07777835 -0.030302795
0001f0 61 f6 73 bd 4f 71 9c bd 23 d2 9f 3d 21 07 62 3d
       -0.059561137 -0.076387994 0.07803752 0.05518258
000200 7d 09 06 bd d1 2f c1 3d 26 8a cd 3d 3f 12 0c 3d
       -0.032723892 0.094329484 0.10036115 0.03419709
000210 17 4c 79 bd e2 df a0 3d 57 42 b2 3d 19 7d 88 3d
       -0.06086358 0.07855202 0.087040596 0.066644855
000220 89 5d 60 3c b4 7d a5 3a 9c d7 c0 bd a5 98 54 3b
       0.0136941755 0.0012625963 -0.09416124 0.0032439616
000230 93 ca 87 3c 16 71 94 ba 41 e7 a6 bc 3e ec 4e bd
       0.016576087 -0.0011325206 -0.020373942 -0.050518267
000240 af d6 0d 3e af 7f a5 bd 76 6c 0f bd 5b 9d de 3b
       0.13851427 -0.08080994 -0.035015546 0.0067936606
000250 70 a1 1f bd a3 3e 0d 3d bb ff 13 3d b9 9e c1 bc
       -0.03897232 0.034483563 0.036132555 -0.023635255
000260 fc b7 37 bd 0f 7d 76 bd 02 f3 21 3d 2e 1e bd 3b
       -0.044853196 -0.06017786 0.03953839 0.00577142
000270 26 d6 ec 3d c5 22 d2 bd 9b 78 97 bd f9 3a 2a bc
       0.11564283 -0.10260538 -0.073960505 -0.010390037
000280 d9 5a 57 bd 9a 01 89 bd b5 9d 7e bd f6 66 8b 3d
       -0.052576873 -0.066897586 -0.06216212 0.068067476
000290 bd c5 8b bd 3c c8 3d bd ef 63 9d bd 33 c0 39 bd
       -0.06824825 -0.046333537 -0.076850764 -0.04534931
0002a0 a9 d4 00 3c ee 35 10 3e 0c 05 e4 bb 9f f6 16 bb
       0.007863202 0.14083073 -0.0069586094 -0.0023035181
0002b0 6f f4 5f 3a 81 d8 11 bd 5b 16 08 bd 2e f8 04 3c
       0.00085431983 -0.035606865 -0.033224445 0.008115811
0002c0 2e 9f 94 bc 13 22 f2 3d b4 d1 ad 38 a2 71 95 3d
       -0.018142309 0.118229054 8.288343e-05 0.07297064
0002d0 51 4d e3 3d 71 85 81 3d 2a 68 78 3d f6 dd 86 3d
       0.11098731 0.0632428 0.060646214 0.065853044
0002e0 ab ba 30 bd 39 de ba bd 0b f6 76 bd 7e dd 93 3d
       -0.04314677 -0.09124417 -0.06029324 0.07219981
0002f0 ca ce a4 bd 1b 89 0e bd 4c d4 8c bd 61 1d a6 bd
       -0.080472544 -0.034798723 -0.0687643 -0.08111072
000300 f7 18 12 3d 1c ca a9 3d 67 c9 98 3d 60 4b 25 3d
       0.03566834 0.082905024 0.074602894 0.040355086
000310 b6 3b d1 bc 86 38 35 3c 1f cb 29 3d b6 9f 0d 39
       -0.025541168 0.0110608395 0.041453477 0.00013506305
000320 2e 67 9d bd f5 42 28 3d 68 b2 ca bd da 9e c6 3d
       -0.076856956 0.04107948 -0.098973095 0.09698267
000330 e1 36 43 3d 4c 6f 2c bc 6f f5 e7 3c 16 a6 02 bd
       0.04765976 -0.010524582 0.028315274 -0.031896673
000340 98 65 bc ba 78 8f 0c bd 12 2a 3e bd 6b b5 b4 3d
       -0.0014373539 -0.03431651 -0.04642684 0.08823665
000350 d4 7d 82 bd 29 27 3a bc f5 52 69 3d 30 57 83 3d
       -0.06371656 -0.011361876 0.05696388 0.06413114
000360 5a 70 52 3d 26 c3 85 bb 69 be 3c 3d e5 2b a2 3d
       0.051376678 -0.0040821014 0.046080027 0.079185285
000370 e8 ab 8a bb 57 f5 77 3d f3 e8 16 3b 45 c1 a2 3d
       -0.0042319186 0.06053671 0.0023027032 0.079470195
000380 e9 17 74 bb 34 85 ab bc 67 4d 38 bd 3d c2 92 bc
       -0.0037245697 -0.02093754 -0.04499569 -0.017914886
000390 ba 5d b5 bd 3e d5 c1 b9 2f 16 bd bd 7a 6b ee bd
       -0.088557675 -0.00036970706 -0.09232747 -0.11641593
0003a0 67 16 d6 bd f2 75 e4 ba 0e 75 8a 3d 36 37 e6 bc
       -0.10453492 -0.001743017 0.06760608 -0.028102499
0003b0 a1 96 dd bc a1 86 c9 bc 8f 60 19 bd b2 2d 37 bd
       -0.027049365 -0.024600329 -0.0374456 -0.044721313
0003c0 9d 5c ca 3d dc c3 32 3d 01 e2 9b bc d9 3b 14 3d
       0.09880946 0.043643817 -0.019028665 0.036189888
0003d0 0f df 2a bd d6 2f 42 bd 69 60 37 bd 80 a4 94 bd
       -0.04171663 -0.0474089 -0.04476968 -0.072579384
0003e0 a7 65 5d 3d 6e 0b 08 3c 42 f0 2c bd 14 8c 03 bd
       0.05405202 0.008303506 -0.042221315 -0.03211601
0003f0 e6 ad 2c bd 86 f8 67 bc ce 29 5b bb 7d f4 99 3d
       -0.04215803 -0.014158374 -0.0033441666 0.075173356

hidden_layers.2.0.bias f4 [64]
000000 54 3a 19 3d d1 42 76 bd df 91 0e bd 2f 2b 45 3d
       0.03740914 -0.060122315 -0.034807082 0.048136886
000010 9b 44 b3 3b 93 fb 7d 3c 3d a5 d3 bc 05 75 b8 3d
       0.005470825 0.0155018745 -0.025835628 0.09006695
000020 96 0b 1b 3d 17 be 3f 3d 2c fd bc bd 3f 73 54 bd
       0.037852846 0.046812143 -0.09227976 -0.05186772
000030 23 62 6a bd 84 21 4d 3d ad 77 c8 3b 56 81 19 3c
       -0.057222497 0.05008079 0.006117782 0.009369215
000040 4e 93 c0 3b d4 b1 4f bd 09 b1 89 bd f9 b0 06 bc
       0.005876935 -0.0507067 -0.0672322 -0.0082209045
000050 0c a7 b3 bd 9e ea cb 3c 3e 66 96 bd 0b 4b ee 3c
       -0.08772096 0.024892148 -0.0734372 0.029088518
000060 90 c6 5b 3d 4a 74 03 bc 6a 5c a0 bd 6e 4e 97 bd
       0.05365616 -0.008023331 -0.078301266 -0.07388006
000070 10 0f 25 3d 6b 07 3c 3c 0d bb 2e 3d f6 21 be 3c
       0.040297568 0.011476378 0.042658854 0.023209553
000080 7b 23 02 bd b8 78 8a bd 08 93 54 3d ce 6c a5 bc
       -0.031772118 -0.067613065 0.051898032 -0.020193484
000090 d1 de 17 bc 29 87 2d 3d 66 db 63 bc 16 18 99 bd
       -0.009269432 0.042365227 -0.013907289 -0.07475297
0000a0 46 1e 2e 3c d4 7e 57 bd 5c 1e a8 bc 7f 30 a3 3c
       0.010627335 -0.052611187 -0.020522289 0.019920586
0000b0 d5 8b 75 3d 67 54 68 3c 18 15 9a 3b fa d9 45 3d
       0.059947807 0.014180279 0.0047022216 0.04830358
0000c0 7f 71 b3 bc 01 f1 51 3d 9e b2 7a 3d 67 2b 8d bd
       -0.021904705 0.05125523 0.0612055 -0.06893044
0000d0 02 70 a9 bd 39 45 56 3c c4 5a 20 bd 47 a0 7a 3d
       -0.08273317 0.013078027 -0.03914906 0.06118801
0000e0 91 13 9e 3d 9f c6 9f 3d 2e 5b 80 bd 0b 73 1a ba
       0.07718576 0.07801556 -0.06267391 -0.00058917765
0000f0 6c 46 de ba 91 c3 a4 3c a5 9e 16 bc 74 36 15 bd
       -0.0016958243 0.020112785 -0.009193097 -0.036428884

hidden_layers.3.0.weight f4 [64, 64]
000000 bd fd 86 bd d7 2e c6 ba b6 fa 1c 3d f3 0b 21 3c
       -0.065913655 -0.001512016 0.038325034 0.009829509
000010 b7 8e 8d 3d 38 9d d5 bc 58 e8 0c 3d 78 20 30 3d
       0.06911986 -0.026075944 0.034401268 0.042999715
000020 9c 82 f2 bd c0 f7 61 bc 93 02 1c 3d 23 e8 83 3d
       -0.11841318 -0.013791978 0.038088392 0.06440761
000030 83 3a 98 3d b4 f9 a4 bb ef c8 99 bd 5d 2c bf bd
       0.07433035 -0.0050346497 -0.07509028 -0.093346335
000040 de 94 98 bd e3 be 92 bc 0b e3 bc 3c e0 f4 b8 bd
       -0.07450269 -0.017913288 0.023057481 -0.09031081
000050 ab 8f 25 3d 1a 4b 2a 3d 33 c3 54 3c 50 b8 a7 bd
       0.040420216 0.04157553 0.012985992 -0.08189452
000060 b3 35 27 bc 03 22 81 bc c6 d4 dc 3c da 97 c0 3d
       -0.010205674 -0.015763288 0.026956927 0.094039634
000070 24 c5 a6 bd 40 ed a5 bb e8 9f 9e 3c 35 34 41 bd
       -0.0814307 -0.005063683 0.019363359 -0.04716893
000080 d3 2b d7 3d 47 be 77 3d f4 16 d0 bd 93 ba b2 bd
       0.10506406 0.060484197 -0.10160628 -0.087269925
000090 3e 67 a9 bd 25 c4 3f bd ae 9f 45 3d cc 44 b5 bd
       -0.08271645 -0.046817917 0.048247986 -0.088510126
0000a0 d4 30 71 3d d2 8d d4 bd 16 eb 6a bd 78 b4 b1 bb
       0.058884457 -0.103786126 -0.0573531 -0.005423125
0000b0 ea bd cd ba f6 55 29 3d ad 39 c1 3d da b0 a0 bc
       -0.0015696858 0.041341744 0.09434829 -0.01961558
0000c0 91 cc e0 3d 21 f9 85 3d d5 89 9e bd 23 18 4a 3d
       0.10976518 0.06541658 -0.07741133 0.049339425
0000d0 c3 88 38 3d 4c 5c 71 3c 2c 63 a4 bd e8 34 cb 3d
       0.0450523 0.014731478 -0.08026728 0.099222004
0000e0 b3 1a fd 3d 42 2e 31 bd fd c5 c5 bd 5b c6 56 3c
       0.12358608 -0.043257006 -0.09656904 0.013108815
0000f0 aa 3e d2 3c 5e c6 b0 3d 67 6e aa bd 8d 0f 2f 3d
       0.025664646 0.086315855 -0.08321839 0.04273944
000100 1b 41 af 3d 1b 6b 74 3d b4 c7 76 3c 7b 26 c4 bd
       0.0855734 0.059672456 0.015062261 -0.09577652
000110 39 12 29 3c 29 fd ee 3d 1d 8a 0e bd 38 20 9c 3d
       0.010319286 0.1166938 -0.034799684 0.07623333
000120 c6 34 27 3d e2 0f e0 bd e8 d9 de bd 44 fd 2f bc
       0.040821813 -0.109405294 -0.10881406 -0.010741536
000130 ce 74 de 3d 2d fb d5 bd 62 45 01 3c dd c0 87 3c
       0.108621225 -0.104482986 0.007890077 0.016571457
000140 d9 ee dd bc 88 7a 05 3e 00 48 cc bd bf 5f 05 3e
       -0.02709143 0.13035023 -0.099746704 0.13024805
000150 71 18 28 be 12 ed 0a 3d 4f b4 d8 bc 03 3c ce bd
       -0.16415574 0.033917494 -0.026453165 -0.1007004
000160 70 bf 75 3d b9 23 a6 3d a1 39 e0 bd a2 a5 9f 3d
       0.059997022 0.08112282 -0.10948492 0.07795264
000170 db 6a b5 3d aa a1 b5 3c 29 bb 04 be af 98 ad 3c
       0.08858272 0.022171814 -0.12962021 0.02119097
000180 03 94 9c bd 3b 2e ae 3d 06 99 4e bc de 83 38 3d
       -0.076454185 0.085049115 -0.012609726 0.045047633
000190 d0 02 b4 3d 2b 25 44 3c 51 71 c9 bd 37 cd dd 3d
       0.08789599 0.011971752 -0.098360665 0.10830157
0001a0 5b 3c cb 3d 41 e8 ce 3c 2a 9c 55 3c 36 c5 b4 3d
       0.09923621 0.025257232 0.013037721 0.088266775
0001b0 e8 3a 10 3e 38 2b 46 3d 0e 91 ec bd 64 be 0c bd
       0.14084971 0.04838106 -0.115511045 -0.03436126
0001c0 36 f5 ae 3d fe 52 c1 3d ce fc b8 3d cc 15 d9 bd
       0.08542864 0.09439658 0.09032594 -0.105998605
0001d0 a0 b9 ca 3d b7 41 e3 3d 69 44 d3 3d fc 46 7b bd
       0.098986864 0.110965185 0.103157826 -0.061346993
0001e0 9e 44 0d bd f5 3b 8b bd 1f bf 60 3d 56 fc 9c 3d
       -0.034489267 -0.06798545 0.054869767 0.07665317
0001f0 35 48 93 3d 86 39 07 3b 6e 9f a5 3c de 53 06 be
       0.07191507 0.0020633652 0.020217624 -0.1311793
000200 24 4b f4 bc 36 d2 21 3d 9d 01 8d bd df c3 ff 3c
       -0.029820986 0.039507113 -0.06885073 0.031221328
000210 c2 ab c6 bd 20 34 78 3d 0a 03 dc 3d 7b c8 54 bd
       -0.09700729 0.060596585 0.10742767 -0.051949006
000220 a8 a1 8c bd b8 0d 05 3e f5 df 93 3d aa 32 a8 3d
       -0.06866771 0.12993515 0.07220451 0.082127884
000230 40 cc 95 3d 15 1f d1 bd 3e 9c b6 3d 08 2f 10 3e
       0.07314348 -0.102110066 0.089165196 0.14080441
000240 72 ed 41 bd e7 c3 96 bd 19 54 a7 bd 34 21 a6 3d
       -0.047345586 -0.07361584 -0.08170337 0.08111802
000250 cd 07 a6 bd 3a 58 a3 3d 08 8e 05 be 99 08 c8 3c
       -0.08106957 0.07975812 -0.13042462 0.024418162
000260 84 8f 82 bd 14 1b ec 3c a2 83 c1 38 09 4f c5 3d
       -0.0637503 0.028821506 9.227476e-05 0.096342154
000270 93 88 82 bd 5e 13 32 3d e8 d3 03 be 33 b2 77 3d
       -0.06373706 0.0434755 -0.12873805 0.06047268
000280 2e dc 57 bd af ad 8a 3b 6f 7b 21 bb 26 05 d9 bd
       -0.052700214 0.0042321305 -0.0024640223 -0.10596685
000290 ee 6a 1f bb a0 0e 91 bc 46 6c 18 3d 94 a5 a7 bc
       -0.002432521 -0.017707169 0.037212633 -0.020464696
0002a0 fe c3 16 3d 6c db ce bd 0e 24 5c bd 14 72 8e 3d
       0.036808006 -0.10100445 -0.053745322 0.069553524
0002b0 b7 3f c1 3d e7 96 ca bd b1 f1 31 bd 96 5f 60 bd
       0.09435981 -0.098920636 -0.043443386 -0.054778658
0002c0 3e 34 8b 3d 9c 6f b0 bd 14 7b a9 3d 50 27 e3 bd
       0.06797074 -0.08615038 0.082754284 -0.11091483
0002d0 51 d6 c4 bd 96 07 e3 3d b5 35 85 bd b9 3a 98 bd
       -0.0961119 0.11085431 -0.065043844 -0.074330755
0002e0 68 f2 08 3e f5 c9 1f bc bb d6 68 3c 34 0d 83 3d
       0.1337372 -0.00975274 0.014211352 0.06399003
0002f0 a8 6c b8 bb ab ed 9c 3c 3c c8 b6 3d 15 50 96 bd
       -0.005628187 0.019156298 0.089249104 -0.07339493
000300 c1 88 0b bd f1 1a be 3d b4 a3 e7 3c 7a f1 eb bd
       -0.034065966 0.092824824 0.028276302 -0.115206674
000310 13 14 d8 bd 59 3e e2 3b b3 cb e8 3d 2f 42 cb bd
       -0.10550704 0.006904405 0.113669775 -0.09924733
000320 3f e4 a6 3d 39 a9 00 3d 92 4c fe 3c 0f a3 ea 3d
       0.08149003 0.031411383 0.031042371 0.11456882
000330 bf 18 02 be d0 92 cf bd a2 68 c5 b8 54 36 92 bc
       -0.12704752 -0.10135424 -9.4131814e-05 -0.017848171
000340 87 f4 e9 bc 4d f4 56 bc 91 26 a8 bd 6c b4 ab bb
       -0.028558983 -0.013119769 -0.08210481 -0.005240014
000350 47 c1 6a bd 1e 86 99 3d 1f 57 90 3d f2 9f 7f 3d
       -0.05731323 0.07496284 0.07047867 0.062408395
000360 74 90 01 bd 84 30 27 3d cc 97 f3 bd 4c f9 99 3d
       -0.0316319 0.040817752 -0.11894187 0.07518253
000370 25 df 93 3b d4 77 c0 bd ba ec e0 bc 47 83 4f bc
       0.004512685 -0.093978554 -0.02745663 -0.012665576
000380 a6 d3 8d 3c 55 1b 97 bc 97 ea b8 bd 37 07 ce 3d
       0.017312836 -0.01844565 -0.090291195 0.1005997
000390 ec 31 8d 3c f0 cc 91 3d fe 2b 10 bc 29 eb de 3b
       0.017235719 0.07119167 -0.008799551 0.0068029356
0003a0 4f 45 b7 bd dc a8 5a bd 4e e7 82 bd 1f f8 d5 bd
       -0.089487664 -0.053383693 -0.06391774 -0.10447716
0003b0 f4 fa c7 ba 96 74 c3 3d 9a bb ca 3a 5f a5 e8 3d
       -0.0015257285 0.095437214 0.0015467287 0.11359667
0003c0 3b ab ca 3c 20 16 f4 3d 80 56 a2 bc 76 1b 64 3d
       0.024739852 0.119182825 -0.019816637 0.05569025
0003d0 f4 1d e9 3d 5d 41 e8 3d ee 40 e7 3c 67 50 27 3d
       0.11382666 0.11340592 0.028229203 0.040848162
0003e0 fa a1 da bd 81 a9 11 bb d5 d3 8e 3d d0 0e b6 bd
       -0.10675426 -0.0022226276 0.069739975 -0.08889544
0003f0 53 3b ae 3d 12 5e 10 3c 35 7b 3a bd 0c 8a cd bd
       0.08507409 0.008811491 -0.045527656 -0.10036096

hidden_layers.3.0.bias f4 [64]
000000 d0 f4 15 3d e7 f6 aa bd 63 5a 6b 3d bb 1a 49 3c
       0.036610425 -0.08347874 0.057459246 0.012274439
000010 fd c8 d8 3c 29 5b 6e ba 30 2b 2e bd 0a 45 96 3d
       0.026463026 -0.00090925634 -0.042521656 0.07337387
000020 0a fb d4 3c 34 d5 69 bd 79 fe c7 bd 21 47 40 bb
       0.025998611 -0.057088092 -0.09765334 -0.002933927
000030 c4 d4 5b 3c b6 18 9c 3c 13 d7 84 bb 66 6b 58 3d
       0.0134174265 0.019054752 -0.004053959 0.052836798
000040 61 9b 6e 3c 16 98 c0 bd 72 f6 4a 3d 38 88 2b b9
       0.014563412 -0.09404008 0.049551435 -0.00016358576
000050 05 3f cf 3c 3a 4f 0a bd 0f 28 86 bc ce 2d 26 bd
       0.025298605 -0.033766963 -0.016376523 -0.040571027
000060 19 3a 8c 3d 6f d2 45 3d 5a cf 48 bd 3c 2c 9f 3d
       0.06847019 0.04829639 -0.04902587 0.07772109
000070 fc bb 2f 3c d6 31 1f 3d b9 36 8d bc 9f 76 79 3d
       0.010725971 0.038865887 -0.017238008 0.06090414
000080 84 13 fb 3b 32 17 94 bd 3f 07 f8 3c ee 0c 8a bc
       0.0076622386 -0.07230987 0.030276893 -0.016851868
000090 84 13 ac 3d be e4 1a 3d 10 04 b1 3d d2 e0 96 3d
       0.0840216 0.0378158 0.08643353 0.073671
0000a0 d3 6e ba 3c ba 60 12 3d 97 54 12 3c 82 a5 47 bd
       0.022757923 0.035736777 0.008931301 -0.048741825
0000b0 c1 bc b1 3d 11 d1 b7 3c 93 27 a8 3d 29 38 88 bd
       0.0867858 0.022438558 0.08210673 -0.06651337
0000c0 79 c9 4f 3c 8f 93 89 3c 93 96 82 3d 6b c7 63 3d
       0.012682312 0.016793994 0.06376376 0.0556101
0000d0 04 7f 42 3d b2 a9 56 bd 7c 6e 24 bd ab 11 b8 bd
       0.047484413 -0.052407928 -0.04014443 -0.08987745
0000e0 18 3b 77 3d 2c fa c2 3c 73 f7 2c bd 1f 21 8a 3c
       0.06035909 0.023800932 -0.042228173 0.016861496
0000f0 4a fb 7b bb 0a fe f4 bc 39 d6 43 bd 6a 8b 9a 3d
       -0.003844934 -0.029906292 -0.04781172 0.07546122
