Neural Networks Codes/PINN/Save_models/model_RANS_based_PINN_couette.pth (torch, 161168 bytes, 22 tensors)

input_layer.0.weight f4 [64, 4]
0	0xbd8433ce	-0.064551935
1	0x3ccbd770	0.024883002
2	0xbca04fa4	-0.019569226
3	0x3d3ee37d	0.04660367
4	0x3a794cb2	0.00095100247
5	0xbc679afb	-0.014136071
6	0xbaad4037	-0.001321799
7	0x3cd3bb50	0.025846153
8	0x3cf5d82f	0.030010311
9	0x3a4d2853	0.0007826138
10	0xbc174bbc	-0.009234365
11	0xbd1e483b	-0.038643103
12	0xbb31fb47	-0.002715783
13	0xbdb2b713	-0.08726325
14	0x3e765f9f	0.24059914
15	0xbe26b710	-0.1628077
16	0x3e2c2e94	0.16814643
17	0xbe5c45a6	-0.21510944
18	0x3dd377b3	0.10325565
19	0xbb16bcc2	-0.0023000692
20	0xbbd53f80	-0.006507814
21	0xbb6fb050	-0.0036573596
22	0xbcb4f934	-0.022091486
23	0xbc98b073	-0.018638825
24	0xbada6bf2	-0.001666425
25	0xbe411458	-0.18855417
26	0x3e7785e9	0.24172176
27	0xbdfe70f4	-0.12423888
28	0xbb25a2b7	-0.0025273988
29	0x3cb41793	0.021983897
30	0x3eccad89	0.39976147
31	0xbea998f0	-0.33124495
32	0xba02463a	-0.0004969571
33	0x3de2ad89	0.110682555
34	0x3ebba82f	0.3665175
35	0xbe808fef	-0.25109813
36	0xbe3e95c6	-0.18611822
37	0x3d0f77e1	0.035026435
38	0x381676d5	3.5873458e-05
39	0xbb64b0c1	-0.0034895393
40	0xbb83cc91	-0.004022189
41	0xbe660a7a	-0.22464934
42	0xbe146b4f	-0.1449406
43	0x3e8836e8	0.2660439
44	0x38ef6897	0.000114158895
45	0x3c0f81e7	0.0087589985
46	0xbce0b2aa	-0.027428944
47	0xbd1f344c	-0.038868234
48	0x3cd372f6	0.025811654
49	0x3e05a0a2	0.13049558
50	0xbe9044a0	-0.28177357
51	0x3d8fa96a	0.07014735
52	0xbac38360	-0.0014916472
53	0xbae666ec	-0.001757828
54	0xbc560973	-0.013063776
55	0xbd21291c	-0.039345846
56	0xbe971155	-0.2950541
57	0xbef12489	-0.47098187
58	0xbeaa6c21	-0.3328562
59	0x3cbd8351	0.023133906
60	0xb8ddc3a5	-0.00010574543
61	0x3db2658b	0.08710774
62	0xbecdd560	-0.40201855
63	0x3edd0b28	0.43172574
64	0xbb97cfc4	-0.004632922
65	0x3afddc2e	0.0019367987
66	0x3c1c6650	0.009545878
67	0x3d34ece7	0.04417124
68	0xbb409cf3	-0.0029390424
69	0x37beef08	2.2761073e-05
70	0x39ef88a0	0.00045687426
71	0x3d295bd3	0.041347336
72	0x3d539642	0.05165697
73	0xbe472e32	-0.19451216
74	0xbe840642	-0.25786024
75	0x3ef3aee3	0.47594365
76	0xbd7aec2e	-0.061260395
77	0x3e295c81	0.16539194
78	0x3ecc0344	0.3984624
79	0xbba78b5d	-0.005113049
80	0x3a911287	0.0011068144
81	0x3ad63884	0.0016343747
82	0x3c38abec	0.011271458
83	0x3d2e0ade	0.042490833
84	0xb8e10a9b	-0.000107308115
85	0xba25b961	-0.0006321874
86	0xbbd786c0	-0.0065773427
87	0xbd325a18	-0.04354295
88	0xbe25e7f3	-0.16201763
89	0xbe1f9186	-0.15582857
90	0xbe45acc2	-0.19304183
91	0x3eba9036	0.3643815
92	0xbda739d1	-0.081653245
93	0x3e60310a	0.21893707
94	0x3e39c563	0.18141703
95	0xbeab6696	-0.33476704
96	0xba6d9021	-0.00090623094
97	0x3b21228f	0.002458725
98	0xbe860229	-0.26173523
99	0x3e59a326	0.21253642
100	0xbc18c1e6	-0.009323573
101	0x3e4900e5	0.19629247
102	0x39eb0087	0.00044823086
103	0xbd0f7897	-0.035027113
104	0xb908ccf9	-0.00013046329
105	0xbca5885a	-0.020206619
106	0xbc31df69	-0.010856488
107	0xbd194190	-0.03741604
108	0xbd0b7f35	-0.03405686
109	0xbd1cebc5	-0.038310785
110	0xbc989204	-0.018624313
111	0x3d115160	0.035477996
112	0x38823c7a	6.210148e-05
113	0xbaabcba0	-0.001310695
114	0xbc068878	-0.008211248
115	0xbd38b7f7	-0.045097318
116	0x3e531e19	0.2061695
117	0x3e8fafab	0.28063712
118	0x3d20c419	0.039249513
119	0xbda8fd9f	-0.082514994
120	0xbc0e3774	-0.008680213
121	0xbdae2595	-0.08503262
122	0x3ef260b8	0.47339416
123	0xbec93ce2	-0.39304262
124	0xbc4be857	-0.012445531
125	0xbe0baac7	-0.13639365
126	0x3e87ae49	0.26500157
127	0xbe936ceb	-0.28794035
128	0x39aecaee	0.0003333906
129	0x3e484e45	0.19561107
130	0x3e96551c	0.29361808
131	0xbe949f25	-0.29027668
132	0x39e74a13	0.00044114943
133	0x3e9b53bb	0.3033732
134	0x3e9eff01	0.31053928
135	0xbeb8059a	-0.35941774
136	0x3ed1dacf	0.4098725
137	0xbd532b34	-0.051554874
138	0x3e5d76c5	0.21627338
139	0xbeca6ff8	-0.3953855
140	0x3be76805	0.0070619606
141	0x3b84c588	0.004051868
142	0x3c323299	0.010876321
143	0xbd03f95b	-0.032220226
144	0x3a1b5913	0.0005926054
145	0x3d80393e	0.06260918
146	0x3d86142e	0.06546818
147	0xbe341312	-0.175854
148	0x3cf14667	0.029452516
149	0xbbf6e31e	-0.0075343987
150	0x3c835c9c	0.01603537
151	0xbd26fa67	-0.040766146
152	0x3e9b235d	0.30300418
153	0xbde48769	-0.1115864
154	0xbc8c3922	-0.017117087
155	0xbb776698	-0.003775036
156	0xbdac246c	-0.084053844
157	0x3eb0befa	0.34520704
158	0x3d560ce7	0.0522584
159	0xbdd973da	-0.106178
160	0x3c36213a	0.01111632
161	0x3acdf147	0.0015712165
162	0x3c203c11	0.009779946
163	0x3d179ade	0.037012927
164	0x3a95b88a	0.0011422795
165	0xbe91adbe	-0.28452867
166	0xbeda6a55	-0.4265925
167	0x3e41370c	0.18868655
168	0xbe47d51a	-0.19514886
169	0xbe19705e	-0.14984271
170	0xbda17482	-0.0788355
171	0x3e1948bb	0.1496915
172	0x3a616419	0.00085979846
173	0xbe0e7213	-0.13910703
174	0x3e9b6d32	0.30356747
175	0xbed27f64	-0.41112816
176	0xbd001a82	-0.03127528
177	0x3c442a8c	0.011973035
178	0xbb5dc4b8	-0.0033839177
179	0xbcdff9f1	-0.027340861
180	0xbded3a00	-0.11583328
181	0x3df769df	0.1208074
182	0x3e1f3f29	0.15551437
183	0x3ba8b7df	0.0051488723
184	0xbe894af8	-0.2681501
185	0x3ec3799e	0.38178724
186	0x3e55ecec	0.2089116
187	0xbaff17d0	-0.0019462053
188	0xbe7fe09e	-0.24988028
189	0x3e8e4ce5	0.2779304
190	0xbd370b95	-0.04468878
191	0xbb90f22b	-0.0044234
192	0xbd028c1e	-0.031871907
193	0xbac9317f	-0.0015349834
194	0xbc331c8a	-0.010932097
195	0xbd2bad41	-0.041913275
196	0x3e51adc9	0.2047645
197	0xbe8ab685	-0.27092376
198	0x3e7fcf59	0.2498144
199	0xbef76b40	-0.48324013
200	0x3dec7c82	0.115471855
201	0xbdb46e18	-0.08810061
202	0xba025355	-0.0004971524
203	0xb8dd424e	-0.000105504514
204	0x3a954a82	0.0011390003
205	0x3ac3592f	0.0014903898
206	0x3c1b32f6	0.009472599
207	0x3d2e0455	0.0424846
208	0x3d4ef1bb	0.0505235
209	0x3cefbf72	0.029266093
210	0xbcc13271	-0.023583623
211	0xb7fd8698	-3.0222625e-05
212	0x3ceead59	0.029135393
213	0x3820bff5	3.8325747e-05
214	0xbb3167c8	-0.0027069915
215	0x3d36a28c	0.04458861
216	0xbb4cc705	-0.0031246555
217	0x3e5acc64	0.21367031
218	0xbea57832	-0.32318264
219	0x3ea0be4c	0.31395185
220	0xbaac8621	-0.0013162532
221	0xbebda9a5	-0.3704349
222	0x3e54427d	0.20728488
223	0xbe2869d1	-0.16446616
224	0x3db64a55	0.089008965
225	0x3ce4045a	0.027834106
226	0x3dec8519	0.11548824
227	0xbe6a8597	-0.22902523
228	0xb8e91b17	-0.00011115352
229	0xba931627	-0.0011221812
230	0xbbab98cb	-0.00523672
231	0xbd3e6464	-0.04648246
232	0xbaa0d1c5	-0.0012269547
233	0xbae7d2df	-0.0017686746
234	0xbc39a717	-0.011331341
235	0xbd2ff751	-0.04296047
236	0xbd998316	-0.07495706
237	0xbde69d20	-0.11260438
238	0x3eff567d	0.49870673
239	0xbd999234	-0.07498589
240	0x3e7f7976	0.24948677
241	0x3ec3c3c5	0.38235298
242	0xbe9d8ca7	-0.30771372
243	0x3a2021b5	0.00061085384
244	0x3ba356e5	0.004984724
245	0x3e95206c	0.29126298
246	0xbf05ab79	-0.5221477
247	0x3e2b3fc6	0.16723546
248	0x3dde166c	0.108441204
249	0x3dbae509	0.09125716
250	0xbca831c7	-0.020531548
251	0xbca31035	-0.019905189
252	0x390071eb	0.00012249469
253	0x3abf51fb	0.0014596576
254	0x3c4b96d7	0.0124261
255	0x3d28c30b	0.041201632

input_layer.0.bias f4 [64]
0	0xbc7df038	-0.015499167
1	0xba801bcc	-0.0009773909
2	0xb8955b7b	-7.121913e-05
3	0xb999c7f9	-0.00029331425
4	0xbe35c9d2	-0.1775277
5	0x3a1e4d22	0.00060387154
6	0x3b75acf0	0.0037487112
7	0xbb987cc3	-0.0046535446
8	0x3bb969a7	0.0056583467
9	0x3e58345a	0.2111372
10	0xbb289293	-0.002572213
11	0xb87d3865	-6.0372422e-05
12	0x3db1d17d	0.08682535
13	0xb87b0bb0	-5.985395e-05
14	0xbd1a7436	-0.037708484
15	0xbc5b818a	-0.013397584
16	0x3a6176e5	0.00086007855
17	0xb9139176	-0.00014073201
18	0x3e740f84	0.23834044
19	0x3e857958	0.2606914
20	0x38f9fb08	0.000119200035
21	0xba196fc8	-0.00058531435
22	0xbd6fc0c0	-0.05853343
23	0x3e364c0f	0.17802452
24	0xbab845d2	-0.0014058894
25	0x3b958198	0.004562568
26	0xb904bcbf	-0.00012658814
27	0xbd11ad3c	-0.0355656
28	0xb909edd9	-0.00013153943
29	0x3ea47904	0.32123578
30	0x3dd98a63	0.10622098
31	0xbbb5eeb6	-0.005552138
32	0x3d4906f3	0.049078893
33	0x3d945432	0.072426215
34	0xbdc072a5	-0.09396867
35	0x3b03ae01	0.0020092728
36	0x38c05838	9.1717055e-05
37	0x3bf230c0	0.0073910654
38	0x3e2adecd	0.16686554
39	0x3e81f405	0.25381485
40	0xbad8185c	-0.0016486752
41	0xbceef131	-0.029167743
42	0xbd408b11	-0.047007624
43	0xbd495f50	-0.049163163
44	0xb8e0b42a	-0.000107147105
45	0x3c9c0c27	0.019048763
46	0xbeb0dedd	-0.3454503
47	0xbe1b489d	-0.15164419
48	0x3c174e2a	0.009234944
49	0x3dbe4ef6	0.09292404
50	0x3e6a1c92	0.22862461
51	0x390e2adb	0.0001355814
52	0x3d66c3f4	0.05633922
53	0xb78c6232	-1.6735026e-05
54	0x3ca2a181	0.019852402
55	0xbd692721	-0.05692208
56	0x3de7d171	0.11319245
57	0xb904ec83	-0.00012676608
58	0x3c415c83	0.011801842
59	0xbd9a4b27	-0.075338654
60	0x3ed9cfed	0.42541447
61	0x3c6e5e52	0.014548855
62	0xbb17c490	-0.0023157932
63	0x3912d83d	0.000140042

hidden_layers.0.0.weight f4 [64, 64]
0	0xbde2edf4	-0.11080542
1	0xbca7ee62	-0.020499412
2	0x3c7446f2	0.014909493
3	0x3dc5029e	0.0961964
4	0x3d8615f5	0.06547157
5	0xbdcd3324	-0.1001952
6	0x3d09cb53	0.03364117
7	0xbd551f3e	-0.052031748
8	0xbcf26eac	-0.029593788
9	0xbd2c19de	-0.042016856
10	0x3d515589	0.051106963
11	0xbd52a3e5	-0.051425833
12	0xbd2a35dd	-0.041555274
13	0xbd807bfd	-0.06273649
14	0xbd31d212	-0.04341323
15	0xbd88c2a6	-0.06677751
16	0xbd85cc05	-0.06533054
17	0xbd0480ea	-0.032349505
18	0x3c29b0dc	0.010357108
19	0xbca94ef2	-0.020667527
20	0xbce4a3f0	-0.027910203
21	0xbd99bb73	-0.07506456
22	0xbd0f8b12	-0.035044737
23	0xbd534b31	-0.05158538
24	0x3c0def27	0.008662975
25	0xbd9e28ac	-0.07722601
26	0xbd8d92c5	-0.0691276
27	0xbc06eb05	-0.008234744
28	0x3dad0392	0.084479466
29	0x3da7bbd1	0.0819012
30	0x3caa5dc6	0.020796668
31	0x3ca45401	0.020059587
32	0x3dbb3ac4	0.09142068
33	0xbcaee8c1	-0.02135122
34	0x3d74a7aa	0.05973021
35	0x3dc68504	0.096933395
36	0xbdf1262d	-0.117748596
37	0x3db0eb69	0.08638651
38	0xbc988526	-0.018618178
39	0xbde9ba03	-0.11412432
40	0x3cc20b24	0.023686953
41	0xbd7012ae	-0.058611564
42	0x3dbd3b0e	0.092397794
43	0x3d983fc1	0.07434035
44	0x3d7b3ebb	0.06133912
45	0xbd144974	-0.036202863
46	0x3ca1473c	0.019687288
47	0xbdbf7adc	-0.093496054
48	0xbd8e14c1	-0.06937552
49	0x3ddcb3e4	0.10776499
50	0x3e10b62c	0.14131993
51	0x3dcb181e	0.09916709
52	0xbd35ff41	-0.044432882
53	0xbde533e0	-0.11191535
54	0xbd54f3b4	-0.051990226
55	0x3d4d913a	0.050187327
56	0x3e0fa36c	0.14027184
57	0x3dd336ae	0.10313164
58	0x3d65b2d2	0.05607874
59	0xbb129018	-0.0022363719
60	0x3bbd9f5d	0.00578682
61	0x3ca27035	0.019828895
62	0x3d8b9e3d	0.06817291
63	0x3d0b60c8	0.034027845
64	0xbddbff36	-0.10742037
65	0x3c124b40	0.008929074
66	0xbc4b7996	-0.012419125
67	0x3ced71d8	0.028984949
68	0xbe321e6f	-0.17394422
69	0x3da87ecd	0.0822731
70	0x3c558c83	0.013033989
71	0xbbb91f54	-0.0056494866
72	0x3cc2d36a	0.02378245
73	0xbdc2d852	-0.09513916
74	0xbd515227	-0.051103737
75	0x3dce3b83	0.10069945
76	0x3d42ac1a	0.04752741
77	0x3dc4ee06	0.09615712
78	0x3dde1a07	0.10844808
79	0x3c8f0b72	0.017461512
80	0xbd388c56	-0.04505571
81	0xbc8cdc12	-0.017194781
82	0xbd85281c	-0.06501791
83	0xbe181537	-0.14851843
84	0x3d8c0231	0.068363555
85	0x3dc24802	0.09486391
86	0xbce40014	-0.027832069
87	0xbdbf7746	-0.093489215
88	0x3d6f2f78	0.05839488
89	0x3d13dfee	0.036102228
90	0x3cfe7de5	0.03106589
91	0x3da764eb	0.081735454
92	0x3d62e493	0.055393767
93	0xbd941a2f	-0.072315566
94	0xbc6514f0	-0.013982043
95	0xbd356ea8	-0.044294983
96	0x3d73b581	0.059499267
97	0xbcbd75a7	-0.02312739
98	0xbc35a86c	-0.011087518
99	0xbde4a7b8	-0.11164802
100	0x3c0bee72	0.0085407365
101	0x3d5e103c	0.0542147
102	0xbd0a398b	-0.033746284
103	0x3db27733	0.08714142
104	0x3dd1b8f1	0.10240353
105	0xbdb95625	-0.09049634
106	0x3d8a8fae	0.06765686
107	0xbd9bd108	-0.07608229
108	0x3d486fd9	0.04893479
109	0xbd5cae18	-0.053876966
110	0x3dd7c499	0.10535545
111	0xbdf307cc	-0.118667215
112	0x3c24ed3c	0.010066327
113	0xbd86c730	-0.06580961
114	0x3d01732a	0.03160397
115	0xbde01c36	-0.10942881
116	0x3cdfdd63	0.027327245
117	0x3de2299b	0.11043092
118	0xbce377c8	-0.027767077
119	0x3d7c0133	0.06152458
120	0x3d94d7d8	0.072677314
121	0x3da6e87e	0.08149813
122	0x3dc3bac3	0.09557106
123	0xbdaaec38	-0.083458364
124	0xbe51dd4b	-0.20494573
125	0xbd792979	-0.060830567
126	0xbde7b6d7	-0.11314171
127	0xbd25cbe7	-0.04047766
128	0x3d75a0a2	0.059967645
129	0x3dbde112	0.092714444
130	0xbd599f80	-0.053130627
131	0xbdb917d2	-0.090377465
132	0xbdbbf6e0	-0.09177947
133	0xbda24f82	-0.07925321
134	0xbda37535	-0.0798134
135	0xbd9e7875	-0.07737819
136	0xbd21e5fe	-0.03952598
137	0x3daf8e81	0.08572102
138	0xbd3782a0	-0.044802308
139	0xbdd8a562	-0.10578419
140	0xbc9485e5	-0.018130252
141	0xbd2f5f9f	-0.0428158
142	0xbd0ce3fc	-0.03439711
143	0xbd32fc5c	-0.0436977
144	0x3cc35cf1	0.023848029
145	0xbdcb1d9d	-0.09917758
146	0xbd892469	-0.06696398
147	0x3d3afa78	0.045649022
148	0x3c92da4e	0.017926361
149	0x3dddf1f3	0.10837164
150	0x3d897472	0.06711663
151	0xbd4fd642	-0.05074144
152	0xbd8bd29c	-0.0682728
153	0x3dd6377f	0.10459804
154	0xbe048d96	-0.12944636
155	0xbc0cc947	-0.00859291
156	0xbdf33323	-0.11874988
157	0x3d50413b	0.05084346
158	0x3c4460d0	0.0119859725
159	0x3d86a686	0.065747306
160	0x3cd0b66a	0.025477607
161	0x3a01a82f	0.0004946021
162	0xbd604690	-0.054754794
163	0xbe037e88	-0.12841237
164	0x3d03b833	0.032158088
165	0xbd2d404b	-0.042297643
166	0x3d7b8b1e	0.06141197
167	0xbdee07e6	-0.116226
168	0xbdab7812	-0.08372511
169	0xbcb1ab74	-0.0216882
170	0x3b9b14e0	0.004732713
171	0x3dcf8238	0.10132259
172	0xbd010252	-0.031496353
173	0xbdc96b80	-0.09834957
174	0xbde198a9	-0.11015446
175	0xbded15e2	-0.115764394
176	0x3d170c9f	0.03687727
177	0x3de36163	0.111025594
178	0x3df806ac	0.121106476
179	0xbc3d590a	-0.011556873
180	0xbbdd4abd	-0.0067532943
181	0xbdd82149	-0.10553224
182	0xbd7ef9ea	-0.062250055
183	0x3d5ec343	0.054385435
184	0x3dd16695	0.10224644
185	0xbc4cfe81	-0.01251185
186	0x3cbc699c	0.022999577
187	0xbdd55159	-0.104159065
188	0x3dbba30e	0.091619596
189	0xbdf3fe0b	-0.11913689
190	0x3c520144	0.012817685
191	0x3e03aaef	0.12858175
192	0xbcad5d41	-0.021162631
193	0x3d0be59c	0.03415452
194	0x3d52bf6e	0.051452093
195	0xbc7ab04f	-0.015300824
196	0x3d8d99df	0.06914114
197	0xbccf059b	-0.025271228
198	0xbd82a23c	-0.063786
199	0xbdbffa2c	-0.093738884
200	0xbdca0cae	-0.098657
201	0x3d034428	0.03204742
202	0x3d559915	0.052147944
203	0x3cfd335c	0.03090828
204	0x3b9a8e40	0.0047166646
205	0x3da8cf90	0.082427144
206	0x3d57dd03	0.052701008
207	0x3dec151b	0.11527463
208	0xbde92097	-0.11383169
209	0xbdb011bc	-0.085971326
210	0x3dd3be52	0.10339035
211	0x3c99c918	0.018772647
212	0xbcb848ec	-0.02249571
213	0xbd8e53b7	-0.06949561
214	0x3d3601ce	0.044435315
215	0x3b9322f1	0.0044902493
216	0xbd901560	-0.07035327
217	0x3d2f8460	0.042850852
218	0xbd68cef1	-0.05683798
219	0xbd83f553	-0.06443276
220	0x3dc02962	0.09382893
221	0x3d8a2953	0.06746163
222	0xbdaffca4	-0.08593109
223	0x3cec0a7d	0.028813595
224	0x3cb3db1b	0.021955064
225	0x3d1c34d9	0.038136337
226	0x3db80b97	0.089865856
227	0x3dc52155	0.09625498
228	0xbd41b3c3	-0.047290575
229	0xbddb7340	-0.107153416
230	0x3d67e146	0.056611322
231	0xbd8e6444	-0.06952718
232	0xbd776574	-0.060399488
233	0xbce93f33	-0.028472519
234	0x3c958de4	0.018256135
235	0x3d2f4154	0.04278691
236	0xbdc1cf42	-0.094633594
237	0xbdca85f3	-0.0988883
238	0x3d213ca4	0.039364472
239	0x3c82714e	0.015923169
240	0x3c6d5028	0.014484443
241	0x3b297136	0.0025854832
242	0x3cd83a68	0.026395038
243	0x3c4f88c4	0.012666885
244	0xbd01f06c	-0.031723425
245	0xbd6ca9c9	-0.057779107
246	0xbcbf7c7e	-0.023374792
247	0x3d95ee44	0.07320836
248	0xbbc0872c	-0.0058754887
249	0x3cfb8adf	0.030705867
250	0x3d9f8e67	0.07790833
251	0x3d8b3c9d	0.067986704
252	0xbe1b0bd7	-0.15141235
253	0x3dd6f909	0.104967184
254	0x3dc00472	0.09375848
255	0xbdaf8d9a	-0.0857193

hidden_layers.0.0.bias f4 [64]
0	0xbd27b04d	-0.040939618
1	0xbd2644c7	-0.040592935
2	0x3d9d4044	0.07678273
3	0xbd360b52	-0.04444439
4	0x3d523746	0.051322244
5	0xbd80d6b2	-0.0629095
6	0xbcaaa16a	-0.020828921
7	0xbcb45841	-0.022014739
8	0xbddaf31d	-0.106909014
9	0xbcc4887f	-0.023990868
10	0xbd83fd2c	-0.06444773
11	0xbd1ff8cd	-0.039055634
12	0xbcd6dd41	-0.026228549
13	0x3d0af991	0.03392941
14	0xbd05516b	-0.03254835
15	0xbd3c0930	-0.0459072
16	0xbd9f0f75	-0.0776662
17	0xbc81051f	-0.015749512
18	0xbb1fc1c7	-0.0024376975
19	0xbd86d944	-0.06584409
20	0x3c47dd42	0.012198748
21	0xbaad2ab0	-0.0013211574
22	0xbc6c8dce	-0.014438106
23	0xbda4586a	-0.08024676
24	0xbd25c1f4	-0.04046817
25	0x3bdfc24c	0.006828582
26	0xbd82567a	-0.0636415
27	0x3bee448b	0.0072713546
28	0x3b816242	0.003948481
29	0x3d3bb126	0.04582324
30	0x3d6e3ecc	0.058165357
31	0x3da8851a	0.08228512
32	0x3d9063ba	0.07050271
33	0xbcb39ab1	-0.021924349
34	0x3dab5827	0.08366423
35	0x3d6a024e	0.057131104
36	0xbd8ebc48	-0.069695055
37	0xbd9c0b5e	-0.076193556
38	0x3cb9162f	0.022593586
39	0xbb76fbe6	-0.0037686764
40	0xbd059b2f	-0.032618698
41	0x3daf1a12	0.085498944
42	0x3da30e76	0.079617426
43	0xbd874644	-0.06605199
44	0x3c8d4021	0.017242493
45	0xbc12e981	-0.0089668045
46	0x3cbf0d0d	0.023321653
47	0x3c8ee322	0.01744229
48	0xbb80dc23	-0.0039324923
49	0x3db49da1	0.08819128
50	0x3dc3702b	0.09542879
51	0x3cdf0638	0.027224645
52	0xbca81e26	-0.020522188
53	0xbd1c6a73	-0.038187455
54	0xbc8dc93c	-0.01730787
55	0xbd31eee2	-0.043440707
56	0x3c4ce4da	0.012505734
57	0xbb82e84b	-0.0039949766
58	0x3d5dfd6b	0.054196756
59	0xbd806164	-0.06268576
60	0x3d7af2b0	0.0612666
61	0x3d23f474	0.04002805
62	0xbcd538db	-0.026028087
63	0xbccc48e5	-0.024937103

hidden_layers.1.0.weight f4 [64, 64]
0	0x3b777d37	0.0037763843
1	0x3d81c72a	0.06336816
2	0xbd54af53	-0.051925015
3	0xbd8b738a	-0.06809147
4	0x3dca7f7d	0.09887598
5	0x3db8345a	0.0899436
6	0x3db12401	0.08649445
7	0x3c35c083	0.011093262
8	0xbcc21398	-0.023690984
9	0xbdcf2723	-0.101148866
10	0x3da2beeb	0.07946571
11	0xbdfefd7d	-0.12450693
12	0xbd74d99b	-0.059777837
13	0x3d18e2bd	0.03732561
14	0xbccaa59e	-0.024737176
15	0xbd3a60e5	-0.045502562
16	0xbd95845f	-0.073006384
17	0x3cafee7f	0.021476028
18	0xbc67945b	-0.014134492
19	0x3dd6d3af	0.10489594
20	0x3dfeb754	0.12437311
21	0x3cc17ae5	0.023618171
22	0x3d5cb64a	0.053884782
23	0xbc4a9338	-0.012364201
24	0x3d8f4287	0.06995111
25	0x3bf16e32	0.0073678726
26	0xbc2d8fc5	-0.010593359
27	0x3ca518dc	0.020153455
28	0x3ca0b71c	0.019618563
29	0x3dcc0262	0.09961392
30	0x3d8b0d26	0.06789617
31	0xbd05f91d	-0.032708276
32	0x3cd4f0c3	0.02599371
33	0x3c6b1bee	0.014349921
34	0xbd26a53b	-0.04068492
35	0xbd549991	-0.051904265
36	0x3da05f96	0.078307316
37	0xbd6a676c	-0.057227537
38	0x3ccd3100	0.02504778
39	0x3d8acc8a	0.06777294
40	0x3dc1fca3	0.09472015
41	0x3d986aaf	0.07442223
42	0x3d5b7201	0.05357552
43	0xbc778127	-0.015106476
44	0xbda94748	-0.08265549
45	0xbdb9d76c	-0.090742916
46	0x3c4d1757	0.012517772
47	0x39e15e85	0.00042985767
48	0x3db15810	0.08659375
49	0xbd7cda6f	-0.061731752
50	0x3dc99a60	0.09843898
51	0x3dc3d6e1	0.09562469
52	0x3dd738ec	0.10508904
53	0xbd96642a	-0.073433235
54	0xbdd7b767	-0.10533028
55	0xbd105025	-0.03523268
56	0x3be853aa	0.0070900517
57	0xbdf0d746	-0.1175981
58	0x3db65dab	0.089045845
59	0xbda58590	-0.08082116
60	0xbdb01fe3	-0.08599832
61	0x3dcfd303	0.10147669
62	0xbc7747f5	-0.0150928395
63	0xbbc98f3d	-0.0061511085
64	0x3cf6c638	0.030123815
65	0x3b10215d	0.0021992542
66	0xbdbf6979	-0.09346289
67	0x3dbb8535	0.091562666
68	0x3d1856d2	0.037192173
69	0xbb99972f	-0.004687212
70	0x3de13a7a	0.10997482
71	0xbd635290	-0.05549866
72	0xbd0cb8f0	-0.034356058
73	0xbbe608f8	-0.007020112
74	0xbd9df0f0	-0.07711971
75	0xbdd00723	-0.10157611
76	0xbd7c00da	-0.06152425
77	0xbd92cda5	-0.0716813
78	0xbdc76dc2	-0.097377315
79	0x3dac69fa	0.08418651
80	0x3d4e0e71	0.05030674
81	0xbcae5341	-0.021279933
82	0x3d136dea	0.035993494
83	0x3da4080a	0.08009346
84	0x3d694322	0.05694879
85	0xbdb66f06	-0.08907895
86	0xbd6e0098	-0.058106035
87	0xbc2c044c	-0.010499071
88	0xbd98496d	-0.0743588
89	0x3aceebad	0.001578679
90	0xbdb28c45	-0.087181605
91	0xbd538f2d	-0.051650215
92	0xbdcd22b7	-0.10016387
93	0x3cb77849	0.022396224
94	0x3d95c3a6	0.073127076
95	0xbcc2f943	-0.023800498
96	0x3d831efa	0.06402393
97	0x3cd862fc	0.026414387
98	0xbd7e9ecd	-0.062163163
99	0xbbc38525	-0.0059668
100	0x3d79fd24	0.06103243
101	0xbdbb9fad	-0.09161315
102	0xbd13b7f6	-0.03606411
103	0x3d97939f	0.07401203
104	0x3c728d34	0.014804173
105	0xbde0abaa	-0.10970242
106	0x3b45197a	0.0030075
107	0xbcb2496d	-0.021763528
108	0xbcd88658	-0.026431248
109	0xbb0a134a	-0.0021068626
110	0xbd308584	-0.04309608
111	0x3d986e13	0.0744287
112	0x3d3d3294	0.046190813
113	0x3b0dde84	0.0021647522
114	0xbc734bf0	-0.014849648
115	0xbd5b962c	-0.053610012
116	0x3db31921	0.08745027
117	0x3d3b4a29	0.04572502
118	0x3d0f0306	0.034914993
119	0xbccbe897	-0.02489118
120	0xbce007c5	-0.027347455
121	0x3da4c509	0.08045394
122	0xbcdc6d3c	-0.026907556
123	0x3d817507	0.06321149
124	0x3b9f3851	0.0048590084
125	0xbd11b79e	-0.0355755
126	0xbda822d4	-0.08209768
127	0x3db7a8a2	0.08967711
128	0xbd904c9b	-0.07045861
129	0xbd65ff91	-0.05615193
130	0x3cb115e3	0.021616882
131	0x3dcafc6a	0.099114254
132	0x3def7d2e	0.11693798
133	0xbdb814bd	-0.089883305
134	0xb98cf8db	-0.00026888293
135	0x3d85ab87	0.06526857
136	0xbd7ead71	-0.062177125
137	0x3d905e81	0.07049275
138	0x3cdca2c8	0.026933089
139	0x3d41ee0a	0.047346152
140	0x3ca6e3e3	0.020372337
141	0x3d657d51	0.056027714
142	0xbde8a754	-0.1136004
143	0xbdca39ac	-0.09874281
144	0x3dd1fbc1	0.10253096
145	0xbc94f7d1	-0.018184574
146	0x3d669e78	0.05630347
147	0x3d9e8cf9	0.07741732
148	0x3daecb6f	0.08534896
149	0x3ccb576c	0.02482196
150	0x3dd53f6c	0.104124874
151	0xbe0ea018	-0.13928258
152	0xbd8e4b9d	-0.06948016
153	0x3df531f2	0.11972417
154	0x3c064abf	0.008196532
155	0x3ba95d38	0.0051685832
156	0xbdcbbf32	-0.09948577
157	0xbdef6a36	-0.1169018
158	0x3e007814	0.12545806
159	0x3d7dd7a6	0.061973237
160	0x3db4dd2b	0.08831247
161	0x3dc3eae1	0.09566284
162	0xbd21f6de	-0.03954207
163	0xbd8296b5	-0.06376401
164	0xbdf3a353	-0.11896386
165	0xbda86106	-0.08221631
166	0xbd8b7a72	-0.06810464
167	0xbcf0a255	-0.029374281
168	0x3dc86fac	0.09786925
169	0x3d2f05b4	0.04273005
170	0xbd4c13d5	-0.0498236
171	0xbdecd0e3	-0.115632795
172	0x3d8f3b8e	0.06993781
173	0xbd52823e	-0.05139374
174	0xbe1b89e0	-0.15189314
175	0x3d4223a6	0.04739728
176	0x3b85c4ac	0.004082283
177	0x3df71831	0.12065161
178	0x3e0dfc54	0.13865787
179	0xbcfa54cf	-0.030558018
180	0x3d51ae18	0.05119142
181	0xbd7cdbe0	-0.061733127
182	0xbb63766b	-0.0034708034
183	0xbdbb2933	-0.091387175
184	0xbd46fcb2	-0.048580833
185	0xbd4d5e82	-0.050138958
186	0xbe02998c	-0.12753886
187	0x3db438ed	0.0879992
188	0x3e03bb01	0.12864305
189	0x3decf50e	0.11570178
190	0xbcfd4239	-0.030915366
191	0xbd6c6fb2	-0.05772371
192	0xbd1a5488	-0.03767827
193	0x3d9e250d	0.077219106
194	0x3ba29f97	0.0049628722
195	0xbd9cbbbe	-0.076529965
196	0x3db8ebb4	0.09029332
197	0xbc3049ad	-0.010759753
198	0x3dbb2902	0.09138681
199	0xbdba1bc0	-0.09087324
200	0x3beff14f	0.0073224674
201	0x3d66f690	0.056387484
202	0x3cbb24d6	0.022844713
203	0xbd3876ce	-0.045035176
204	0xbc724c3c	-0.0147886835
205	0x3c0d2112	0.008613842
206	0xbd9a09c4	-0.07521394
207	0xbdd47efb	-0.10375782
208	0xbde84446	-0.11341147
209	0x3cc6bb2d	0.024259174
210	0x3da9bc4f	0.0828787
211	0xbdf85b44	-0.121267825
212	0x3d808b7b	0.06276604
213	0x3dddf7ba	0.10838266
214	0x3b43263e	0.0029777433
215	0xbc4b4db1	-0.01240866
216	0xbd975fc4	-0.07391313
217	0x3c193657	0.009351335
218	0x3dd4e127	0.10394507
219	0xbd85c004	-0.06530765
220	0xbda81a00	-0.08208084
221	0x3df6cb99	0.12050552
222	0xbc28a51d	-0.010293272
223	0x3dde4906	0.10853772
224	0xbd4d14e6	-0.05006876
225	0x3d520b31	0.051280204
226	0x3d06378a	0.03276781
227	0x3d544bc0	0.051830053
228	0x3db841f3	0.08996954
229	0x3cb17a74	0.021664836
230	0xbd8217d3	-0.063522
231	0x3cdee126	0.027206969
232	0xbc21fb83	-0.009886625
233	0xbdb1cf67	-0.08682137
234	0xbde57ac9	-0.1120506
235	0xbd941f92	-0.07232584
236	0x3dd985f5	0.106212534
237	0x3dc34e56	0.09536426
238	0xbc960226	-0.018311571
239	0x3c8bf3e5	0.017084071
240	0x3da35fb1	0.07977236
241	0xbd3bc993	-0.045846533
242	0x3e089cea	0.13341108
243	0xbd6eaad8	-0.058268398
244	0x3d84ebb3	0.064902686
245	0xbd1dc3f5	-0.038516957
246	0xbc7fc68f	-0.015611305
247	0xbcc26603	-0.023730284
248	0xbc691232	-0.0142255295
249	0xbd514407	-0.051090267
250	0x3da482a5	0.08032731
251	0xbda50d93	-0.0805923
252	0xbd74ffe1	-0.059814338
253	0x3da4ae82	0.08041097
254	0xbde01745	-0.10941938
255	0xbb393126	-0.0028258055

hidden_layers.1.0.bias f4 [64]
0	0xbdb867fa	-0.09004207
1	0xbd1650f4	-0.036698297
2	0xbd6e29a9	-0.0581452
3	0x3d65721f	0.056017037
4	0xbde5f23f	-0.112278454
5	0xbd1fafda	-0.038986064
6	0xbcfa8de2	-0.030585233
7	0x3d981b61	0.07427097
8	0x3c79bc72	0.015242683
9	0x3d836a7e	0.06416796
10	0xbd9232fe	-0.07138632
11	0xbd79ef01	-0.061018948
12	0xbd60c83e	-0.054878466
13	0xbd129116	-0.035782896
14	0x3c006acd	0.007837963
15	0x3d3faa71	0.046793405
16	0xbd3b5b90	-0.045741618
17	0x3c622fc8	0.013805337
18	0xbd5599d9	-0.052148674
19	0x3c2963f6	0.010338774
20	0x3da68fd7	0.08132904
21	0x3d43f7dc	0.0478438
22	0xbc97581f	-0.018474637
23	0xbd0ee85b	-0.03488956
24	0x3d774663	0.06036986
25	0xbd146dd0	-0.036237538
26	0x3d794831	0.060859863
27	0x3c30cbfa	0.010790819
28	0xbd7a07bc	-0.061042532
29	0x3c52d6fd	0.01286864
30	0xbd15ed69	-0.036603365
31	0xbba69bd1	-0.0050844927
32	0xbd4e508b	-0.05036978
33	0x3d9f0c74	0.07766047
34	0x3c6e5e30	0.014548823
35	0x3dafffaa	0.08593686
36	0x3d169e87	0.036772277
37	0xbd012a9f	-0.031534787
38	0x3dac317e	0.084078774
39	0x3c1eeb28	0.00969962
40	0xbcda17b2	-0.026622627
41	0x3ca53262	0.020165626
42	0xbd304782	-0.043036945
43	0x3d1ba58f	0.037999686
44	0x3ce33df3	0.0277395
45	0x3cb45f72	0.022018168
46	0xbdc02ca5	-0.09383515
47	0x3d427989	0.047479186
48	0x3d0b40b2	0.033997245
49	0xbdfabfc0	-0.12243605
50	0xbd9193c6	-0.07108264
51	0xbd3eb3ca	-0.04655818
52	0x3dcc0981	0.0996275
53	0xbca5b83f	-0.020229457
54	0xbdbaacc0	-0.09114981
55	0xbd80c2cc	-0.062871546
56	0xbcb14b07	-0.021642221
57	0x3d7c41e0	0.06158626
58	0x3c9eb3bc	0.019372813
59	0x3d331dbb	0.043729525
60	0x3d71c780	0.05902815
61	0x3d86b774	0.0657796
62	0xbc4bb62b	-0.012433569
63	0xbd985e9f	-0.074399225

hidden_layers.2.0.weight f4 [64, 64]
0	0x3cfb4ddb	0.030676773
1	0x3db899d1	0.09013713
2	0xbc055d16	-0.008139869
3	0xbcdc31dc	-0.026879244
4	0x3bb9b7ee	0.005667678
5	0xbd6dab80	-0.058024883
6	0xbd12169e	-0.0356661
7	0x3c57f490	0.013180867
8	0xbc0688a6	-0.00821129
9	0xbc173516	-0.009228965
10	0xbd0d3438	-0.034473628
11	0x3d9b9eec	0.07598671
12	0xbd2f2112	-0.042756148
13	0x3df0956f	0.11747252
14	0x3bb10302	0.00540197
15	0xbcea5c4a	-0.02860846
16	0xbdb52ef7	-0.088468485
17	0x3d91de4f	0.0712248
18	0xbd7ab4ce	-0.061207585
19	0x3db38ee2	0.08767487
20	0x3cc68426	0.024232935
21	0xbcad616c	-0.021164618
22	0xbcc6f618	-0.024287269
23	0xbdbfe867	-0.09370499
24	0xbdafd272	-0.08585061
25	0xbdedaa16	-0.11604707
26	0x3e0625a6	0.13100299
27	0x3dba62a1	0.09100843
28	0xbb82c3b3	-0.0039906143
29	0x3df20027	0.11816435
30	0xbd7bca7f	-0.061472412
31	0xbdb022ae	-0.086003646
32	0xbd29f3ba	-0.0414922
33	0xbda7cb93	-0.081931256
34	0x3dc47fa5	0.09594659
35	0xbc1b84da	-0.0094921235
36	0xbd6b5d94	-0.05746229
37	0xbcfbe94b	-0.030750891
38	0x3dab4746	0.08363204
39	0xbdec50d4	-0.11538854
40	0xbcf69547	-0.030100478
41	0x3c82c15d	0.015961343
42	0xbdefc54e	-0.11707555
43	0xbc6b88bb	-0.014375861
44	0x3c734874	0.014848817
45	0xbc403ac5	-0.011732762
46	0xbd632a92	-0.05546052
47	0xbdbe3e2a	-0.092892006
48	0x3da1f023	0.079071306
49	0x3d56c606	0.052434944
50	0x3d82b510	0.06382191
51	0xbdd0f808	-0.10203558
52	0xbdd7d2d2	-0.10538258
53	0xbcf852e8	-0.03031297
54	0x3d2e55f2	0.042562433
55	0x3cbfeb62	0.023427669
56	0x3df259ae	0.11833511
57	0xbc7fd00b	-0.015613566
58	0xbd501ad9	-0.050806854
59	0xbdbdaadd	-0.09261105
60	0x3df3a576	0.118967935
61	0x3dc369e0	0.095416784
62	0x3d10d900	0.035363197
63	0xbca1c7b9	-0.019748555
64	0xbc699963	-0.014257762
65	0x3d1138e6	0.035454653
66	0xbd7f1373	-0.062274408
67	0x3c559abd	0.013037381
68	0x3de6584c	0.1124731
69	0x3c99cca5	0.01877434
70	0xbd0e3d03	-0.034726154
71	0x3d468789	0.0484691
72	0x3d14755f	0.036244746
73	0xbd6ac8f8	-0.057320565
74	0x3da7b013	0.0818788
75	0x3d3c1338	0.045916766
76	0xbd645400	-0.05574417
77	0xbd9dccf7	-0.077051096
78	0x3bb9c210	0.005668886
79	0xbcbfd8f7	-0.023418887
80	0x3dbd2233	0.092350386
81	0xbd4532af	-0.04814404
82	0x3dd902de	0.1059625
83	0xbbe2dc68	-0.006923247
84	0xbd94b80a	-0.07261665
85	0xbd8c6235	-0.06854669
86	0x3d08a26b	0.03335802
87	0x3da2d36b	0.07950481
88	0xbd917959	-0.07103223
89	0x3bf0800a	0.007339482
90	0xbd522b4d	-0.051310826
91	0x3dc0a69e	0.0940678
92	0xbdf42f6a	-0.11923106
93	0x3dc72a29	0.09724838
94	0x3d8d16a9	0.06889088
95	0x3cf18b3e	0.029485341
96	0x3df6d022	0.12051417
97	0x3db03084	0.086030036
98	0x3d8520cc	0.06500396
99	0xbdb1f5a4	-0.0868943
100	0x3c21efcd	0.009883833
101	0xbc56ea2c	-0.013117354
102	0xbcfc4a3a	-0.030797113
103	0x3d3f9de1	0.046781424
104	0x3dd9d72d	0.10636745
105	0xbd86b077	-0.06576627
106	0x3d6633a4	0.056201592
107	0x3df7e6d4	0.12104574
108	0xbdc3611b	-0.09540006
109	0xbd75da75	-0.06002279
110	0x3cf41a07	0.029797567
111	0xbd8e4ccd	-0.06948242
112	0x3dbbbe4a	0.09167154
113	0xbde7f5c8	-0.11326176
114	0xba8efb5e	-0.0010908653
115	0x3ce2f7d3	0.027706062
116	0x3d6f0f15	0.058363993
117	0x3d3414bc	0.043965086
118	0x3ccd2e86	0.025046598
119	0xbcb2f03b	-0.021843066
120	0xbd0bdf90	-0.034148753
121	0x3cd5aadc	0.026082449
122	0x3d5f50ec	0.054520532
123	0x3d868fe4	0.06570414
124	0x3db1228b	0.08649167
125	0x3ddd564e	0.10807477
126	0x3d2cad03	0.042157184
127	0x3b2f2dd7	0.0026730204
128	0x3c3fe00d	0.011711133
129	0xbd945a01	-0.072437294
130	0x3dba7753	0.091047905
131	0x3dadee97	0.08492773
132	0x3be88db9	0.007096973
133	0xbdc7f14d	-0.09762821
134	0x3de3c1c4	0.11120942
135	0x3d6942fd	0.05694865
136	0x3d08343d	0.033252943
137	0xbdcc593a	-0.09977956
138	0x3d32eeab	0.043684643
139	0x3d21933f	0.039447065
140	0x3d4e17a7	0.050315525
141	0xbd5cad4c	-0.053876206
142	0xbdc94d01	-0.098291405
143	0x3da5be76	0.08092968
144	0x3c0cc3d5	0.008591612
145	0xbc926a3a	-0.017872918
146	0x3d88225f	0.06647181
147	0xbd5a9531	-0.053364936
148	0xbc7bb29f	-0.015362411
149	0xbd5e25ad	-0.05423515
150	0xbddb84c3	-0.10718682
151	0x3dba73eb	0.09104141
152	0x3e1e4611	0.15456416
153	0x3daef0b7	0.085420065
154	0xbdf5f8ec	-0.12010369
155	0xbb10b62a	-0.0022081234
156	0xbd98784a	-0.07444818
157	0x3dd6cdb6	0.10488455
158	0x3dd7bda4	0.10534218
159	0xbde4125a	-0.11136313
160	0x3d9c6c1b	0.07637807
161	0xbda5e1a3	-0.080996774
162	0x3c6b9fd4	0.014381368
163	0x3da81f0b	0.08209046
164	0xbe232ebd	-0.15935798
165	0x3dc80b81	0.09767819
166	0xbd74dd23	-0.059781205
167	0x3d9e5a43	0.0773206
168	0xbe171e19	-0.14757575
169	0xbcaa20b4	-0.020767547
170	0xbdb3aaff	-0.08772849
171	0x3d887a8c	0.06663999
172	0xbdf13dd6	-0.117793724
173	0xbd9ae13a	-0.0756249
174	0xbddfa826	-0.10920744
175	0xbd477175	-0.048692185
176	0x3d346aef	0.044047292
177	0xbe06ea04	-0.13175207
178	0xbd87d7ae	-0.066329345
179	0x3d1306ae	0.035895042
180	0xbdd7ba82	-0.105336204
181	0x3d184f77	0.03718516
182	0x3de6df5d	0.11273072
183	0x3da4e5bf	0.08051633
184	0xbdea7dfa	-0.11449809
185	0xbdb85efe	-0.09002493
186	0x3d0e3cb0	0.034725845
187	0x3d7985b3	0.06091852
188	0xbdca5a6d	-0.098805286
189	0xbda0c2d9	-0.07849664
190	0xbde838c3	-0.113389514
191	0x3e049d9b	0.12950747
192	0x3dbba889	0.09163005
193	0x3d4fb81c	0.05071269
194	0xbde76d4c	-0.113001436
195	0x3d34c5fa	0.044134118
196	0x3bc82e95	0.0061090686
197	0x3ddcaf66	0.10775642
198	0x3df55f84	0.11981109
199	0x3bc3488e	0.005959577
200	0xb98fc687	-0.00027423
201	0xbd3392eb	-0.043841284
202	0xbda4fb37	-0.08055728
203	0x3caa2fe4	0.02077479
204	0x3d92299a	0.07136841
205	0xbc86558d	-0.016398216
206	0x3d16f706	0.036856674
207	0x3dcb5db1	0.099299796
208	0x3c977b85	0.018491516
209	0xba3956e7	-0.00070701394
210	0xbdc86209	-0.09784324
211	0x3c65b1de	0.014019458
212	0xbc52a48d	-0.012856615
213	0xbd0890cc	-0.033341214
214	0xbdc33654	-0.09531847
215	0xbd9aa2a1	-0.0755055
216	0xbcb6df81	-0.022323372
217	0x3a671584	0.0008815157
218	0xbcef8ba0	-0.029241383
219	0xbc7ca269	-0.015419581
220	0xbd9bfb39	-0.07616276
221	0xbdc0d2dc	-0.09415218
222	0x3dcff24c	0.10153636
223	0xbd970d6f	-0.07375609
224	0x3dac5419	0.08414478
225	0x3d466487	0.048435714
226	0x3da56715	0.08076302
227	0xbd2ba1df	-0.04190242
228	0xbd8b11c4	-0.06790498
229	0x3d458239	0.048219893
230	0xbd99e26c	-0.0751389
231	0x3d9d6937	0.07686084
232	0x3d60162c	0.054708645
233	0xbd41ef0a	-0.047347106
234	0xbdca0b32	-0.098654166
235	0x3da1b822	0.07896449
236	0xbd331d3a	-0.043729044
237	0x3ddcb4a5	0.10776643
238	0xbc7340df	-0.014847009
239	0x3d8bd2b0	0.06827295
240	0xbdcabbcc	-0.09899101
241	0xbd7ca9e6	-0.061685465
242	0x3d7753ff	0.06038284
243	0x3d7ec201	0.062196735
244	0x3d61fb38	0.05517122
245	0xbbc9cfaa	-0.0061587887
246	0x3c24ddda	0.010062659
247	0xbcbeadc3	-0.023276215
248	0x3d88a424	0.06671932
249	0x3c78c7de	0.015184371
250	0xbd521b6f	-0.051295694
251	0xbd8d0b1a	-0.06886883
252	0xbde0a92e	-0.109697685
253	0xbd81162f	-0.06303059
254	0x3d506838	0.05088064
255	0xbd5c0787	-0.053718116

hidden_layers.2.0.bias f4 [64]
0	0xbd99b277	-0.075047426
1	0x3c081f22	0.008308204
2	0x3d2e8e8c	0.042616412
3	0x3d770305	0.060305614
4	0xbdacd8d6	-0.08439796
5	0xbaff360f	-0.0019471067
6	0xbdd63284	-0.10458854
7	0x3d5149e5	0.051095862
8	0x3dadbf52	0.08483757
9	0x3d57f4ab	0.052723568
10	0x3db5e3f7	0.088813715
11	0xbd5595ac	-0.05214469
12	0x3d2a9b62	0.04165209
13	0x3c26e79d	0.010187057
14	0x3dabb411	0.08383954
15	0x3cf2c8bf	0.029636739
16	0x3d6d9214	0.05800064
17	0xbd5856de	-0.052817218
18	0x3cf62502	0.030046944
19	0xbd1f9b9d	-0.038966764
20	0x3cc5b531	0.02413425
21	0x3d45b4a0	0.04826796
22	0x3c3c0eca	0.011478135
23	0x3d2c28a3	0.04203094
24	0xbd315519	-0.043294046
25	0xbd237faf	-0.03991669
26	0xbc5b297e	-0.013376592
27	0x3d5f09e3	0.054452788
28	0x3d2d806a	0.042358793
29	0xbd1ec11d	-0.038758386
30	0x3c7b0db5	0.015323092
31	0x3d6b3892	0.057426997
32	0x3d1b821a	0.03796587
33	0x3dca1f38	0.09869236
34	0xbd3ed9f4	-0.046594575
35	0x3d5950bf	0.05305552
36	0x3dbbde52	0.091732636
37	0xbca9282b	-0.020649036
38	0x3c8e9d7f	0.017409084
39	0xbd16a2b1	-0.03677625
40	0x3cc43753	0.023952162
41	0xbd4f25d2	-0.050573178
42	0x3daa93d4	0.08328977
43	0x3d57696c	0.052590773
44	0x3cef85a9	0.029238539
45	0xbd626469	-0.05527154
46	0xbb2b34af	-0.0026123931
47	0x3d899a29	0.06718857
48	0x3cf36248	0.02970995
49	0x3d5d0ad1	0.053965393
50	0x3d84fcdb	0.06493541
51	0xbcce26a7	-0.025164915
52	0x3c9fc73c	0.019504182
53	0x3dc14067	0.09436112
54	0x3cc82422	0.024431292
55	0x3c7016ca	0.014653871
56	0x3db84fb2	0.08999576
57	0x3d4b6857	0.049660053
58	0xbcde153f	-0.02710974
59	0x3d6f2518	0.058384985
60	0xbb14e282	-0.0022718017
61	0x3dcc024f	0.09961378
62	0x3c8b81d9	0.01702969
63	0x3d183604	0.03716089

hidden_layers.3.0.weight f4 [64, 64]
0	0x3df97368	0.12180215
1	0x3ca99eb9	0.020705568
2	0xbdce9afb	-0.10088154
3	0xbe0413ad	-0.1289813
4	0xbcc84ad6	-0.024449747
5	0x3d19a4a8	0.037510544
6	0xbd2ad2af	-0.04170483
7	0xbd8711d0	-0.06595194
8	0x3d87b8e6	0.066270635
9	0xbddab5dd	-0.10679219
10	0xbd64455e	-0.055730216
11	0xbdbb9ec9	-0.09161145
12	0x3dd79890	0.10527146
13	0x3df1c1c5	0.11804537
14	0x3dfe3ca4	0.1241391
15	0xbdaefe05	-0.08544544
16	0x3c875a04	0.016522415
17	0xbd0fe56b	-0.0351309
18	0xb9cb1334	-0.00038733485
19	0x3c48d839	0.012258583
20	0x3cb1f99d	0.02172547
21	0xbd989c9f	-0.07451748
22	0x3da6d69c	0.08146402
23	0xbda53534	-0.08066788
24	0xbd8ea8e3	-0.06965806
25	0x3cdb37b7	0.026759965
26	0x3d89ada1	0.0672257
27	0x3e003e31	0.12523724
28	0xbd2b5560	-0.041829467
29	0x3de8dd0b	0.113702856
30	0xbddf9d06	-0.10918622
31	0xbd848f48	-0.06472641
32	0x3d8f424b	0.06995066
33	0x3d2fd1fa	0.04292486
34	0x3da0ac10	0.07845318
35	0x3dade571	0.08491028
36	0x3da1e8a9	0.079057045
37	0x3abb54e5	0.0014292268
38	0x3d8e6f23	0.069547914
39	0xbc743bee	-0.0149068665
40	0x3c6eb3c2	0.014569225
41	0xbd985a21	-0.07439066
42	0xbd060129	-0.03271595
43	0xbce01a89	-0.027356403
44	0x3cc492db	0.023995807
45	0xbdd8d421	-0.105873354
46	0x3ca48e9e	0.020087536
47	0xbd34dcc2	-0.044155844
48	0xbce9055b	-0.028444936
49	0xbd175167	-0.036942866
50	0xbdeae477	-0.114693575
51	0x3dacfccd	0.084466554
52	0x3d94e6c6	0.07270579
53	0xbdd805c4	-0.10547975
54	0x3e03216a	0.12805715
55	0xbd94cbcf	-0.07265436
56	0xbd106df4	-0.03526111
57	0x3dac5039	0.08413739
58	0xbd36b86c	-0.044609472
59	0xbda1143c	-0.078651875
60	0x3d414afc	0.04719065
61	0x3dff809a	0.12475701
62	0xbd232e6a	-0.039839186
63	0x3c813aba	0.015775073
64	0x3c3361db	0.0109486235
65	0xbd49f4d6	-0.04930576
66	0x3d073e91	0.033018652
67	0xbdbf2124	-0.09332493
68	0x3cb6a4b7	0.022295339
69	0xbca54b62	-0.020177547
70	0x3dfb6c46	0.12276511
71	0xbbbccdc7	-0.0057618353
72	0x3d80e1d7	0.062930755
73	0xbd8409f5	-0.06447212
74	0x3c8c3774	0.017116286
75	0x3daab19f	0.0833466
76	0x3dabd663	0.083905004
77	0xbdcbfba1	-0.09960104
78	0xbd87607f	-0.06610202
79	0x3dad7e00	0.08471298
80	0x3cb3fc6b	0.021970948
81	0xbcbf1979	-0.023327576
82	0x3d049a22	0.032373555
83	0xbd303871	-0.043022577
84	0xbae4f3c9	-0.0017467673
85	0xbd34c18d	-0.044129897
86	0xbdc150d7	-0.09439247
87	0x3d44099e	0.047860734
88	0xbd0bc108	-0.034119636
89	0x3dbc1b75	0.091849245
90	0xbd7c605b	-0.06161533
91	0x3d6be952	0.05759556
92	0x3dc28cef	0.09499537
93	0x3d474e83	0.04865886
94	0x3d783946	0.060601495
95	0xbce6c4c3	-0.028169995
96	0xbc858b66	-0.016301822
97	0x3cf3601d	0.029708916
98	0xbc113d94	-0.008864779
99	0x3dbf4f49	0.09341294
100	0xbd57c04f	-0.052673634
101	0xbcc7a66c	-0.024371348
102	0x3d5c12f0	0.053728998
103	0xbc98c02d	-0.018646324
104	0x3da9ba08	0.08287436
105	0xbc8a73ce	-0.016900923
106	0x3db04298	0.08606452
107	0xbcd3ea9a	-0.025868703
108	0x3b3062fc	0.0026914468
109	0x3cfc67d9	0.030811237
110	0x3dd80fff	0.10549926
111	0xbd829923	-0.06376865
112	0xbcc0ca0b	-0.023533842
113	0x3d9e705b	0.07736274
114	0xbd706d00	-0.0586977
115	0x3ca33847	0.019924296
116	0x3c95fab8	0.018308029
117	0xbbe03cdd	-0.006843193
118	0xbd6e7fdd	-0.05822741
119	0xbc7e5780	-0.015523791
120	0x3d80d323	0.06290271
121	0x3dee4b5f	0.1163547
122	0x3df9d27e	0.12198351
123	0xbcf99189	-0.030464904
124	0xbc8368a9	-0.016041117
125	0xbd73ea69	-0.059549723
126	0x3d21d519	0.039509866
127	0x3d4ff59b	0.050771337
128	0x3d0c13ef	0.034198698
129	0x3dd4c21c	0.10388586
130	0x3d9718c6	0.07377772
131	0xbcbb0624	-0.022830077
132	0xbde7c375	-0.11316577
133	0xbe012d3c	-0.12614912
134	0xbdccd5c5	-0.10001711
135	0xbdd07015	-0.10177628
136	0xbccefc7d	-0.02526688
137	0x3ddfe936	0.10933153
138	0xbde9e87b	-0.11421295
139	0xbdc94182	-0.09826948
140	0x3d3a0e2f	0.045423683
141	0x3de50285	0.11182121
142	0xbdd3ac55	-0.10335604
143	0x3d867e58	0.06567067
144	0x3d929861	0.0715797
145	0x3dcf6391	0.10126413
146	0xbcad1d45	-0.02113212
147	0xbdb1f2bc	-0.08688876
148	0xbb9c8eeb	-0.0047777793
149	0x3d169b21	0.036769036
150	0xbd5b7d80	-0.053586483
151	0xbd8e334b	-0.06943377
152	0x3e004e24	0.12529808
153	0xbc12e6a7	-0.008966125
154	0xbd7ed78f	-0.06221729
155	0x39afaa57	0.00033505514
156	0x3d80a251	0.062809594
157	0xbdad2aa3	-0.08455398
158	0xbd2cf119	-0.042222116
159	0xbddd8191	-0.108157285
160	0x3c09c6b4	0.008409191
161	0x3c2c9289	0.010532984
162	0x3cf83005	0.030296335
163	0xbcc715b7	-0.024302347
164	0xbdb4a198	-0.08819884
165	0x3b66fac8	0.0035244692
166	0x3ddf0ab9	0.10890717
167	0xbd7c14b4	-0.06154318
168	0x3c8508c7	0.016239537
169	0x3c9dfb2b	0.019284805
170	0x3dc77ece	0.09740983
171	0x3d187a56	0.037226044
172	0xbd79af31	-0.06095809
173	0xbacfd555	-0.0015856425
174	0xbdb884ac	-0.0900968
175	0x3c76b424	0.015057597
176	0xbd940c21	-0.07228876
177	0xbdb74a35	-0.08949701
178	0xbc5113cd	-0.0127610685
179	0xbd85be4f	-0.06530439
180	0xbd3796dd	-0.04482161
181	0xbd8370a3	-0.06417968
182	0xbdc091c6	-0.09402804
183	0x3cc244dd	0.023714477
184	0xbdf7f85b	-0.12107917
185	0x3db52842	0.08845569
186	0x3d56b810	0.05242163
187	0xbd732681	-0.059362892
188	0xbdaf1769	-0.08549387
189	0xbdd0149e	-0.101601824
190	0xbc2943d5	-0.010331114
191	0x3d2687d2	0.040656872
192	0x3be2d7cc	0.0069226976
193	0xbe01184e	-0.12606928
194	0x3b604b74	0.003422466
195	0xbd4c57f7	-0.049888577
196	0xbd4d21bd	-0.050081003
197	0xbcc1a5b2	-0.02363858
198	0xbbd87d39	-0.0066067246
199	0xbcb38446	-0.021913659
200	0x3cd784cf	0.026308445
201	0xbd916163	-0.07098653
202	0x3dce47df	0.10072302
203	0x3c47b6c4	0.012189571
204	0xbcd1ec66	-0.025625419
205	0xbd3305dc	-0.04370676
206	0x3de67f97	0.112548046
207	0xbde2f1f3	-0.110813044
208	0xbd2a16a7	-0.04152551
209	0xbd5af4ea	-0.053456225
210	0xbd2884f6	-0.041142426
211	0x3df76ffc	0.12081906
212	0xbd9e38c9	-0.07725675
213	0xbda9da85	-0.082936324
214	0x3d94fb63	0.07274511
215	0xbdc453a5	-0.095862664
216	0x3dffa3e1	0.12482429
217	0x3d834a71	0.06410683
218	0xbd1e9a58	-0.038721412
219	0x3baf61c5	0.005352231
220	0x3d4fa9fb	0.050699215
221	0x3dc09110	0.094026685
222	0xbd6159fd	-0.05501746
223	0xbd032a08	-0.032022506
224	0xbc826115	-0.015915433
225	0xbc9ac6e4	-0.018893667
226	0xbdfb3469	-0.12265856
227	0xbc94e0a5	-0.018173525
228	0xbdcbec13	-0.09957137
229	0x3ccc424a	0.024933953
230	0xbd693329	-0.056933556
231	0x3d8b539d	0.06803057
232	0x3d6d9c8e	0.05801063
233	0x3de67ddb	0.11254474
234	0x3dd6791b	0.10472318
235	0xbc309285	-0.0107771205
236	0x3c86b3d8	0.016443178
237	0xbdd7e5bb	-0.105418645
238	0x3df5ee8a	0.12008388
239	0xbdb93d0e	-0.090448484
240	0xbdd09466	-0.10184555
241	0x3db13ccc	0.08654174
242	0xbc679e92	-0.014136927
243	0x3dbcf736	0.09226839
244	0xbdb8d97c	-0.09025857
245	0xbdefcb1d	-0.11708663
246	0xbdf59162	-0.1199062
247	0xbd8f8364	-0.07007483
248	0xbca16715	-0.019702474
249	0x3db5ecf7	0.08883088
250	0x3d5ca7d8	0.053871006
251	0x3da0cca2	0.078515306
252	0xbb0c211e	-0.0021382044
253	0x3cc595e3	0.024119323
254	0x3dc81157	0.09768932
255	0xbdbf31cb	-0.09335669

hidden_layers.3.0.bias f4 [64]
0	0x3c05f2ee	0.008175595
1	0x3c8aff8f	0.016967563
2	0xbd2e86d7	-0.042609062
3	0x3d9db5e8	0.077007115
4	0x3b6d191c	0.0036178296
5	0x3db8ad6f	0.09017455
6	0x3d97868d	0.073987104
7	0x3d41bc34	0.047298625
8	0xbdb66f9a	-0.08908005
9	0xbdd10d2c	-0.102075905
10	0xbd0bce20	-0.034132123
11	0xbdc2db95	-0.09514538
12	0x3dac6640	0.0841794
13	0x3dba6794	0.09101787
14	0xbd874833	-0.06605568
15	0xbd01dfeb	-0.031707685
16	0xbdd3ff19	-0.103513904
17	0xbd99c278	-0.07507795
18	0xbbb1cf7c	-0.0054263454
19	0x3d3b33ed	0.045703817
20	0x3cfc09e4	0.030766435
21	0xbd6980ac	-0.057007477
22	0x3ad8442c	0.0016499809
23	0x3ca284c0	0.01983869
24	0xbda2a6c7	-0.079419665
25	0x3d736bfb	0.05942915
26	0x3da066cd	0.07832108
27	0x3dd6d614	0.10490051
28	0x3d6c5543	0.0576985
29	0xbd247d4c	-0.040158555
30	0xbdafdb30	-0.085867286
31	0xbd5873a1	-0.052844647
32	0x3dc43d1b	0.095819674
33	0x3c76c50c	0.015061628
34	0xbdc78968	-0.09743005
35	0xbd45a813	-0.04825599
36	0x3d31f240	0.04344392
37	0x3dc05170	0.09390533
38	0xbdb8aa92	-0.09016909
39	0xbd0f5932	-0.034997173
40	0x3cecf9e6	0.028927755
41	0xbcaead50	-0.021322876
42	0x3dca5411	0.09879316
43	0xbd34ffcb	-0.044189256
44	0xbcc5f038	-0.024162397
45	0x3cd37c25	0.025816033
46	0x3d5fd69e	0.054648034
47	0xbd1f33fa	-0.038867928
48	0xbdbba570	-0.09162414
49	0x3c23492b	0.009966175
50	0xbc9e8169	-0.019348817
51	0x3dd86d01	0.10567666
52	0xbd7170cb	-0.05894546
53	0xbdb7c8bc	-0.08973834
54	0x3d1148e6	0.035469912
55	0x3d8d79d3	0.06908002
56	0xbcd32a40	-0.025776982
57	0xbcab6e2e	-0.020926561
58	0x3bbbfa1c	0.0057366025
59	0x3d48aa20	0.04899037
60	0x3ce00bea	0.027349431
61	0x3d5949c9	0.053048883
62	0x3cb2fa26	0.021847796
63	0xbcd40201	-0.025879862

hidden_layers.4.0.weight f4 [64, 64]
0	0xbc86478e	-0.016391542
1	0xbd23bf3f	-0.03997731
2	0xbb0f37b8	-0.002185328
3	0xbdf9f84b	-0.12205561
4	0x3d6ac22f	0.057314094
5	0xbe01d7fe	-0.1268005
6	0xbe04660d	-0.12929554
7	0x3dc91b38	0.09819645
8	0x3dd815d5	0.10551039
9	0x3d13a936	0.036050044
10	0x3d39fa2b	0.045404594
11	0xbd1a38d5	-0.037651855
12	0xbaa21c64	-0.001236808
13	0xbc8a15a6	-0.016856026
14	0xbda6d839	-0.0814671
15	0xbc8bb176	-0.017052393
16	0xbd529369	-0.051410113
17	0x3d98e41b	0.07465383
18	0x3ce510ac	0.027962051
19	0x3d6024c3	0.05472256
20	0xbc814d25	-0.015783856
21	0xbbf59512	-0.007494577
22	0xbd92e521	-0.07172609
23	0xbdb96aa3	-0.090535425
24	0x3d6e9b66	0.05825367
25	0x3d84c1f7	0.06482308
26	0x3d51c065	0.051208872
27	0xbc7c5157	-0.015400252
28	0xbbeb16af	-0.007174335
29	0x3d2d8b2f	0.042369064
30	0x3ddd359d	0.108012415
31	0x3d52038d	0.051272918
32	0x3da3ecf3	0.08004179
33	0xbc571a68	-0.013128854
34	0x3d89df94	0.06732097
35	0xbda13eeb	-0.07873329
36	0xbc574ebf	-0.013141333
37	0x3dafb682	0.085797325
38	0x3dbb711e	0.09152435
39	0xbd35857a	-0.044316746
40	0x3a8fc45a	0.0010968552
41	0x3b5299df	0.0032135171
42	0xbd98b39a	-0.07456131
43	0x3dec1c08	0.11528784
44	0x3e04cc1f	0.12968491
45	0x3d850fe9	0.06497175
46	0x3e025722	0.12728551
47	0xbde96a1f	-0.11397194
48	0x3d3f9e17	0.046781626
49	0xbd353016	-0.04423531
50	0x3d556785	0.052100677
51	0xbd3f3423	-0.04668058
52	0xbdfb5772	-0.12272538
53	0x3d96b28c	0.07358274
54	0x3c441a31	0.011969135
55	0xbd311af1	-0.043238584
56	0xbda4012d	-0.08008037
57	0x3d9d424e	0.07678662
58	0xbd26f7ca	-0.040763654
59	0x3ce7a876	0.02827857
60	0x3d95f235	0.07321588
61	0xbd783729	-0.06059948
62	0xbda016a7	-0.078168206
63	0x3d7cbe99	0.061705206
64	0x3d80b839	0.06285138
65	0xbdaa53fb	-0.08316799
66	0x3da7e71d	0.08198378
67	0x3d04bff1	0.032409612
68	0xbdf998c6	-0.12187342
69	0x3dec7561	0.11545826
70	0xbd7f0eee	-0.062270097
71	0xbcfecfb4	-0.0311049
72	0xbdb63f84	-0.088988334
73	0xbda83336	-0.08212893
74	0xbe0bbac1	-0.1364546
75	0xbdbe3908	-0.092882216
76	0xbd57cf5f	-0.052688
77	0x3dad50a2	0.08462645
78	0x3c6fa1cb	0.014625977
79	0xbd5cb094	-0.053879336
80	0xbd6bc33e	-0.057559244
81	0x3da07dd0	0.07836497
82	0xbdf5f145	-0.12008909
83	0x3db6ac7a	0.08919616
84	0xbd3d3abf	-0.046198603
85	0xbb0b5b5b	-0.002126417
86	0x3daa78dc	0.08323833
87	0xbdff961a	-0.124798015
88	0xbd6cb7fa	-0.05779264
89	0x3c8e4f16	0.017371695
90	0x3dd5b0f7	0.10434144
91	0xbcd78954	-0.0263106
92	0xbdad8f97	-0.08474653
93	0xbc82bef5	-0.015960196
94	0xbb880903	-0.004151465
95	0xbde59025	-0.11209134
96	0xbd8a98bc	-0.06767413
97	0x3db16bef	0.08663165
98	0xbc856bd2	-0.016286764
99	0x3ce08b0e	0.027410056
100	0xbdc9a2df	-0.09845518
101	0xbe00f886	-0.12594804
102	0x3cb84f55	0.022498766
103	0xbcc10867	-0.023563577
104	0x3dc9a2db	0.09845515
105	0x3d10fb07	0.03539565
106	0x3c50db7d	0.012747643
107	0xbc01bd70	-0.007918701
108	0x3dae07f0	0.08497608
109	0xbdb3ff5e	-0.08788942
110	0x3d357998	0.044305414
111	0xbcaa07ad	-0.020755613
112	0xbd5509c9	-0.052011285
113	0x3b6e498b	0.0036359753
114	0xbdb43f96	-0.088011906
115	0x3d5a7b6d	0.053340364
116	0x3d33cc74	0.043896154
117	0x3d9f4b60	0.077780485
118	0xbdb4d5d6	-0.088298485
119	0x3d9badb3	0.0760149
120	0xbe0256d7	-0.1272844
121	0xbdac3f2b	-0.08410486
122	0xbda134bd	-0.07871387
123	0xbd5a2ad1	-0.05326349
124	0xbd3514ca	-0.04420928
125	0x3e050533	0.12990265
126	0x3d1245c4	0.035711065
127	0x3d9e3371	0.077246554
128	0xbd8be9ac	-0.06831679
129	0x3d80fafd	0.06297872
130	0x3d9f7eee	0.07787882
131	0x3da92645	0.082592525
132	0x3d77d3da	0.06050477
133	0x3d2529e4	0.040323153
134	0x3d56fcc4	0.05248715
135	0x3cc3d363	0.023904508
136	0x3d2ab8e9	0.04168025
137	0x3de780fe	0.113039
138	0x3db3e062	0.08783032
139	0x3dd80d64	0.10549429
140	0xbd980ab9	-0.0742392
141	0xbda4e250	-0.08050978
142	0xbda065fa	-0.078319505
143	0x3da40961	0.080096014
144	0x3d42743e	0.04747414
145	0x3d1edf3b	0.038787108
146	0xbd02a1ea	-0.031892695
147	0x3d8086ba	0.06275697
148	0x3dc469fa	0.09590526
149	0xbda78e4f	-0.0818144
150	0xbcf31549	-0.029673235
151	0xbdb32187	-0.08746629
152	0x3d33cdaa	0.04389731
153	0xbc835112	-0.016029868
154	0xbd7fc9e0	-0.062448382
155	0xbdbad1ed	-0.091220714
156	0x3de08391	0.10962594
157	0xbdcbfa80	-0.099598885
158	0xbc0899f6	-0.008337488
159	0x3ccef395	0.025262633
160	0xbb9b28c9	-0.0047350866
161	0x3dedc4c5	0.116097964
162	0x3d8b38a7	0.06797915
163	0xbd523e65	-0.051329035
164	0x3de5fdb4	0.11230031
165	0x3dde4fde	0.10855077
166	0xbd8b5cf7	-0.06804841
167	0xbd84c5c6	-0.06483035
168	0x3c9bd25a	0.019021202
169	0x3c29060b	0.010316382
170	0xbb0cdd25	-0.0021494117
171	0xbd24eb93	-0.040263724
172	0x3dcc8282	0.0998583
173	0x3ddf486b	0.109024845
174	0xbd435610	-0.047689497
175	0x39eb7f40	0.00044917502
176	0xbd47d014	-0.048782423
177	0xbce5db23	-0.028058594
178	0xbdcd4ff8	-0.100250185
179	0x3d37284e	0.044716172
180	0xbde73eb5	-0.11291257
181	0x3de89013	0.11355605
182	0xbd016691	-0.031591956
183	0xbc27bf8b	-0.0102385385
184	0x3dbe75d8	0.09299821
185	0x3caf5559	0.021403002
186	0xbd13ec85	-0.036114234
187	0x3c9802e0	0.018556058
188	0xbd7b8955	-0.061410267
189	0x3ca3512d	0.019936169
190	0x3daf63f3	0.08563986
191	0xbb855916	-0.0040694578
192	0xbdb92fb8	-0.09042305
193	0xbd0dd66d	-0.03462832
194	0xbd36e0f9	-0.044648144
195	0xbba4177d	-0.005007683
196	0xbd9ba263	-0.07599332
197	0xbd99f6a0	-0.07517743
198	0xbcb9bbd0	-0.022672564
199	0x3ce26c9c	0.02763968
200	0x3d0b3900	0.033989906
201	0xbc3f82ff	-0.011688947
202	0xbd164e89	-0.03669599
203	0x3e04a52c	0.12953633
204	0xbd9e2f93	-0.07723918
205	0x3d79da45	0.060999174
206	0xbda66af0	-0.081258655
207	0x3de70d5e	0.112818465
208	0xbd942fa6	-0.07235651
209	0x3dca39fb	0.0987434
210	0x3d50efea	0.05101005
211	0xbd43bf03	-0.047789585
212	0x3d8522c8	0.065007746
213	0x3d8ad6c9	0.06779248
214	0x3d4a78d1	0.049431626
215	0xbd2fe960	-0.042947173
216	0xbdb4caf4	-0.08827773
217	0xbd5b8273	-0.053591203
218	0xbd20077e	-0.039069645
219	0x3d159f77	0.03652903
220	0xbdabf91c	-0.08397123
221	0x3d84f7ff	0.06492614
222	0x3d34a611	0.044103686
223	0xbdb2c9ba	-0.087298825
224	0x3c1918ce	0.009344293
225	0x3cd36e5d	0.025809461
226	0xbe031c4b	-0.12803762
227	0x3cc2d3d6	0.023782652
228	0x3d88d5e7	0.06681424
229	0xbd10bb2a	-0.035334744
230	0x3d9bf48d	0.07615004
231	0xbda8cf58	-0.08242673
232	0xbd49202a	-0.04910294
233	0xbddea107	-0.10870557
234	0x3db51265	0.08841399
235	0xbd8213fe	-0.063514695
236	0xbbc465a3	-0.0059935614
237	0xbd079d28	-0.03310886
238	0x3da7066c	0.08155522
239	0xbdcc124f	-0.099644296
240	0x3d8db706	0.069196746
241	0xbe0bf36b	-0.13667075
242	0x3d3124ee	0.04324811
243	0xbd94a204	-0.072574645
244	0xbd89da24	-0.0673106
245	0xbd17f05d	-0.037094463
246	0xbd836a8e	-0.06416808
247	0x3de49e39	0.11162991
248	0xbdac16b9	-0.084027715
249	0x3d9d155e	0.07670091
250	0xbdc70a8e	-0.0971881
251	0xbdd96c4f	-0.10616361
252	0x3d85f77e	0.06541346
253	0xbcda97cb	-0.026683709
254	0x3ced5e7d	0.02897572
255	0xbc9a3a10	-0.018826514
