Neural Networks Codes/PINN/Save_models/model_Unified_PySindy_based_PINN.pth (torch, 34566 bytes, 18 tensors)

input_layer.0.weight f4 [30, 4]
00000000: 7a5f 17bd d826 a83d 72f7 b9bb 551d 2ebb
00000010: a40e f93c 8922 d83d c260 4cbb ed7a e73a
00000020: 5db9 b83d 01b8 e4bc fc23 31be 8e7b 283b
00000030: b412 8c3d 87aa 01bd 88d1 8cbd 309a 1339
00000040: 1547 993c 5766 e0bd 411c b7bb 5545 c53a
00000050: 7d34 ec3b 996d c7bb 5945 5c3a c614 5b3c
00000060: 08ff 9c3a e196 d53d 7397 56be a0f5 a03e
00000070: c36e 503d b442 433b c1b9 dbbd e058 4739
00000080: ca49 9e3d 235d 76bd 99c7 12bb fd43 e6b9
00000090: f72c c339 0287 60ba 54a2 8cbd 510b b33d
000000a0: e207 0a39 f1e0 503c 1ef3 463e 8b2c 26be
000000b0: 3674 dd3b 0a0a 223e 3c7d 7e3e c276 eabe
000000c0: c46a c1bb d98c 7abd d969 7abd 8090 173c
000000d0: 9d50 e13c c0ec c63e bf34 96ba ea7f 65bb
000000e0: 9456 a4bd 650b 25bc 40a0 ac3d f4c4 15b9
000000f0: 5157 d1bd fd14 3dbc f327 673c b585 8939
00000100: a422 4d3c 6ebf b5bc 1df0 823b bfd4 3f3c
00000110: e5d1 8c3c 4267 973e 7ace 70bd 68e6 2137
00000120: bba7 e5bc 62b0 483e 3f45 413e 2430 bebe
00000130: f1a8 1b3c 8aca 14bd 2d91 00be 5c96 4939
00000140: f39c e8bd 4a15 56be f4b9 213c eab7 a1bc
00000150: 34d1 0bbd bec1 64be b117 953c 50b2 14bd
00000160: 5689 813d 5f0f c3bd 4998 d0bd 9a1e 72ba
00000170: b03e de3a 90c7 acbc 68c3 813e 3a76 dabe
00000180: eab3 193d 8d20 65bb d56e 5bbd f36f 78ba
00000190: 495a a13d a5ea 323e b1e9 2e3c f7b3 bbbc
000001a0: d397 f9bc c46c ccbd aabf f23c edfc e9ba
000001b0: e67c 0b3a 34f2 983b 770b e8bb ff1d 2a3d
000001c0: 4cd8 40ba 1d9c cfbc e675 06be 0e8a 633d
000001d0: 02cb 80bd 9e2b cb3d c36c e43d f0fd 773a
-0.036956288 0.08210534 -0.0056752497 -0.0026567776 0.030402489 0.10553462 -0.0031185602 0.0017660536
0.0901973 -0.027919771 -0.17298883 0.002570841 0.06839505 -0.03165677 -0.068759024 0.00014076452
0.018710652 -0.1095702 -0.005588085 0.001505057 0.0072084055 -0.006086063 0.00084026676 0.013371652
0.0011977861 0.104291685 -0.20956211 0.31437397 0.05088688 0.0029794397 -0.10728789 0.00019011227
0.07728918 -0.060147416 -0.0022396802 -0.00043919674 0.000372268 -0.00085650396 -0.06866899 0.08742393
0.00013163642 0.012748943 0.1942868 -0.1622793 0.006758238 0.15824142 0.2485246 -0.4579373
-0.00590262 -0.06116948 -0.0611361 0.00925076 0.02750426 0.388525 -0.0011459811 -0.003501887
-0.08024326 -0.010073517 0.08429003 -0.00014283118 -0.102217324 -0.0115406485 0.014108646 0.00026230296
0.012520466 -0.022186007 0.003995909 0.011708437 0.01718993 0.29570967 -0.05879066 9.649993e-06
-0.028034082 0.19598535 0.18874072 -0.37146103 0.009500728 -0.03632597 -0.1255538 0.00019224867
-0.11358061 -0.20906559 0.009870995 -0.019741017 -0.03413506 -0.22339532 0.018199774 -0.036302865
0.06325023 -0.09524416 -0.10185296 -0.00092361274 0.0016955938 -0.021091253 0.25344396 -0.42668325
0.037525095 -0.0034962029 -0.053572495 -0.0009477131 0.07878549 0.17472322 0.010675834 -0.022912962
-0.030467903 -0.09981683 0.029632408 -0.0017851867 0.00053210405 0.0046675447 -0.007081445 0.041532513
-0.00073564495 -0.025342995 -0.13130912 0.05555158 -0.06288721 0.09920429 0.11153557 0.0009460142

input_layer.0.bias f4 [30]
00000000: a30c 353d f31e c3bc fe6e 4a3d 365b dd3c
00000010: 0a25 1bbc d8d3 4ebb 6bc9 803c 5368 8f3c
00000020: 89a4 e63d ad67 67bc 5ec0 343b 19d9 fa3c
00000030: e2b1 43bc 465d dcbe c747 07bd d310 a6bd
00000040: 0311 7cbb f19b 613c 545d 503c 96fb 38ba
00000050: afc2 2c3e d956 9f3d c595 fb3c 9e93 e93b
00000060: 2a8a 9d3c 7c6f 2e3e 60af cf3b 7b6a 8839
00000070: 9aa0 26bb 1608 f8bc
0.044201504 -0.023818469 0.049422257 0.027021032 -0.00946928 -0.0031559374 0.015721044 0.0175058
0.11261851 -0.014123839 0.002758048 0.030621098 -0.011944266 -0.43039912 -0.033027437 -0.08108678
-0.0038462288 0.0137700895 0.012717564 -0.0007056532 0.16871141 0.07780237 0.030711064 0.007128193
0.01923092 0.17034715 0.006338045 0.00026019276 -0.0025425316 -0.030277293

hidden_layers.0.0.weight f4 [30, 30]
00000000: 1ba9 ed3a b70e 6abc 1a84 20bd 615e 2fbc
00000010: 95fa ddbc 83e9 c1bd f6ea 5ebc 5fb9 9bbb
00000020: 3269 82bd e267 e9bc c7ef dabc 4ae0 8dbc
00000030: 3c62 cfbd 5e53 54be c5bf b3bd 3cbc 83bb
00000040: ef17 7ebd 9f66 babd 9507 4a3d ae22 32bd
00000050: c1e2 4a3d 1e2f a83a 481e 033d 5ae2 bd3d
00000060: 11e5 bebc 3395 fcbd 32af e1bc f1bf 02bc
00000070: 1bb9 14bd 12b6 93bc 9ffd 3b3d 375a 923c
00000080: d74a 9d3c c2bc 7c3a b79f d2bb cc57 b7bc
00000090: eeb7 9a3c b297 9f3c a5f4 c63c e557 c23c
000000a0: 690c 64bc 257e ae3c 6f6b 033c c118 17bc
000000b0: 5af8 0cbd 6c1f 7bbc fc08 36bd 0f03 fd3c
000000c0: 9ca4 063d 49ef 9bbc e534 553c 007d 87bc
000000d0: 9cbe 3fbb cee7 a23b 8c72 fc3c 60ab 07bd
000000e0: 6838 14bb 0bd3 b1bc 0b17 a13c 037b 2abc
000000f0: ca03 f0bd 7eb7 413c 0ee4 98bc 35f1 c5bc
00000100: fd42 39bd 9ab7 4dbd 811a 503d 7807 493d
00000110: 705b 16be 6f9d 8e3d 4473 3bbd f7dd bb3d
00000120: c50c 3fbc b8d5 1c3d 1897 c23c 78e6 ed3d
00000130: 5646 edbd 3710 613c 8c44 303e 23bc b9bd
00000140: 2fa4 ed3c 939f 90bc 6aaa 903d 6904 f4bc
00000150: 0453 743d 23ae c3bc 1dad 00be 1b7d 1fbe
00000160: 2642 dfbd 9886 8f3d d8b4 873d 8939 8c3c
00000170: 6354 d4bd 8647 f3bd dc3d 0dbe ec4d 74bd
00000180: 56c7 8bbc 098a aebd f31b 1a3e c46f c03d
00000190: 74bd 4fbc a617 64bc acc4 94bb 55cc ae3b
000001a0: 133a 5c3d 5f6d eabd 1d35 d1bd 7368 a1bd
000001b0: 18e4 b93d 86bb 103d 2838 1cbc 8af4 003e
000001c0: 1748 a3bd d148 68bd 06ca ef3d 3f71 f03d
000001d0: 51cf b7bd 73aa cebd 5916 ae3d 3cf4 d43c
000001e0: 2282 853d aa07 8d3a a912 adbc f71d e43b
000001f0: 94ba 653d cca1 ad3c 8b57 0a3d 5f23 8c3c
00000200: 0fcd e33d c70f 803d da37 3abb cc20 f13b
00000210: 96ce 7f3a 0d95 5cbd 953e 79bd 7320 073d
00000220: a0b5 1bbd a05d 8fbd 40c4 9ebc b74c 273d
00000230: 55ac d03d f0d9 193d 94d7 73bd 6e4d b0bc
00000240: 0afc d1bc d688 40bd 0487 d6bb 66f3 93bc
00000250: 1648 703d fe30 853d c401 693d 4e79 ebbc
00000260: 1c1f 343b 4e89 973d cc22 c7bc 0e6a 993d
00000270: 0ec7 f03c 2143 eebc 1d28 be3d 4447 613b
00000280: fa8b 88bc bba5 943d 1e63 533d 0456 f9b9
00000290: 500e 5d3d 72a6 a4bc 232a c73a f8b5 73bd
000002a0: 8589 263d 4e5b ba3c 9fdc 573d f29c 27bc
000002b0: e9eb 0a3d 3417 143d aa45 26bc 5443 603d
000002c0: 2886 a3bd e0e9 613d 2326 b33d 09c9 bb3c
000002d0: 318e 6dbd 66b6 6ebd b7ff 7d3d b18e e9bd
000002e0: be90 88bc 2b8f 68bc 4c26 213d c3e4 ecbd
000002f0: bcb0 b7bb f35b 75bb ce2e 80bd 8b02 c9bd
00000300: 4e76 e63c 37d3 163d 9001 adbd 9b54 63bd
00000310: cd8f d23d 0a25 9b3d 9183 e9bd c12b 8f3d
00000320: b24f 5e3d a616 873d 9272 1f3d 7afa 3cbd
00000330: dc92 aebd f4b5 e5bc 1e56 aabd bd78 48bd
00000340: 1865 9b3d 39ba 543d a5c9 62bc 774c 5e3d
00000350: 363f 363b b17e 163e 349b edbd ee94 11bd
00000360: d579 2e3d c42c 893d ca86 253d 47e3 cb3c
00000370: 8528 a2bd b93a e5bd ae30 853d 871b 1cbe
00000380: 9824 afbd 4699 8abd 1467 553d 5eb0 4b3d
00000390: 006b 1bbd 5062 1e3e 0526 4f3d c88a 043d
000003a0: ab8f b23b 7e98 9fbd f76b 8c3d 1a3f a3bd
000003b0: 6dc9 163d 3d07 a53d 12e6 783d 9caf 4fbd
000003c0: 0886 dabb 626a 023c c5e2 6dbd 3f01 f3bb
000003d0: 085e 163d f715 d93d dfbb 39bb 5b0d 66bd
000003e0: 3268 4e3d 9127 86bd 95f9 b7bc 8ae0 df3d
000003f0: 410c d93d c8f6 893b 5286 d8bd b104 02be
0.0018132062 -0.014285735 -0.039188482 -0.010703654 -0.027097026 -0.09468367 -0.013605824 -0.0047523226
-0.06367721 -0.028491918 -0.026725663 -0.017318863 -0.101261586 -0.20734927 -0.087768115 -0.004020242
-0.062034544 -0.09101605 0.049323637 -0.043490104 0.049532656 0.0012831425 0.0320113 0.09271689
-0.023302587 -0.12333145 -0.02754936 -0.007980333 -0.036309343 -0.018031154 0.04589617 0.017865283
0.019200725 0.0009641164 -0.006427731 -0.022380732 0.018886533 0.019481514 0.024286577 0.023723552
-0.013918974 0.021300385 0.00802122 -0.00922221 -0.034416534 -0.015327316 -0.044442162 0.030885248
0.032871827 -0.019034998 0.013013099 -0.016539097 -0.00292579 0.004971481 0.030816339 -0.03312242
-0.0022616629 -0.021707078 0.019664308 -0.010405305 -0.11719473 0.011823533 -0.018663432 -0.024162868
-0.0452299 -0.050223924 0.050806526 0.04907939 -0.14683318 0.06963622 -0.045764223 0.09173196
-0.011660759 0.038289756 0.023753688 0.11616224 -0.11585681 0.013736776 0.17213649 -0.09069087
0.029008953 -0.017654216 0.07063754 -0.02978726 0.059649482 -0.023886746 -0.12566037 -0.15575068
-0.10901289 0.070080936 0.0662629 0.017117279 -0.10367658 -0.118788764 -0.13793129 -0.059644625
-0.017062824 -0.08522422 0.15049724 0.093963176 -0.0126794465 -0.013921654 -0.0045400467 0.005334417
0.05376632 -0.11446642 -0.10215209 -0.0788125 0.090767086 0.035335086 -0.009534873 0.12593284
-0.079727344 -0.056710068 0.11708455 0.1174035 -0.08975089 -0.10091104 0.08500356 0.025995366
0.065189615 0.001075973 -0.021127062 0.00696158 0.056086138 0.021195315 0.033774894 0.01710671
0.11123096 0.06253009 -0.0028414638 0.007358646 0.0009758262 -0.053853083 -0.0608507 0.03298993
-0.038015008 -0.070002794 -0.019380689 0.040844645 0.1018912 0.037561357 -0.059531763 -0.021521296
-0.025632877 -0.047005497 -0.006546857 -0.018060397 0.058662497 0.06503485 0.05688645 -0.028744366
0.0027484363 0.07399236 -0.024308585 0.074909315 0.029391792 -0.029084744 0.09284995 0.0034374753
-0.016668309 0.07258173 0.051608197 -0.00047557068 0.053968728 -0.020098899 0.0015195053 -0.05949971
0.040658493 0.022748616 0.052700635 -0.01023029 0.033916388 0.03615494 -0.010148445 0.05475171
-0.07984573 0.05515468 0.087475084 0.02292301 -0.057996932 -0.058279417 0.062011447 -0.11404169
-0.016670581 -0.01419429 0.039343163 -0.1156707 -0.005605785 -0.003743884 -0.06258927 -0.09814938
0.028132584 0.036822524 -0.08447564 -0.055500608 0.10281334 0.07575424 -0.114020474 0.06990767
0.054275222 0.06596117 0.038927622 -0.04613731 -0.08524105 -0.028040864 -0.08317207 -0.04894327
0.075876415 0.05193541 -0.013842021 0.05427214 0.0027808673 0.14696766 -0.11601868 -0.03554242
0.042596657 0.066979915 0.040411748 0.024888648 -0.07917885 -0.11192841 0.065034255 -0.15244876
-0.085519016 -0.06767516 0.052100256 0.049728744 -0.03794384 0.1546719 0.050573368 0.032358915
0.0054492555 -0.077927575 0.0685653 -0.0797102 0.03681319 0.08058021 0.060766287 -0.050704584
-0.00666881 0.007959934 -0.058077592 -0.00741592 0.03671077 0.105998926 -0.002834074 -0.05616508
0.050392337 -0.065505154 -0.022457877 0.10931499 0.1059804 0.004210327 -0.105724946 -0.12697102

hidden_layers.0.0.bias f4 [30]
00000000: 2b0f 2e3a d4f5 37ba ecdb 173c 55fe 9abb
00000010: 3b31 a9ba caec d33a 328d 8e38 1acf f93b
00000020: ad20 f93a 03fc 42ba 7ef8 ac39 1384 39bc
00000030: a76a e23a 128c 26bb 3b9d 87ba 8068 3dbb
00000040: 2d2c 113b 760f a23b 9291 263b 649f a73a
00000050: 1da8 ec3b 9aeb 9fb9 0e2f e93c 67bb 49bb
00000060: edea d639 7133 b0bc f0e2 7e38 5bbc 07bb
00000070: b91d 8a3c e04b 363c
0.00066398334 -0.0007017527 0.009268742 -0.004730026 -0.0012908349 0.0016168591 6.797387e-05 0.0076235654
0.001900693 -0.00074380654 0.00032991538 -0.011322993 0.0017274217 -0.0025413078 -0.0010346541 -0.0028901398
0.0022151575 0.0049456907 0.0025416357 0.0012788591 0.007222189 -0.0003050238 0.02846482 -0.0030781867
0.00040992294 -0.021508904 6.076967e-05 -0.0020711634 0.016859876 0.011126488

hidden_layers.1.0.weight f4 [30, 30]
00000000: 6c4d 2ebe 4e79 2dbc af8a 303d 14dd f13c
00000010: 5c9b df3d 3ad8 e7bd 3a53 b23d ae0d 94bd
00000020: 90ed 1dbe d39d ac3d 84ec 73bd c696 ecbc
00000030: 7652 cbbd bc02 363e 8cc3 653d 5b90 af3b
00000040: 8f1e c03b 6f6f 723c 2563 123c f808 e03b
00000050: 9564 abbc c108 003e 48a6 0e3e 504b 5e3d
00000060: 1eea 08be 5538 2f3d d7e5 06be c643 ee3d
00000070: a870 c8bd 2aa4 f73c 8d28 193d e403 9fbd
00000080: dd34 823c bb33 9fbd 7cf0 5d3d 1f20 b73c
00000090: 8af3 d4bd 74d6 283b 20e2 c6bc c2e0 b3bd
000000a0: da2a c7bc 3945 a43c 753a 333d 7055 a7bd
000000b0: 9dc3 7fbd 30fa 60bd 41da ebbd da64 833c
000000c0: 9df7 9c3d 4f18 ca3b 94d9 0bbe 2a95 f9bd
000000d0: 933f 913d c5bd 8c3d c797 cd3d b911 04be
000000e0: 290b a2bd 9975 7abd 0e70 9839 33f7 16bd
000000f0: 526f b0bd 9184 39bc b87f d13d ea58 e63d
00000100: 958f f4bd 0459 96bc 6519 85bd c58b e63d
00000110: f241 b4bd 39a9 293d 8c24 ecbd 20de 8e3d
00000120: 9b42 b2bd 6dec b73d e9dd 163e e98e 38bc
00000130: 062b d43d 5b21 e2bd 9fc4 eebd 3676 a8bc
00000140: 28ae d1bd aa9a c1bd 5ed2 613d 2e82 ed3d
00000150: 8e31 bab9 9e5a 293d 8426 9dbd c52f a63d
00000160: e483 563d 3bec 0f3e 5e2f c2bd 0003 03be
00000170: 6327 283d 2958 50bd 5da7 4c3c 1398 4c3d
00000180: d6fe 7abd dd37 153e 4312 5f3e 3a22 803d
00000190: 4417 f43c 6e13 04be f035 04bd 5edc 45be
000001a0: 02d3 3e3b 6bb7 9d3d 1f02 233d e4b6 0cbd
000001b0: 1a52 95bd c1a6 a53d cee3 003e d62b f23b
000001c0: 8044 38bd 4917 06be 16d8 ca3d 03a9 693d
000001d0: 15d5 19bc 6f78 13be 73e4 1bbb c924 133e
000001e0: fb51 123e 06bc 9f3b 0e69 ec3d 982a 79bd
000001f0: f897 3f3d 335a 91bc 09ac 85bd afe0 373d
00000200: 69b9 4b3c 3b9b a7bd fd0f a5bd bf92 843c
00000210: 2e2c 70bc dda3 51bd 2cd5 593d d329 e1bc
00000220: 9285 ffbd 8264 ce3d af11 ce3d 3767 f13c
00000230: 7bff 4fbe 1a9f dcbd de65 b03d 1972 153e
00000240: be86 11bd 5e4e efbd c5ac 2cbe 7398 ac3d
00000250: 6e25 90b9 60df 8e3d 929b 853d ffc3 d4bd
00000260: 1b72 e9bd 684e 1f3e 6dd6 713d e727 fc3d
00000270: 6f7f 2fbc b271 173e e159 443e afa0 813d
00000280: 8e25 893d 7022 1cbd 3573 25be 1883 f4bd
00000290: 3bfe d3bd 21d6 5fbd 4e04 ff3d 1df0 7f3d
000002a0: c653 0abe 6058 a13c 02d6 c43c a92a f33d
000002b0: 8dd3 aa3d 097d 54be d6b8 8f3d 89a7 cb3d
000002c0: 39bd db3d ba95 cb3d 80c8 aabd 7056 353d
000002d0: 97c4 fabd 80e2 bc3d 7aa8 013e ba94 a93d
000002e0: 7a72 ccbd 6074 533d 5408 673a 0fb3 99bd
000002f0: b897 0bbd 316e bfbc cc70 5fbc a9b6 f53d
00000300: 16a6 25bc 670d 163c f839 803d 052e 8bbc
00000310: 0f8c 713d 0bf5 133e 367f a6bc 6edf 013d
00000320: 39ce cebd 115f b2bd cd03 553d e5e4 9e3c
00000330: 1e86 8d3d b89f 683c 7ea8 193c 4a50 f03b
00000340: 9bc1 f43b db8e f2bd b7d3 f0bd efb7 afbd
00000350: 4a7e 2b3d 9ad9 c83d 3879 03be 4f82 0bbd
00000360: 4dc0 89bd 178e 14be 7bcb 39be 3321 9abd
00000370: 7300 51bb c0fe a2bd ad6d f73d fe84 623e
00000380: b904 89bd 60f1 4d3d 4d90 a63c 9947 593e
00000390: 9392 ab3d 5469 12be 9511 963d aa8e 6d3d
000003a0: 06b1 2f3c 64e8 80bd f7ab 0fbb deae 43bd
000003b0: db01 4f3d 29ac d03d ef12 2f3e 257b dfbd
000003c0: ef8d d33b 0c98 aebc d49a 93bd d0a1 13be
000003d0: a8cb f5bb 8716 68bd 1269 bcbd 5dc1 24bd
000003e0: 7b48 0bbd b79c 99bd e679 513d b3ff 86bb
000003f0: 62f4 d93c 776c e1bc 0876 013e 0de2 f73d
-0.17021722 -0.010588003 0.04310101 0.029524364 0.10918304 -0.11320539 0.087072805 -0.07229172
-0.15422654 0.0842854 -0.05955173 -0.028880488 -0.099278376 0.1777448 0.05609469 0.0053577847
0.005863018 0.014797076 0.008934771 0.0068370067 -0.020921985 0.1250334 0.13930619 0.054271042
-0.13370559 0.04277833 -0.13173614 0.116340205 -0.097871125 0.030229647 0.037392188 -0.07764414
0.015894348 -0.07773539 0.054184422 0.022354184 -0.10398014 0.002576259 -0.024277747 -0.087831035
-0.024312425 0.02005254 0.04375692 -0.08170593 -0.06244241 -0.054926097 -0.11516238 0.0160393
0.07664416 0.0061674486 -0.13657218 -0.12186654 0.07092204 0.06872133 0.10038715 -0.12897386
-0.07912285 -0.061147306 0.00029075186 -0.03685684 -0.08614983 -0.01132311 0.102294385 0.11247428
-0.119414486 -0.018352993 -0.06498984 0.11257128 -0.088016406 0.04142115 -0.11530408 0.06975961
-0.0870411 0.089806415 0.1473309 -0.011264541 0.103597686 -0.11041518 -0.11658596 -0.02056418
-0.10238296 -0.09453328 0.055132262 0.115970954 -0.00035513606 0.041346185 -0.07673362 0.0811458
0.052371874 0.14054959 -0.09481691 -0.12794113 0.041053187 -0.050865326 0.012491074 0.049949717
-0.061278187 0.14572091 0.2178431 0.06256528 0.02979625 -0.12898037 -0.032278 -0.19322345
0.002911747 0.07701 0.039796945 -0.034354106 -0.0729105 0.080884464 0.125869 0.0073904796
-0.0449872 -0.1309482 0.09904496 0.057045948 -0.009389182 -0.1440141 -0.002378729 0.14369501
0.14289086 0.004874709 0.11543475 -0.060831636 0.046775788 -0.017743206 -0.06526954 0.04489201
0.012434342 -0.08183905 -0.0805969 0.016183255 -0.014658971 -0.051181663 0.053181812 -0.027485764
-0.124766484 0.10077764 0.10061967 0.029468162 -0.20312302 -0.10772534 0.086131796 0.14594306
-0.03552889 -0.11684869 -0.16862781 0.08427515 -0.00027493708 0.06976199 0.06523813 -0.10388946
-0.11398717 0.15557253 0.059042383 0.12312298 -0.010711535 0.14789465 0.19174911 0.06329476
0.06696616 -0.03811878 -0.16157229 -0.11939067 -0.10351225 -0.05464757 0.12451993 0.06248485
-0.1350852 0.01969546 0.024027828 0.11873371 0.08341131 -0.20750822 0.070176765 0.09944064
0.10729451 0.099406675 -0.083390236 0.044271886 -0.12244528 0.09222889 0.12661925 0.082803205
-0.09982772 0.051624656 0.00088131917 -0.07504856 -0.034080237 -0.023367973 -0.013637733 0.1199773
-0.010110399 0.009158469 0.06261057 -0.016989717 0.05897146 0.14448945 -0.02032433 0.03170722
-0.100979276 -0.08709539 0.052005578 0.019396255 0.069103464 0.014198236 0.009378551 0.00733379
0.0074693686 -0.11843654 -0.117591314 -0.085800044 0.041868486 0.09807129 -0.1283921 -0.03405982
-0.067261316 -0.14507328 -0.18144028 -0.075258635 -0.0031891137 -0.07958746 0.12081466 0.22121045
-0.06690354 0.05027902 0.02033248 0.21218719 0.08377566 -0.14297992 0.07327572 0.057997383
0.010723358 -0.06294325 -0.0021922567 -0.04777419 0.05053888 0.10189087 0.17097066 -0.1091216
0.006456129 -0.021312736 -0.072072655 -0.14417195 -0.0075010844 -0.05666211 -0.09199728 -0.040223468
-0.03400467 -0.07500594 0.051141642 -0.004119837 0.026605789 -0.02751754 0.12642682 0.12103663

hidden_layers.1.0.bias f4 [30]
00000000: 4431 503c 0184 1dbb 02df 8b3d 02a6 b3bc
00000010: ca26 1f3c f015 8c3d d492 3d3b c6e2 a4bd
00000020: 8d09 70bc fa87 9bbb 7104 2a3d 4012 99bd
00000030: c6f5 d5bc d0ac aebd b268 18bc 536f f63a
00000040: d497 053c 1bb2 2a3c 7fb7 8c3c 4020 f5bd
00000050: 97d0 3f3c 81a4 8b3b fb28 813a 1627 a3bc
00000060: 46c2 133c 7b99 4d3d f8e5 3f3c b348 b03a
00000070: 76d9 f9bb 3999 803d
0.012707058 -0.002403498 0.06829645 -0.021929745 0.009713838 0.06840122 0.0028926628 -0.08051066
-0.014650715 -0.0047464343 0.041508142 -0.07474184 -0.02611817 -0.08529055 -0.009302305 0.0018801488
0.008153874 0.01041844 0.017177342 -0.11969042 0.011707447 0.0042615538 0.0009854132 -0.019916099
0.009018486 0.0501952 0.011712544 0.00134494 -0.0076248003 0.06279225

hidden_layers.2.0.weight f4 [30, 30]
00000000: e728 723d b02e b9bd dc32 993b bb75 59bc
00000010: 7610 89bd 07da 15bc ec3d 473c 091a 223d
00000020: c13b a3bc 6c76 1ebd 0f03 bbbd ba60 443c
00000030: 55da 753d 4558 acbb 32a7 2bbd c75f 213d
00000040: 8fa2 d33d 3e09 533d 99ef a4bc 8239 b03d
00000050: b3fb ca3d d8ed 3f3d 1497 85bc b382 8fbd
00000060: 4965 f03a 3029 17bd 648d 113c 865f b13c
00000070: 64b7 d63d 5a84 52bd 4c5b 45bd e463 cb3c
00000080: 019d 073b cbb7 a9bc f794 823d 38bb e93b
00000090: bca1 f3b9 b744 a7bc 70ba 00bd 70ef 513d
000000a0: 9f02 a23c 1d1c 2e3c 150a e63a 660c 5dbb
000000b0: c7e2 bb3c 2577 f1bb 11e2 8abc 231a a13a
000000c0: e0bc 2bbd 7c71 0c3d fe9b 3b3c 4a9b dcbb
000000d0: 4c36 28ba b024 343d 2d5d 1abd d99b a53c
000000e0: b289 2a3c acdd c8bd a416 b5bc b4aa 8a3c
000000f0: 20ee 7fbc 16f2 2c3d 488f a9bc 748f 8c3b
00000100: 9da5 863c 47ed 0b3d 8a1f 10bc b1d2 5b3b
00000110: 0a6b 89bd eb76 433d 6700 f93c c1d0 a63c
00000120: b146 8e3d 6905 e73c 13a3 093d c6af 853d
00000130: e3d8 763d da4e 6ebb 3c23 a1bb 78e1 053d
00000140: 9bb7 57bd 70f6 6ebd 69a2 dfbc a920 bcbc
00000150: 094f 9abd a596 643b 4e25 3f3c e0aa debd
00000160: 51cc 22bd e9e1 2bbd 25eb f3bc bcfa 03bd
00000170: 7997 b13c 02a6 303b b05c f43c 0295 1e3d
00000180: 9224 db3b 8451 cfbd 1f81 923d 6549 45bc
00000190: 10de 853d 426c 8fb9 9dc6 0d3c 65f9 c23d
000001a0: ec2c 3bbd 5dd9 38bd e463 263d e252 37bd
000001b0: 0382 7ebc 5af2 25bd d373 e5bc 2bf9 97bd
000001c0: bb37 aa3b 573c 3ebd 2208 e63a 9d50 893c
000001d0: 98fb 763c 4727 c9bd 19b5 ce3d f258 0d3d
000001e0: e72e 57bc 0b13 963c 8d75 393d aae8 47bd
000001f0: 7329 223d 3bdf 62bc 1ba5 d33b f727 1c3d
00000200: 9910 9f3c 3161 483d 295e ffbb 4d40 093d
00000210: 3059 773d e297 50bd 3b27 b73c 52bd a0bc
00000220: 724b a13d 20f5 f0bb d9eb debb 9c2a 7e3d
00000230: 4265 53ba 91cc 013d 2f22 c3bb 5364 14bd
00000240: 409f 5abd 057f f1bb 7188 81bc cd2d 91bd
00000250: 4760 743d 4f8c 343b 740f 47bc 5de9 a13b
00000260: 2a6a c0bc 2771 8c3c 3049 5abd aff6 9f3d
00000270: 91f2 afbd 8234 c2bd 73ee 29bd 3439 0bbc
00000280: 2f17 22bd 2893 ffbc 4617 bbbd 2174 573d
00000290: b701 d9bd a93a 7fbb 7d0f 0dbd ad59 c9bc
000002a0: 7efc 833d d639 3ebd 100c 983d cc5a df3d
000002b0: edf2 ab3d 0f23 c83d f033 83bd be25 703d
000002c0: b420 993b 7c75 993d 218a 513d 2bda 80bd
000002d0: d50b e9bb b241 783d 94fe b33c 9936 2ebd
000002e0: b44b 243d ac08 59bc 0eae a5bc d164 0fbb
000002f0: f586 b2bd 350c d23c 3a93 ddbc bff3 473c
00000300: 562f 4a3c 5ec2 f5bb 3134 dc3c ffd6 473d
00000310: a482 ec3a 04b6 373c 06f1 eabc 7caf 1b3d
00000320: 2f8d 603d 3e5d 0b3d 3e33 10bc 00c3 c9b9
00000330: ed0f 93bd 0e72 fabb 65e3 333c 28fc 5ebc
00000340: 3683 d63c eb10 51bc 34ba 0c3d 7232 b7bc
00000350: 7428 863d feeb 12be ff41 123c 8618 89bc
00000360: f452 c5bc 7d1b 453e db6a e8bd 9b49 bdbc
00000370: b394 9d3d 6a7a 863d eacf 343d 50bb 0dbe
00000380: 9dc9 263b 65b0 0d3d 1a5b cc3d e728 9bbc
00000390: c75d fc3d 1352 c63d 189d be3d 3df4 fb3c
000003a0: 7039 b3bc f574 acbd 5c4b ba3d daf8 87bd
000003b0: c09d 283d 4e04 f73d 7c78 573c b2d9 84bd
000003c0: fb25 003d 3591 5dbb a1ef 773d c117 c0bd
000003d0: 6822 36bd df41 41bb d426 693d b15c 82bd
000003e0: a868 033e 3909 e63c b514 ddbd a2ab c23d
000003f0: e1de 83bc 7357 1a3d 464d 573d f00f 93bc
0.05912104 -0.09042108 0.0046752524 -0.013272698 -0.06692593 -0.00914622 0.012160759 0.03957561
-0.019925954 -0.038687155 -0.09131443 0.011985952 0.06002267 -0.005259546 -0.041907497 0.03939798
0.1033374 0.051522486 -0.02013378 0.08604719 0.09911289 0.046857685 -0.016307391 -0.07007351
0.0018340732 -0.036904514 0.008883808 0.021651994 0.10484198 -0.05139575 -0.04818277 0.024827905
0.0020692947 -0.020717522 0.06376069 0.007132914 -0.00046469073 -0.020418508 -0.0314278 0.051253736
0.01977664 0.01062682 0.0017550612 -0.0033729314 0.022935284 -0.0073689395 -0.0169535 0.0012291115
-0.041928172 0.034287915 0.011450766 -0.006732379 -0.0006416782 0.0439803 -0.037686516 0.020215916
0.010408806 -0.098079056 -0.022105522 0.0169271 -0.015620738 0.04222306 -0.020698205 0.004289562
0.016436392 0.034161832 -0.008796582 0.003354233 -0.06709869 0.04772083 0.0303957 0.020363213
0.06947077 0.028200822 0.033602785 0.06527667 0.060265433 -0.0036362917 -0.0049175303 0.032685727
-0.052665334 -0.05834049 -0.027299123 -0.022964792 -0.07534606 0.003487983 0.011666609 -0.108724356
-0.039745633 -0.04196349 -0.029775212 -0.03222154 0.021678673 0.0026954417 0.029829353 0.038716324
0.006687709 -0.1012297 0.07153534 -0.012041424 0.06536496 -0.00027355744 0.00865331 0.095202245
-0.045697138 -0.04512917 0.040622607 -0.044756778 -0.015533927 -0.040514328 -0.02800933 -0.07420572
0.005194632 -0.046444263 0.0017550031 0.016762072 0.015074633 -0.09821945 0.100931354 0.034508653
-0.013133741 0.018319627 0.04527812 -0.04880587 0.03959031 -0.013847168 0.006458891 0.03812405
0.019417094 0.048920814 -0.007793207 0.033508588 0.06038779 -0.050926097 0.022357574 -0.019621525
0.07875718 -0.00735344 -0.0068030176 0.062052354 -0.00080641 0.03168923 -0.0059550027 -0.03622849
-0.05337453 -0.0073698782 -0.01581213 -0.07088814 0.05966213 0.002754945 -0.01214968 0.004941149
-0.023488123 0.017143799 -0.053292453 0.07810723 -0.08591188 -0.09482671 -0.04148717 -0.008497525
-0.03957289 -0.0311981 -0.091352984 0.052600984 -0.1059603 -0.0038944876 -0.0344386 -0.024578894
0.064446434 -0.046441875 0.07424176 0.1090599 0.08395944 0.09772312 -0.06406391 0.058629744
0.004673088 0.074931115 0.05115712 -0.06291612 -0.007112006 0.060609527 0.021971978 -0.042532537
0.04011126 -0.013246696 -0.020224597 -0.002188016 -0.08717147 0.025640586 -0.027047742 0.01220411
0.012340387 -0.007499977 0.026880356 0.04878902 0.0018044305 0.0112128295 -0.028679382 0.03800915
0.054822143 0.03402447 -0.00880128 -0.00038482994 -0.07180772 -0.007642991 0.010979508 -0.013609923
0.026185613 -0.012760381 0.034357265 -0.022362921 0.065506846 -0.14347836 0.0089268675 -0.016735326
-0.024087407 0.19248767 -0.11348506 -0.023106387 0.07694378 0.065663174 0.044143595 -0.13840985
0.002544976 0.03459205 0.09978314 -0.018940402 0.12322574 0.09683623 0.09307307 0.03075611
-0.021877974 -0.08420745 0.09096405 -0.066392615 0.041166067 0.12061368 0.013151284 -0.064868346
0.03128622 -0.0033808474 0.060531262 -0.09379531 -0.044466406 -0.0029488725 0.056921795 -0.06365336
0.12832892 0.02808057 -0.10794965 0.095053926 -0.016097488 0.037681054 0.052563928 -0.017951936

hidden_layers.2.0.bias f4 [30]
00000000: 04c4 713d ae24 e9ba 21cc 013c e6a4 06bd
00000010: 2449 1b3c 915a 6fbc 1795 af38 1377 24bc
00000020: 1ef2 853c 3277 82bd da43 e1bb 1351 6a3d
00000030: 76a0 34bd 7983 a2bd 9bc4 7c3d 10bc 803b
00000040: fb9d 5b3d d43a 3a3c 1c00 743d 70af 983c
00000050: 151b 4b3d fc34 d0ba 444c 1b3d 8f0d 14bd
00000060: 522f 393d 9707 c5bb 329f 8b3b a202 e03c
00000070: 2470 dd3c 26b5 51bb
0.059024826 -0.0017787421 0.007922203 -0.032872103 0.009477887 -0.014608995 8.3724204e-05 -0.010038155
0.016350802 -0.06370391 -0.0068745436 0.057206225 -0.04409834 -0.07935233 0.061710935 0.003928669
0.05361746 0.011366565 0.059570417 0.018638343 0.049586374 -0.0015884931 0.03791453 -0.036145743
0.045211144 -0.0060128677 0.004260921 0.027345005 0.027031012 -0.0031998842

hidden_layers.3.0.weight f4 [30, 30]
00000000: 81f4 a6bd 7793 4a3d d3a3 90bc b674 603d
00000010: a707 ab3d e6fd cd3c c3a7 703b c9af df3c
00000020: 8ba0 8fbd fe6b f4bc 3ba7 fd3d 3f7d 1abc
00000030: d13f 113e c5ce 73bd 8a35 07bc d950 bb3d
00000040: 1ec1 2d3d 14e5 38b8 fc09 873d 827c 59bd
00000050: 03f1 e63a d6b7 d13d 2d2b b83d aea0 20bd
00000060: 3b35 a5bd 4bcd a23d 29d0 6ebc 3e69 09bd
00000070: cc68 9d3d c38b 553d f8d7 393d c89c ec3b
00000080: 8867 00bd 8ec9 613d 9a19 8a3d 68a8 403c
00000090: f884 a63d e475 04be e3b7 523d 9cda 55bc
000000a0: f580 81bd 7929 babd 64b0 1c3e 38de d23c
000000b0: bf04 913b d72e 6dbd 4b21 963d fd33 a3bd
000000c0: 65bd 13be a8b9 6abc 4032 e23d 07e7 323c
000000d0: 97f7 31bb 5a0e 9fbc e9c2 2d3c 59a2 413a
000000e0: 193c b3bc 892b 873d 9319 ff3d 68b2 9e3c
000000f0: 3ffd c2bb 2274 14bd f06a 31bc c8bf 1dbc
00000100: 5bcf 18be 4e79 fd3d ff27 e8bd 145f 563b
00000110: 90a1 ecbd 244e d0bd 5715 903d 9b75 c7bd
00000120: 0334 5d3d 411f 21bd cb59 4dbd 3508 92bc
00000130: d3cb aa3d 017f 6dbc f2b7 3d3d c5f7 0dbe
00000140: 17d4 dc3d 3bd1 a63c 0695 8d3d ff0e 5f3d
00000150: ff21 d9bd 19c8 d73d 79a5 1bbd 60ee bdbd
00000160: 9a2e 023c 3153 5e3d 8e17 ff3c 2857 cfbd
00000170: efad 3cbd 0f0f 9dbc f7ac 263c a8fc de3d
00000180: 8f26 023d 7206 9cbc 8ed5 4c3c e21a d4bc
00000190: e4c2 ffbc f97f 93bd 65b1 9c3d 4946 43bd
000001a0: 4493 c63b b460 a1bd e9bb 7c3d 244d 23bd
000001b0: af39 a03d c6a2 1abe a244 d73d 3f07 083e
000001c0: f6d1 39bb 908a 003c bf9a debd 60b4 51bd
000001d0: 8d81 08bd d273 c63d 5555 a13b 80c0 aebc
000001e0: 73c9 ccbd 5f22 3f3c ad9b 95bd 47dd 05bb
000001f0: e383 13be 4609 0b3e 1252 87bc 0cab 0c3c
00000200: b6c8 90bd 3fa5 9dbd 40fb 2cbd 0dac b9bd
00000210: 0ac3 f73d a50d c13d 3dab 1bbd ce99 01be
00000220: a2b0 943d 5d81 78bb e34c 123d 6efd 1bbe
00000230: c053 043e 1672 b1bd 03c6 083e 3934 3a3d
00000240: df7d f43d acc2 243d c27f 9f3c 850f 0dbe
00000250: 5e44 033d 68d0 8e3d 2875 b9bc 671f 8e3d
00000260: c3e3 3e3d 275e 8bbc a509 d33b 5b52 68bd
00000270: d753 a139 c843 d2bc 5e56 2c3d fa15 773c
00000280: 27ea 933d 555f 4c3d ba4c adbd 2fca 0abe
00000290: 981f e33d 0124 96bc fb13 dfbd 1a55 17bd
000002a0: 71a2 ddbd b3f5 853d 0005 d6bd 78c4 183c
000002b0: ddb0 44bd affe 8ebd 0e54 7f3d a0b3 083d
000002c0: afff f2bc 86c5 8e3c c002 babd dc43 f5ba
000002d0: 632d ab3d f0b7 4e3d b09f b13c 0fb8 ab3d
000002e0: 426c c23c 9b73 45bd d09f b2bd b0f6 4e3e
000002f0: b007 833d 54cd e73d ef3e 6cbd d5b0 913d
00000300: 764b a2bd eaab e8bd 2bc1 1c3d be3c 9fbd
00000310: 2dda 30bd 2597 10be b2fa 323d 07b3 0a3e
00000320: fb37 f8bd 4f51 cbbd b735 82bd 622c 9abd
00000330: b755 823d 0f71 26be db70 78bd 215b ce3d
00000340: fbee d5bd 7f67 6abd 2234 a63b ac6a fe3d
00000350: 0237 2bbd c0b3 cabb 78a5 b1bd 5930 0bbe
00000360: 1d5f 313d 8955 213e 44fa 27bd 3d69 0cbd
00000370: ef96 523d d2f0 9f3d c56b c6bd 14f0 5dbd
00000380: 4618 cc3d 3dd5 17bd 4493 dfbd a762 8a3d
00000390: c40c 273e 3abf 763d aab9 5fbd 58d5 4e3d
000003a0: c042 fb3c 9bd6 23bc dbd1 4ebd cfa2 13bd
000003b0: 682c a3bd 441f 3dbb c71c 61bc c1f3 fdbc
000003c0: 10fa c13d 84bb f0bd 3052 593c 50cf d7bd
000003d0: 7afc 00bd 7f1c e2bc 401c bb3c 2e2c 603e
000003e0: 4417 0bbe 87fa 58bc 860a f93a b641 a9bc
000003f0: 4fa9 113d 465b 18be 14df 843d 482b 9a3c
-0.08152104 0.04945704 -0.017656242 0.054798804 0.08351069 0.025145482 0.0036721088 0.0273055
-0.07013043 -0.029836651 0.12385412 -0.009429275 0.141845 -0.059523363 -0.008252511 0.0914628
0.0424205 -4.4082364e-05 0.06593701 -0.053097256 0.0017619435 0.10240142 0.0899261 -0.039215736
-0.080667935 0.07949313 -0.014575996 -0.033547632 0.07686004 0.05213524 0.04537198 0.007220838
-0.031348735 0.05512386 0.06743164 0.011758901 0.081308305 -0.12935597 0.0514449 -0.013052609
-0.06323425 -0.090899415 0.15301663 0.025740728 0.0044256146 -0.057905998 0.07330569 -0.079689
-0.14427717 -0.01432649 0.11044741 0.010919339 -0.0027155632 -0.019416023 0.010605552 0.00073865574
-0.021879243 0.066001005 0.1245605 0.01937218 -0.0059505994 -0.036243565 -0.010828719 -0.009628244
-0.1492285 0.12376653 -0.11335754 0.003271048 -0.11554253 -0.10171154 0.0703532 -0.09739228
0.05400468 -0.039336447 -0.05013446 -0.017826179 0.08339658 -0.014495612 0.046318002 -0.13864048
0.107826404 0.02036344 0.069131896 0.05445766 -0.10602187 0.105362125 -0.037999604 -0.09273982
0.007945681 0.054278556 0.031139161 -0.101240456 -0.046064314 -0.01917222 0.010173074 0.10888034
0.031775054 -0.019046042 0.012502087 -0.025891725 -0.03122086 -0.07202143 0.07651023 -0.04767445
0.006060036 -0.07879773 0.061702643 -0.03986849 0.07823502 -0.15101156 0.105111375 0.13284014
-0.0028353906 0.007845536 -0.10869359 -0.05119741 -0.033326674 0.0969006 0.0049235024 -0.021332026
-0.09999361 0.01166591 -0.073050834 -0.002042608 -0.1440578 0.13577756 -0.016518626 0.008585703
-0.070695326 -0.07697534 -0.0422318 -0.09066019 0.120977476 0.094264306 -0.038005102 -0.12656328
0.072602525 -0.0037918903 0.035717856 -0.15233395 0.12922573 -0.08664338 0.13356785 0.04545996
0.119380705 0.040224716 0.0194701 -0.13775451 0.032047622 0.06973344 -0.022638872 0.06939583
0.04660393 -0.017012669 0.0064403587 -0.056719165 0.00030770779 -0.025667086 0.042074554 0.015080923
0.072223954 0.049895603 -0.084619 -0.1355369 0.110900104 -0.018327715 -0.10892483 -0.036946394
-0.10821999 0.06541004 -0.104501724 0.009324186 -0.048020232 -0.06982171 0.06233602 0.03337443
-0.029662935 0.01742817 -0.09082556 -0.001871224 0.08358266 0.050468385 0.02168259 0.08384716
0.023733262 -0.048205953 -0.08721888 0.20211291 0.06397951 0.1131846 -0.057677206 0.07113806
-0.07924549 -0.11360915 0.038270157 -0.077752575 -0.04317682 -0.14120157 0.043696113 0.13544856
-0.121200524 -0.09927618 -0.063579015 -0.075279966 0.06364005 -0.16254066 -0.060654502 0.10075975
-0.104459725 -0.057227608 0.0050721327 0.1242269 -0.041800506 -0.0061859787 -0.08674139 -0.13592662
0.043303598 0.15755285 -0.041010156 -0.03428005 0.051413473 0.07809605 -0.09688524 -0.054184034
0.09965567 -0.037068594 -0.109167606 0.06757098 0.16313463 0.06024096 -0.054620422 0.05049643
0.030671477 -0.009999896 -0.050493103 -0.03604394 -0.07967454 -0.0028857747 -0.013739771 -0.03100002
0.09471524 -0.11754516 0.013264224 -0.105375886 -0.03149078 -0.027601479 0.02284062 0.21891853
-0.13583094 -0.013243324 0.0019000329 -0.020661216 0.035561856 -0.14878568 0.06487861 0.018819466

hidden_layers.3.0.bias f4 [30]
00000000: 1318 a2bc 6b8a 86bd 89cf f33c 8ab2 96bd
00000010: e572 99bd 3c2b 6dbc 1481 22bd 3012 bc3d
00000020: ea35 0f3d dbae 75bd 75bb 2abd 805b 08bd
00000030: c402 01bd 5748 1cbd c175 d83d 998b a9bc
00000040: 543f 7d3c e371 153d df5c be3b f5f6 0fbc
00000050: d7bf e53b 71d8 8dbc 0043 02bd a242 b93b
00000060: e4ea afbc b4e6 17bd 774b 45bc 6a7d 0ebd
00000070: f1bb a1bd 10dd 0bbd
-0.01978687 -0.0656937 0.029762046 -0.073582724 -0.074926175 -0.01447564 -0.03967388 0.091831565
0.034963526 -0.05998121 -0.04168268 -0.033290386 -0.031496778 -0.038154926 0.10569335 -0.020696448
0.015456993 0.036485564 0.005809411 -0.0087869065 0.0070113945 -0.017315121 -0.031802177 0.005653695
-0.02147431 -0.03708525 -0.012041918 -0.034787573 -0.07897175 -0.03414637

hidden_layers.4.0.weight f4 [30, 30]
00000000: 762b 893c a3f8 033d 3169 3f3d ce9b f73c
00000010: e952 573c c52e 5abc eeb8 66bd 2f1a 5fbc
00000020: e69e 9eba d747 dfbc 8244 593d 35d6 01bd
00000030: 67fb 02bd 1222 27bd 599a 8fbd 6a76 2abc
00000040: 56f6 23bc dc70 09bd 71f6 663d b1e6 75bb
00000050: 2915 8c3d fd76 9c3d 28c2 10bd c91c 04bd
00000060: c3d7 c0bd 4d92 7c3d 199e 683a 1b67 c7bd
00000070: 4d89 983d 320f 0d3d 2305 85bc 6acf 29bc
00000080: 2d44 0d3d 5b33 d3bc 22f6 813d 72a7 35bd
00000090: e2dd 51bd 5e5d b3bd 3983 8eba adb3 28bd
000000a0: ae77 eabd 255b 1fbd d025 d9bd c6a7 febc
000000b0: 8b23 8dbd 0372 a33c 9c06 863d 174c d3bd
000000c0: fef3 69bc 6dc9 55bd 776d f43d 6375 adbd
000000d0: 46f3 ef3c 7374 74bb 9f5d d33d cb95 ca3d
000000e0: c5a5 cd3b 189b 453c 3143 643d 45c1 aa3c
000000f0: 85da 843d b631 3eb8 4478 133d 18c5 7e3d
00000100: 591c 793d 8fa8 d0bc ae60 7dbd c9e6 60bd
00000110: 38d0 043d 9f7f 83bd c292 f13c a166 0bbd
00000120: 6c39 233d f3a7 91bc 8b75 24bc ad9f 003c
00000130: 30f3 5bbc 6506 bebb 1e2f 44bd 8405 34bc
00000140: 438a 26bd ecef eb3a a318 03bd 2b15 1c3c
00000150: d964 90bd 48ec 24bd df09 48bd 7a37 8abd
00000160: 07c4 4e3d 46b0 d0bb 3559 453d 0812 0c3c
00000170: b4a1 4a3c cd3d 1b3d 3f37 463d 240e 33bd
00000180: 03e0 0d3c 38ab e9bc 5c6c 1e3d c27e afbc
00000190: 3bf8 8fbd 9af3 98bc 72e5 f73b b748 083c
000001a0: 5603 78bd 5eaf e73c aaa3 c83c be91 c4bd
000001b0: 2da4 43bd 8964 91bd 3d5c 953d 4eb5 873d
000001c0: e14b f7bc 9448 2fbd 5b88 0cbd ff9f b73d
000001d0: 8278 133c 3a84 0b3d f106 e83d 227b 03bc
000001e0: 5215 983d add6 84bd 7603 bb3d ae1a 8d3d
000001f0: d179 d13d d0ad 38bd 9e83 1ebd 4f8c a3bd
00000200: 12a8 cdbc f7e9 81bd dfd2 97bd c81f 37bd
00000210: 2226 9dbd ab97 27bd 557e 6cbd fbe2 9cba
00000220: 24be 503d 8a25 393d e113 28bc 430f 0bbd
00000230: 6d24 59bd de8b ba3c 409a 7abd 9695 febc
00000240: c256 823d 66c3 283d bcbb 8ebd 3d37 4dbc
00000250: 6b3b 87bc e6fc 0fbc d911 c9bc 301f 00bc
00000260: 115a f5bc e8a3 65bc 28df f3bc 2b17 ad3c
00000270: 31ec 983c 1bd0 b03c a99f cf3c b45d f83c
00000280: 1377 f33c 638d b93c d1f2 503d bbad de3b
00000290: 31b4 933c fdd8 91bc 287f c93b e188 723d
000002a0: af2f 463d 7e80 1fbd d1c1 573c b942 01bd
000002b0: 8f22 4a3c 9ba3 9a3c 8b94 cdbb a480 0abd
000002c0: 4cd6 383c 7809 1a3b 225e 3cbd cfa8 38ba
000002d0: 3263 6bbd 2492 6c3d 6374 1ebd ef5c 823c
000002e0: df30 babd 90d5 50bc 7761 c03d 2430 943d
000002f0: 5ad0 9e3d 417d 513d 7d27 7a3d 3f29 d23c
00000300: c0e3 3a3d 3deb 09bc 261d 16bd 914f 19bd
00000310: ab72 87bd c701 ea3d de64 34bb 6f50 8c3d
00000320: c97a 023c f0b4 a43d 8e46 bb3d be81 9fbc
00000330: 14c3 32bd 1292 5cbd e051 823d e058 0e3e
00000340: 4509 723d 5055 783c 891d 213a f1ef 13bd
00000350: f3d6 f6bc 9c01 013d 1097 3cbd 82b4 8a3c
00000360: ff77 033d 0fbd bd3c 2912 1c3d 17a9 e93c
00000370: 6acb 74bc 61e0 c83c b652 483d fa05 3a3c
00000380: e676 4a3d 0711 eb3c 020e 933c 8ee1 3f3d
00000390: bc0f 8b3c dc22 08bd 7a55 2e3c b5f8 50bd
000003a0: 229f af3c 544d 14bc 1419 813c c981 28bb
000003b0: d72f 7c3b d393 b43c ce16 5dbd ba8a 7abc
000003c0: 0415 96bb d351 5dbb c90d e13a 764c a23c
000003d0: abef 42bd 15f9 3f3c 1bfb 893c 4e64 cd3b
000003e0: a3e2 053e 9a14 85bc 0d36 693d 519c b73c
000003f0: b284 1dbd f707 5e3d 14b0 303d 8a02 33bc
0.016744357 0.03221954 0.046731178 0.03022566 0.013142326 -0.013316815 -0.056328706 -0.0136170825
-0.0012101799 -0.027255936 0.05304385 -0.031698424 -0.031978037 -0.040803976 -0.07011861 -0.010404209
-0.0100074615 -0.033554897 0.05638737 -0.0037521536 0.068399735 0.07639883 -0.03534141 -0.032254014
-0.09416153 0.06166296 0.0008873656 -0.09736463 0.07448063 0.03443832 -0.016237801 -0.010364393
0.034488846 -0.025781324 0.06345774 -0.04434914 -0.051236995 -0.08758043 -0.0010872848 -0.041186977
-0.11448608 -0.03890528 -0.10602915 -0.03108586 -0.06891545 0.019951826 0.065442294 -0.10317247
-0.014279364 -0.052194048 0.11934941 -0.08469655 0.029290807 -0.0037300854 0.10320591 0.09891852
0.006275865 0.012060903 0.05572814 0.020844111 0.06486992 -4.5345827e-05 0.036003366 0.062199682
0.06081805 -0.025471 -0.06185978 -0.054907594 0.032425135 -0.06420826 0.029488925 -0.03403342
0.039849684 -0.01778028 -0.01003779 0.00785057 -0.01342468 -0.005799102 -0.047896497 -0.010987643
-0.0406592 0.001800058 -0.032005917 0.009526531 -0.07050485 -0.040264398 -0.04883754 -0.067488626
0.050479915 -0.0063686697 0.048180778 0.008549221 0.012367655 0.037900735 0.04839253 -0.043714657
0.008659366 -0.028524026 0.03867756 -0.021422748 -0.07029768 -0.018670846 0.007565194 0.008318118
-0.060550056 0.028281864 0.024492104 -0.095981106 -0.047763992 -0.07099254 0.07292984 0.06626378
-0.03018755 -0.042793825 -0.034309726 0.08966064 0.009000899 0.034061648 0.11329449 -0.008024963
0.074259415 -0.06486259 0.091315195 0.06889854 0.10228313 -0.045087636 -0.03869974 -0.07985746
-0.025104556 -0.063434534 -0.07413267 -0.044708043 -0.07673289 -0.040916126 -0.057737667 -0.0011969501
0.050962582 0.045201816 -0.010258646 -0.0339501 -0.053013254 0.022771772 -0.06118226 -0.031077188
0.06364204 0.04120197 -0.06969401 -0.012525377 -0.016507825 -0.008788323 -0.024544643 -0.007819936
-0.029950174 -0.014016129 -0.029769495 0.021129211 0.018667312 0.021583607 0.025344687 0.030318119
0.029719865 0.022650426 0.051012818 0.0067956126 0.018030258 -0.017803663 0.0061491914 0.05921257
0.04838532 -0.0389409 0.013168768 -0.031557772 0.012337341 0.018876841 -0.006273811 -0.033814088
0.011281561 0.002350418 -0.04598821 -0.00070441974 -0.057467647 0.057756558 -0.038685214 0.015913455
-0.09091353 -0.01274623 0.0939359 0.072357446 0.07754584 0.051144842 0.061072815 0.025654433
0.045627356 -0.008417902 -0.036648892 -0.037429396 -0.06613668 0.1142612 -0.0027525942 0.06851279
0.007963845 0.080423236 0.091443166 -0.019471046 -0.043643072 -0.05385024 0.06363273 0.1390109
0.05909087 0.015157059 0.00061460637 -0.036117498 -0.030131793 0.031495675 -0.046042502 0.016931776
0.03209686 0.02316144 0.038103256 0.028523011 -0.014941076 0.024521055 0.048907004 0.011353964
0.049429797 0.028694643 0.017951015 0.046845965 0.016975276 -0.03323637 0.010640496 -0.051018436
0.021438185 -0.00905164 0.015759028 -0.0025712124 0.0038480663 0.022043144 -0.053976826 -0.015291864
-0.004580142 -0.0033770695 0.0017170246 0.01981185 -0.047591846 0.011717101 0.01684337 0.0062680608
0.13074736 -0.016245175 0.056936312 0.022413405 -0.038456626 0.054206815 0.04313667 -0.010925898

hidden_layers.4.0.bias f4 [30]
00000000: 5bbb bc3c 5342 343d 47b6 393c e80b 1bbc
00000010: 121b 1b3d 636b 4b3c 2e2d 003d 486b 803c
00000020: e6d7 c03b bf49 de3c 3d14 043d 340e b13c
00000030: bb3c 1e3d 9f1b 6d3b 6794 043d 50e5 e2bb
00000040: a7de a33c deac 383b 2d7b 623c cfdb e4bb
00000050: 5365 70bc b5d7 f8ba 2748 c8bb 2299 bdbb
00000060: 99d3 53bd bb61 4dbd 387c 413b 10d9 9b3c
00000070: df7b 27bd 5659 163b
0.023038557 0.044008564 0.011334962 -0.009463288 0.037867613 0.01241574 0.031293087 0.015676156
0.005885112 0.027134774 0.032245863 0.021613218 0.038632136 0.0036179794 0.03236809 -0.006924309
0.02000363 0.0028179209 0.013823313 -0.006984211 -0.014672595 -0.0018985184 -0.006112117 -0.005786077
-0.051715467 -0.05014203 0.0029523503 0.019024402 -0.040889617 0.0022941432

hidden_layers.5.0.weight f4 [30, 30]
00000000: 187a 02bc 1596 65bd 3b8e ffbc 9792 f6bc
00000010: c78a 08be d66e 063c 5faa b23d 795a f73d
00000020: 1c99 8b3b f7a3 873c 4f67 0d3e 7532 183e
00000030: 57e9 00bd 2db5 4ebd d19c 92bd b376 ff3d
00000040: 3b6c 483d 867a 183d c3ae 253e 657d f3bc
00000050: 74d9 1cbe 57a4 d7bd f96a c63c 60c4 313c
00000060: a3b0 a2bd 2a97 cb3c 6cc3 bb3d dc5f 1e3e
00000070: 324f 09be 90c9 de3d 4735 13be 32d0 fabd
00000080: 97a1 c0bd f66a 14be 897c dc3c 8ed1 07bd
00000090: bf72 db3d 4b16 4cbd 1762 80bd 03c2 e83d
000000a0: a3b9 0e3e 7dae b7bb be6a e93d f197 51bd
000000b0: b301 313d 9125 a33d ec9f ed3d 2944 723c
000000c0: 1c8c c63d 1d58 7d3c df9d 75bd dfd5 95bd
000000d0: 4bc1 b1bc 1a30 9cbd e630 90bd 4c42 11be
000000e0: 6d84 593d bae7 0a3d 4163 32ba 1dc1 3d3d
000000f0: 0514 fa3d aee0 f73d 447d ea3d f651 1c3e
00000100: 9aac 9b3d b25e a8bd 4f9b a53c 3b9d 0ebd
00000110: e248 bcbd 5c4a e8bd ae63 acbb 284d 1abd
00000120: 637d 9ebd 01ac 71bd 5f48 603d f92a 2f3d
00000130: e51e 05bd 868a 81bd 8a9f b0bd 5af7 36bd
00000140: 9a22 e93c 81e7 9d3d 784d c33c 779f 40bd
00000150: dcd9 aa3d 7cc4 663b 9c0e b6bc 687b f1bc
00000160: 84b2 3d3d e0a0 803d c645 16bd d132 2b3e
00000170: 5d13 593b 0e9b 203e 7a2a cd3d 91ae c2bb
00000180: caf2 9a3d 0ee4 e0bb 2648 b9bd 8888 e63b
00000190: 6be1 883c ac29 67bd bbb5 a6bd f9f4 e33c
000001a0: fdbd b4bd cf33 b73d 19e9 d4bc c93e 1fbe
000001b0: ca48 80bd 9d48 9dbb 1cdc ec3d 79b7 03bd
000001c0: ef9b 2a3d e4b0 303d dc0a b23d 81cb c43c
000001d0: c68b 10bd b0b7 df3c 33a7 953d 4454 a23d
000001e0: cf95 2ebc 9edc 0c3d 3b72 5fbd 0862 313c
000001f0: 3547 8dba 6236 7d3c c82f 3ebb 70fb c9bb
00000200: d9d5 04be b816 ff3c 035b d0bc 0839 c8ba
00000210: c8c7 343d b840 0ebd f376 62bc e4a0 ad3c
00000220: 7a42 243d 3b48 24bc fb9b e63c 2f65 913d
00000230: 706a 2ebd 6986 16bd 4c93 2f3d 32c1 963d
00000240: 211d 033e 4b06 1e3d c19e 30bd c64f 453d
00000250: c6d5 e5bb 1804 673d 9ac8 d43d 5770 633b
00000260: 3fb4 9d3d fd5c 46bd 0f3b c33d edaa f03b
00000270: ba4e adbd e9bb a8bd 1809 e8bd 5920 97bd
00000280: 7533 6cbd 9fcd 6abd b9a0 ab3c 2007 a7bd
00000290: 7a3a e2bd 9cf8 073d a64c c2bd b1ec 1cbd
000002a0: 4b3f b7bc c0a5 493d 82a0 90bc a710 853c
000002b0: 3631 6fbd b7aa c93c a485 b83d a0a2 973a
000002c0: 38a1 4dbd 2b47 95bd 0de5 15bd 0e03 1c3d
000002d0: dd7a 95bd b813 463b 4590 043b 87dc d13d
000002e0: b37c bf3d 5b15 d7bd 18bd 60bc 71d4 d0bb
000002f0: eb35 6c3d e441 0fbc 3ed5 b9bd 3e22 3e3c
00000300: 5e73 dbbd e8e7 2e3c b8ef dd3c a64e c3bd
00000310: e620 e23c 9bee 93bd 8dd3 afbd 9186 ee3d
00000320: 084f 6ebb 64f0 be3c d7d1 353d 68b0 c83c
00000330: 92bc 423d 3c1e f43d 784b ac3c 08f7 503d
00000340: d000 003d 457f 27bc aac8 cf3d 75d1 743d
00000350: 36c4 fe3c cd24 cc3b c38f 01bd 460f 71bc
00000360: a5a0 bcbd 9049 22bd d9a2 afbd 17ef 1d3c
00000370: 879a 2e3d 6811 59bd 2ed3 093e a402 9bbd
00000380: 2e70 69bd 7b83 0c3e 648e 6dbd 56ab 2ebd
00000390: 4ec1 103e bacd 89bd f137 043c 5150 04bd
000003a0: da12 2fbd 6768 cd3d 4526 f93d d13a 283d
000003b0: c240 5ebd c015 2bbe df24 d53c 1594 823d
000003c0: 8b16 cfbd 5b91 f83b acaa a3bd 9c22 b0bd
000003d0: f2c9 dc3d 6c95 243c c9ef 943b 9472 a9bd
000003e0: a08c a0be 9a3a 403d 47c7 26be fbcc 82bd
000003f0: 1032 b13d ce51 e2bd d386 00bd 3b10 0dbd
-0.00796368 -0.056051333 -0.03119575 -0.030099196 -0.1333419 0.008205136 0.08723902 0.12077803
0.0042601954 0.016557677 0.1380894 0.14862998 -0.03147253 -0.05046575 -0.071588166 0.12473812
0.04893134 0.037226222 0.16179948 -0.029722879 -0.15317327 -0.10529392 0.02422093 0.010850042
-0.07943847 0.024852354 0.09168133 0.15466255 -0.13409117 0.10878289 -0.14375792 -0.12246741
-0.09405821 -0.14493927 0.026914852 -0.03315883 0.107152455 -0.049825948 -0.06268709 0.1136513
0.13938002 -0.0056055174 0.113973126 -0.051170293 0.04321451 0.079661496 0.11602768 0.014786758
0.096946925 0.015462902 -0.05996501 -0.07316183 -0.021698615 -0.07626362 -0.07040577 -0.14185447
0.053104807 0.033912398 -0.0006804951 0.046326745 0.1221085 0.12103401 0.11449674 0.1526564
0.076012805 -0.08221187 0.020215658 -0.034817915 -0.09193589 -0.11342308 -0.005260906 -0.03767124
-0.07738759 -0.059001926 0.05475652 0.04276559 -0.032500166 -0.063252494 -0.0862418 -0.044669487
0.028458882 0.077101715 0.02384065 -0.047027078 0.08342335 0.0035212329 -0.022223763 -0.02947779
0.046312824 0.062806845 -0.036687635 0.16718604 0.0033123114 0.15684149 0.100178674 -0.00594122
0.075658396 -0.0068631237 -0.09046964 0.0070353188 0.01670905 -0.056436226 -0.08140131 0.027826773
-0.088253 0.089454286 -0.025990056 -0.15551294 -0.062638834 -0.004799916 0.1156542 -0.032157395
0.041652616 0.043137446 0.086934775 0.02402282 -0.03528955 0.027309269 0.07307281 0.07926229
-0.010655834 0.034390084 -0.054552298 0.010826595 -0.0010778668 0.01545486 -0.002902018 -0.006164007
-0.12972201 0.031138763 -0.025434023 -0.0015275786 0.04413584 -0.03472969 -0.013822305 0.021194883
0.04010246 -0.010026987 0.02815055 0.07099377 -0.042581975 -0.036749277 0.042865083 0.07361068
0.1280408 0.03858022 -0.04312015 0.04817178 -0.007014009 0.05640039 0.10389824 0.003470441
0.07700395 -0.048428524 0.09532749 0.0073445947 -0.084622815 -0.08238966 -0.113298595 -0.07379217
-0.05766626 -0.057325 0.020950662 -0.08155656 -0.1104631 0.033196077 -0.09487276 -0.038311664
-0.022369048 0.049230337 -0.017654661 0.016243292 -0.05839654 0.024617536 0.09009865 0.0011568852
-0.05020258 -0.07288965 -0.036595393 0.03808885 -0.07298825 0.0030224156 0.0020227593 0.102471404
0.09349956 -0.1050212 -0.013716958 -0.0063729812 0.057668608 -0.008743737 -0.09073876 0.011604844
-0.10715364 0.010675408 0.027091846 -0.095364854 0.027603578 -0.07223245 -0.08585272 0.1164676
-0.0036363024 0.023307987 0.044389572 0.02449818 0.047543116 0.11919829 0.02103208 0.051016837
0.031250775 -0.0102232145 0.101456955 0.059770066 0.03109942 0.006229973 -0.031631242 -0.014713114
-0.09210328 -0.039620936 -0.085759826 0.009639523 0.042627838 -0.052995116 0.13459465 -0.07568863
-0.05699175 0.13722031 -0.057997122 -0.042643867 0.1413624 -0.06728692 0.008069978 -0.03230316
-0.042742588 0.10029679 0.121655025 0.041071717 -0.054260977 -0.16707516 0.026018558 0.06375901
-0.101117216 0.007585687 -0.079915375 -0.08600351 0.107807055 0.010045391 0.004545186 -0.08273807
-0.31357288 0.046930887 -0.16286956 -0.06386753 0.08652127 -0.11050759 -0.03137858 -0.034439307

hidden_layers.5.0.bias f4 [30]
00000000: b07b 22bb 5921 873d e092 bbbc 5850 2cbd
00000010: 7386 c3bc 0b2d e5bc 1bf8 88bd ec29 3a3c
00000020: 4554 38bc 56fc 40bd 1da2 7aba 976f d13d
00000030: 4595 1a3b d181 b6bd 7c92 2f3d 56eb 9a3d
00000040: 50ef 8d3d 556f 8f3b a70f bb3d ccc1 c83c
00000050: 9055 6ebd fe55 433d 40a4 87bd ce1e 84bd
00000060: e1f9 893d 7b8d c5bd 90cb b33b d5c1 b73d
00000070: c267 25bd 4a61 3abb
-0.0024792962 0.065981574 -0.022897184 -0.04206881 -0.023867821 -0.02797558 -0.06687947 0.011362534
-0.01125056 -0.047115646 -0.00095609 0.10226362 0.0023587507 -0.08911479 0.042864308 0.07564418
0.06930411 0.0043772855 0.09133845 0.024506472 -0.058187068 0.04768943 -0.06623125 -0.06451188
0.06737114 -0.09646126 0.005486913 0.089725174 -0.040382154 -0.0028439336
