Neural Networks Codes/PINN/Save_models/model_PySindy_based_PINN_Channel.pth (torch, 161246 bytes, 22 tensors)

input_layer.0.weight f4 [64, 4]
000000 12 ba 6c 3c d7 83 e6 3d 04 8d d3 39 c3 8c 80 bb
       0.0144486595 0.11255615 0.0004035012 -0.00392303
000010 0d 1f 54 3d 0e 65 ba 3d 79 b8 2e bc 1b 39 b1 3c
       0.051787425 0.09101306 -0.010664099 0.021633675
000020 77 70 9a 3b c4 89 16 bb 79 c9 05 bc 9a 83 b2 3c
       0.004713114 -0.0022970298 -0.008165711 0.021791268
000030 91 2c 90 3d e9 63 ab 3c cf 2b 6a 3e fc fb d0 39
       0.0703975 0.020921664 0.22868274 0.00039860595
000040 a1 ee a6 3c f2 bd 6e bd ca 59 bf 37 f1 97 06 ba
       0.020377459 -0.058286615 2.2810786e-05 -0.00051343354
000050 64 8f db 38 ec a6 0c bb 0a 29 86 3a a7 c6 ab bc
       0.00010469442 -0.0021461798 0.0010235619 -0.020968748
000060 9b 48 11 39 dd 57 ab 3b cc c3 ae 3e 68 53 06 be
       0.00013855325 0.00522898 0.34133756 -0.13117754
000070 fd 53 ea bd 29 68 64 bd 66 e2 15 bc e0 fb 93 3c
       -0.11441801 -0.055763397 -0.009148216 0.01806444
000080 28 07 ac 38 d5 c9 fe 39 70 f3 e3 3a c9 c0 af 3c
       8.202932e-05 0.00048597032 0.0017391276 0.021454232
000090 50 9e 69 b6 dd 8e ba 39 85 aa 2f 3e c3 43 3b be
       -3.4811856e-06 0.00035583126 0.17154892 -0.18287568
0000a0 99 9e 96 bd 90 3d 2d 3f a9 d3 59 3e ae 7c d8 be
       -0.07354469 0.6767206 0.21272148 -0.42282623
0000b0 b7 24 73 39 7c 8f 9d bc 51 71 7c be 92 e1 d2 3e
       0.00023187963 -0.019233458 -0.24652602 0.41187721
0000c0 4b 77 54 b8 a0 2f de 39 ca 03 38 bb 1d fb bc bc
       -5.065584e-05 0.00042378623 -0.002807843 -0.023068959
0000d0 5e 30 1d bd 94 84 fc 3c 71 f5 f2 3b 86 c5 77 bc
       -0.038376205 0.030824937 0.007414513 -0.015122777
0000e0 94 fd c0 b8 b4 f3 46 ba cf 47 9b bb cb 79 9d bc
       -9.202506e-05 -0.0007589415 -0.004738785 -0.019223114
0000f0 74 fe 4a 38 d4 48 54 39 c6 c6 89 3b 98 4b bb 3c
       4.839753e-05 0.00020245026 0.004204604 0.022863194
000100 4a e9 1a b9 74 23 d8 bc 95 18 89 3e e3 90 84 bd
       -0.00014773491 -0.026384093 0.26776567 -0.064729474
000110 2f 4b 33 b9 e3 5a 7d 3b 14 99 b6 3e 98 3d 83 be
       -0.00017098778 0.003865891 0.35663664 -0.2563293
000120 6d 15 a3 37 39 8c 35 39 91 9a 74 3b 0d 53 a7 3c
       1.9441091e-05 0.00017313742 0.0037323574 0.020425344
000130 70 8e ad b9 07 0a b4 3c f9 78 60 3e cd d3 a3 be
       -0.00033103256 0.021977438 0.21921147 -0.3199753
000140 eb 52 aa 3a 63 41 d0 bb 48 85 e9 3d 6c 55 5f be
       0.0012994682 -0.006355451 0.114023745 -0.2180993
000150 46 6f ee 3a 7b 46 6f bd 53 60 4f 3e 4b d4 be be
       0.0018191121 -0.058416825 0.20251589 -0.37271342
000160 53 34 18 3d fa 79 93 3c e4 e3 20 bc b1 ca bd 3c
       0.037159275 0.018002499 -0.009819958 0.02316794
000170 00 63 47 bc 4f f9 44 ba 99 15 e5 3b 29 08 6d bc
       -0.0121695995 -0.00075139565 0.0069911 -0.014467278
000180 49 70 0d bc 37 e4 93 3b 7f fa 21 3c 4d 9e c5 bc
       -0.008632728 0.0045132893 0.009886383 -0.024123335
000190 31 21 fb bc 30 37 b2 3d 5d 41 4a 3d 28 9d 55 b8
       -0.030655475 0.087019324 0.04937874 -5.092952e-05
0001a0 d5 40 23 3b ce 14 21 3b c6 65 ac be ab 98 d6 3d
       0.002491047 0.002457905 -0.33671397 0.10478338
0001b0 d4 eb 81 3d e0 87 38 3e 15 a9 36 3c ff 51 bc bc
       0.06343809 0.18020582 0.011148711 -0.022988318
0001c0 39 21 1d bb 2e cd 93 bd 73 d2 b9 3e 6a ab 84 bd
       -0.00239761 -0.07216869 0.36293373 -0.06478007
0001d0 af e4 85 be 77 e8 85 bc fa 8b 98 be 2d fa 8d bb
       -0.26151034 -0.0163462 -0.29794294 -0.004332802
0001e0 e4 6d bb 3d 2e fd 33 3c e3 04 80 bd 84 85 90 38
       0.09151819 0.010985656 -0.06250932 6.891324e-05
0001f0 32 12 a7 3a 6f cc a4 bb ba 59 a2 bb ca 65 97 bc
       0.0012746511 -0.005029253 -0.004954544 -0.018481154
000200 9d ac b9 3c 49 52 30 bc 26 a3 cf bd 2a 66 d6 38
       0.022665316 -0.010761806 -0.1013854 0.00010223345
000210 f8 75 a2 bb 2b cf 27 3e 77 01 97 bd 4b f5 06 39
       -0.0049579106 0.16387622 -0.07373326 0.00012870615
000220 37 a0 a4 3d 41 22 95 bc 68 16 1b bd be 20 e5 37
       0.08038371 -0.01820481 -0.037863165 2.7314174e-05
000230 79 e5 62 ba 47 ef 09 bd 33 43 99 3e 65 ea 10 bd
       -0.000865541 -0.03367546 0.2993408 -0.035379786
000240 67 59 95 ba ac 20 7a ba 58 34 4e ba f3 29 86 3c
       -0.0011394442 -0.00095416117 -0.0007866076 0.016377425
000250 04 34 0e bd 09 c4 95 3c da 32 28 3d 72 8b 54 b8
       -0.034717575 0.018281953 0.04106412 -5.0674607e-05
000260 16 1a 87 39 3e 12 1b 3c 7f f2 64 3e 64 5d d5 bd
       0.00025768642 0.0094647985 0.2235813 -0.104182035
000270 09 71 50 3d 20 ff af b9 fd 00 99 bc b7 ac 50 bc
       0.05088905 -0.00033568684 -0.018677229 -0.012736491
000280 62 bd 10 3a 4b 6f ad 3a 9f f1 47 3c 32 4e 96 3c
       0.00055213843 0.001323202 0.012203603 0.018347833
000290 a3 30 4d 3e 30 b2 56 3d 5d b6 d5 bd 0d 63 04 39
       0.20038085 0.052416027 -0.10435174 0.000126254
0002a0 77 4d c0 37 ee de 84 b8 1e ad 59 3b 3f 41 ae 3c
       2.2924256e-05 -6.3357744e-05 0.0033214758 0.021271346
0002b0 34 45 eb 39 a0 b2 09 bd 3f f6 68 be 5e f2 b6 3e
       0.00044874253 -0.033617616 -0.22750185 0.35731786
0002c0 0e 11 fa b9 c0 eb 37 bc ff d5 a0 3b 54 03 39 3c
       -0.00047696423 -0.011225641 0.004908323 0.011292297
0002d0 a5 2a 86 bc d1 f5 15 be 8b b0 1c be 4c 36 08 3c
       -0.016377756 -0.14644553 -0.15301721 0.008313727
0002e0 b1 62 98 39 98 cb 0c bc 0f 49 b3 be 38 42 f0 3e
       0.0002906523 -0.008593462 -0.35016677 0.4692552
0002f0 47 7a 03 b9 d1 e8 d9 bb 88 d2 eb be f6 96 94 3e
       -0.00012538685 -0.0066500683 -0.4605906 0.29021424
000300 21 7e 93 3d 00 4a aa 3c 0b 9b 32 bc be 44 0d b9
       0.072017916 0.02078724 -0.010901223 -0.00013472416
000310 b7 3b 11 bd b2 8c 58 be ae 4c e0 3b c7 f3 5c bc
       -0.03545734 -0.21147421 0.0068450784 -0.013485855
000320 05 84 1a be cb ba b7 bc 18 1e 0f bd f5 33 33 38
       -0.15089424 -0.022427937 -0.03494081 4.2725314e-05
000330 28 2a 4f b9 95 26 8a bc 68 f9 93 bd 89 fa 75 3d
       -0.00019756763 -0.0168641 -0.07225305 0.060053382
000340 32 b8 42 38 1b cc ca 39 dc 38 87 3b e7 6e be 3c
       4.642475e-05 0.00038680513 0.004126651 0.023246242
000350 65 04 ce 38 13 e3 65 3b 5b 1a c3 3e 38 44 56 be
       9.823664e-05 0.0035077974 0.38106045 -0.20924461
000360 98 40 d1 bc 08 dd 2e bd 40 a1 19 3c 4a be 9b bc
       -0.025543496 -0.04269126 0.009376824 -0.019011635
000370 e0 f6 8b 3d 52 23 e1 bc d3 b0 69 bd 14 b8 b4 38
       0.06834197 -0.027482662 -0.0570534 8.617356e-05
000380 df 75 d5 37 4d fa e5 3a 4a 14 aa 3e b6 17 ce be
       2.5446467e-05 0.0017545909 0.33218604 -0.40252465
000390 0b 41 b2 b6 34 01 d2 38 76 13 26 ba 2e 5e 95 bc
       -5.3123854e-06 0.000100138044 -0.00063352974 -0.018233385
0003a0 57 d3 cf 39 10 5d af b9 41 99 9e bb e0 c9 a0 bc
       0.00039639577 -0.00033447938 -0.0048400466 -0.019627512
0003b0 51 4e 68 bc 9d 5d 0a bd 75 70 0b 3c 52 c7 8d bc
       -0.014178828 -0.033780683 0.008510699 -0.017306957
0003c0 00 55 c2 b7 03 33 ce b9 74 94 3e bb bb 9f a8 bc
       -2.3166183e-05 -0.00039329389 -0.0029080184 -0.020583978
0003d0 f9 d4 a1 3d 47 dc 4e 3e 18 20 1e bd ba 76 15 b8
       0.079019494 0.20201217 -0.038604826 -3.563494e-05
0003e0 1b 4e 3f ba 33 5a 7d 3d 2d fe 46 be ed 17 af 3e
       -0.00072977104 0.0618536 -0.19432898 0.3419794
0003f0 91 15 88 3a 48 f5 ad 3a 66 32 4b ba a8 1a 82 bc
       0.0010382404 0.0013271952 -0.00077513454 -0.015881851

input_layer.0.bias f4 [64]
000000 19 14 f2 3b f8 ae e5 bc 69 f1 69 b9 8e 7c 21 bd
       0.0073876497 -0.028037533 -0.00022310544 -0.039425425
000010 90 88 12 3e 6c c8 1c b8 8c 4e ea 39 97 c1 d8 3c
       0.14309907 -3.7379956e-05 0.0004469048 0.026459498
000020 71 7a b7 37 45 b0 86 39 43 a7 0e 3d 9c 9d 1a bb
       2.1872316e-05 0.00025689803 0.034827482 -0.0023592478
000030 e3 92 2e b7 62 81 18 3c 71 17 35 b8 95 eb e3 b7
       -1.0405408e-05 0.009308191 -4.3175594e-05 -2.717021e-05
000040 64 19 0c ba 1c e3 2e 3a d7 63 69 37 fc 4d 19 3b
       -0.00053443597 0.0006671415 1.3911128e-05 0.002339243
000050 ff 17 9d bb 41 66 c0 bb 0b a3 83 bb bd 2e e2 3b
       -0.0047941203 -0.0058715646 -0.004017239 0.0069025443
000060 f3 ab ba 3a cc 11 89 3a db 70 3e 39 87 22 d5 3c
       0.0014241919 0.0010457574 0.00018161854 0.02601744
000070 2b 6e 70 bb b9 7d 44 3d ea 53 20 3d c1 b3 5e ba
       -0.003668676 0.04797146 0.039142527 -0.00084954133
000080 2e 0a 55 3a 7b 13 a0 3b 4f cf 02 3d 7b ec e8 ba
       0.0008126822 0.0048851348 0.031935986 -0.0017770672
000090 dd 70 a1 b8 7f 42 46 bc 5d 3c 63 3a c5 08 c1 ba
       -7.698101e-05 -0.012100815 0.00086683576 -0.0014727345
0000a0 f0 60 c4 38 0a 9f c3 3c e7 b3 4f 37 a8 6b 3b bb
       9.364064e-05 0.023879547 1.2380048e-05 -0.0028598104
0000b0 0e 39 b6 b7 2e db 06 bc 63 7f 8e ba d4 e4 65 ba
       -2.1722659e-05 -0.008230967 -0.0010871704 -0.0008769755
0000c0 48 69 3c 3d f4 a6 94 3d 69 eb 4a 3d 11 84 2c bb
       0.04599884 0.07258406 0.04954091 -0.0026323835
0000d0 33 d8 e7 37 0d 59 df 39 86 bc c7 3b 4e 10 6d 3c
       2.7638021e-05 0.00042600223 0.006095472 0.014469219
0000e0 90 58 b8 39 64 3f 1b 38 6a 1e 46 b7 c5 10 8f 3b
       0.000351612 3.7013917e-05 -1.1808801e-05 0.0043660128
0000f0 00 6c cc b7 1c 64 84 3e e3 15 00 3b f9 dd f9 37
       -2.4368986e-05 0.25857627 0.0019544296 2.9786477e-05

hidden_layers.0.0.weight f4 [64, 64]
000000 76 f7 01 bd 12 0b 07 3d 35 70 49 bd d0 62 11 3d
       -0.031730138 0.03296954 -0.049179275 0.035494626
000010 cc 18 f5 bc b8 1a 48 3d 82 8c 5e 3c ae 1d a3 bb
       -0.02991905 0.048853606 0.013583304 -0.0049779033
000020 92 a0 02 bd 78 f2 b4 bd 6d b6 24 bd 08 ca 0a 3d
       -0.031891413 -0.0883531 -0.040213037 0.03388408
000030 7a 2a a5 bd bc 1f af bd 98 6d 65 3d 6c b8 2f bd
       -0.080647424 -0.08550975 0.05601272 -0.042900488
000040 95 e8 8e bd df 38 d0 3d de 38 33 bd ec 7b 32 3d
       -0.06977955 0.10167097 -0.043755405 0.043575212
000050 70 68 06 3d 91 b6 9f bc 1c 9a 93 bd d0 d8 a0 3c
       0.032814443 -0.019496234 -0.072071284 0.019634634
000060 7a e3 9c 3d f2 6a 0f bd 4e 03 55 3c 33 67 54 3a
       0.07660575 -0.0350141 0.013001276 0.0008102536
000070 f7 79 85 bc aa ef fc 36 ab 4c 80 bc 1f 1c 77 bd
       -0.016293509 7.538086e-06 -0.015661558 -0.060329553
000080 f3 5a ea 3c 11 4d b7 3d 38 32 57 bc bd ba d7 3d
       0.028607821 0.08950246 -0.013134532 0.105336644
000090 fa 7c b3 3d b5 3a a7 bd c6 a4 e1 3d 90 33 a8 bd
       0.08764072 -0.08165494 0.11017756 -0.0821296
0000a0 cf 5f ae 3d 64 7b 0b bd 78 91 ac 3c c4 c7 df 3c
       0.08514368 -0.03405322 0.021065459 0.027316935
0000b0 30 39 77 3b b8 76 b5 bc 5e 3c 50 bd ed 23 7c 3b
       0.0037723295 -0.022151336 -0.05083882 0.0038473562
0000c0 40 93 54 bd 29 56 fe bc 56 86 a4 3d ae be 39 bd
       -0.05189824 -0.031046944 0.08033435 -0.045347862
0000d0 04 b2 98 3c ba 7b d2 3c 62 78 87 3d 81 b4 ba 3d
       0.018639572 0.025693763 0.06614758 0.0911646
0000e0 77 a8 68 3d ad c9 10 bb c1 43 cf bd ef 57 d2 bd
       0.056801286 -0.0022092864 -0.10120345 -0.10270678
0000f0 5a c1 84 3d cf ca 96 3d 76 21 c8 3d 2c 92 15 3d
       0.064821914 0.073629014 0.09772007 0.036516353
000100 8d c0 2c 3d 7a 4b d9 3b c4 41 73 3d 8a b5 d1 3d
       0.04217582 0.006631312 0.05938889 0.10239704
000110 dd 1e 15 3d b6 d2 e1 bc 6e 9d 5c bc 3d 7c 9e 3d
       0.036406387 -0.027566295 -0.013465269 0.0773854
000120 cf a8 48 3c dd ed 45 3d b4 f0 bf bc a1 6a 4d bd
       0.012247278 0.048322547 -0.023430206 -0.050150517
000130 bb a8 5d 3c ba f5 df bd e6 50 df 3d b5 6d be bd
       0.013528998 -0.109355405 0.10904102 -0.09298269
000140 ae b4 a9 3d e5 d2 4b 3d 5f 49 14 3c 87 ae a4 3d
       0.08286415 0.04976167 0.009050696 0.08041101
000150 82 db b8 bc ba 6b 01 3d ae 53 ec bd b3 a9 d0 bd
       -0.022565607 0.031596877 -0.11539398 -0.101886176
000160 ee 32 d3 bd 5c 79 40 3d 02 fb c2 3d 41 0b 07 3d
       -0.103124484 0.046990737 0.09520532 0.032969717
000170 27 8c 73 bd e7 51 c4 3b 10 f3 c6 bd 76 02 23 3d
       -0.05945983 0.005991209 -0.09714329 0.03979727
000180 cd 71 f6 3b bf 27 9e ba 57 0a db 3d fa 3e 2c 3d
       0.0075208903 -0.0012066289 0.106953315 0.042052247
000190 bb 95 9b bd 10 87 ae 3d 14 45 80 3d 06 60 20 bd
       -0.07596918 0.08521855 0.062631756 -0.039154075
0001a0 b9 da 77 bb 18 ee 44 3d 9d 3e 3d bd b9 75 42 3d
       -0.0037819578 0.048078626 -0.04620229 0.04747555
0001b0 55 15 bb 3d 59 b3 d4 3d 5a 80 ac bd 4b 4f 2c bd
       0.09134928 0.1038577 -0.084229186 -0.042067807
0001c0 2a 8b 7d bd cc 3d 02 bd d5 42 3c 3d 7a aa 1e bd
       -0.061900295 -0.031797215 0.045962173 -0.038736798
0001d0 b1 0c 22 3d a7 00 80 3c a1 f5 56 3d 54 cd 48 bd
       0.039562885 0.015625311 0.052480344 -0.04902394
0001e0 33 e6 85 3c 2d 3e d6 bd 2a 39 9a 3d 7d ef 8d 3d
       0.01634512 -0.10461078 0.075304344 0.069304444
0001f0 6b 33 9c 3c fd 8e 47 3c 9d 88 85 3d 2e b2 7e 3d
       0.019067487 0.012180087 0.065201975 0.062181644
000200 2b fc ed 3d 3b 86 76 3d b1 2d ca bd 8c 47 aa 3d
       0.11620363 0.060186606 -0.09871996 0.08314428
000210 cb ba 8e bd 4c 9f d7 bc 7a 7d a1 3d 0d 03 9c 3d
       -0.06969222 -0.026321076 0.07885261 0.076177694
000220 82 a1 8f bd 30 3e 82 3d 4f c7 58 3d 88 aa 44 bd
       -0.07013227 0.063595176 0.05292445 -0.048014194
000230 d7 19 69 bd 4b 1c 98 bd 6c 86 76 3d 86 d7 89 bc
       -0.05690941 -0.074272715 0.06018679 -0.016826402
000240 f9 13 a8 bd 3e 12 84 bd 6a 1f b5 3d 2c 14 a1 bc
       -0.082069345 -0.06448792 0.088438824 -0.019662939
000250 bc 73 77 3d 2d 13 68 bd ec 69 26 bd b2 59 46 3a
       0.060413107 -0.056658912 -0.04062836 0.0007566466
000260 ba dd c1 bc bc 8c ae 3d 25 52 fc bc de 44 0d 3e
       -0.023665298 0.08522937 -0.030800888 0.13795802
000270 3b 3b 69 bc bd d0 c9 3d 6e f1 09 bd 13 f9 ef 3a
       -0.014235313 0.09854267 -0.03367751 0.0018308483
000280 4d c6 cf bd 1f 09 9d 3d f8 97 a4 3d 82 f3 9c 3d
       -0.10145245 0.07667755 0.08036798 0.07663633
000290 54 d2 b1 bd 10 7e 40 bd 1f 38 48 bb 21 fe 69 3d
       -0.08682695 -0.046995223 -0.003055103 0.05712712
0002a0 cc 4e 1f bd 14 ad b2 bd cb 3f c8 bd f3 a6 8f bc
       -0.038893506 -0.08724418 -0.097777925 -0.017535662
0002b0 19 87 cb bd f1 f9 fa bc 7d ab b5 3d df 23 c5 bc
       -0.09937877 -0.03063676 0.088705994 -0.024064956
0002c0 d0 ab e7 3c 9f 87 4d bd ac 89 cf bd 7d 91 1c bd
       0.028280169 -0.050178166 -0.10133681 -0.038224686
0002d0 9a 9c d3 bd e5 62 b0 3d be 76 8a 3d 1a 4f a0 bc
       -0.10332604 0.08612613 0.067609295 -0.019568969
0002e0 65 a8 28 bd 94 cf b3 bd 92 81 ab bd 91 5a c4 bc
       -0.04117622 -0.08779827 -0.08374323 -0.023968967
0002f0 22 a7 55 bd 0b d4 34 3d d5 64 6e bc 2e 1d c2 bd
       -0.052161343 0.044147532 -0.014550407 -0.09478222
000300 5d ff 9d bd e8 c5 04 3d c8 1c 3f 3c 1a fb bf bd
       -0.07714722 0.0324153 0.011664577 -0.09374066
000310 0e db b6 3d fe a8 c6 bd c1 6f 02 ba 84 e2 1d bd
       0.089285 -0.097002015 -0.0004975759 -0.0385461
000320 db dc 11 3d 43 76 f6 3c ac 02 6b 3d 0c 44 1e 3d
       0.035611015 0.030085688 0.057375595 0.038639113
000330 9a bd 64 3c c5 9d aa 3d 6e 32 b6 bd aa 32 c3 3d
       0.01396122 0.083308734 -0.088963374 0.09531148
000340 76 eb 43 3d 71 22 4c bc c8 d0 80 3d 0f 52 da 3d
       0.047831975 -0.012459383 0.06289822 0.10660183
000350 c7 21 36 bd 3e de e8 ba fd fe 63 3b 97 4d 12 bd
       -0.044465806 -0.0017766429 0.0034789436 -0.035718527
000360 0d 19 76 bd 8a 8f 8f 3d df 53 74 3c 87 e2 92 3d
       -0.060082484 0.070098 0.014912575 0.07172113
000370 fa 78 5f bd d9 4c b9 3d 52 a4 58 3b 82 7a d6 3b
       -0.05455873 0.09047861 0.0033056927 0.006545366
000380 29 41 90 bd a5 ae 3c 3d 07 2b bd bc 7b 96 09 3d
       -0.07043678 0.04606499 -0.023091806 0.033590775
000390 86 0d f1 3c 6e a5 c8 bd 43 c3 8e 3d c2 da 8a 3b
       0.029425394 -0.09797178 0.06970837 0.0042375037
0003a0 d8 5e d1 bc 1b 32 e9 bd 84 7c a8 bd f4 ed 92 b6
       -0.02555792 -0.1138651 -0.082268745 -4.3788405e-06
0003b0 7e e7 e3 bc a6 0f bd bd e1 c5 05 bb 94 ad 70 3d
       -0.027820345 -0.092315 -0.0020412134 0.058759287
0003c0 ad ad 5f 3c 11 24 71 3d 6b ff a9 bc 51 20 3c 3d
       0.013652247 0.058872286 -0.020751676 0.045929257
0003d0 a3 21 37 bd 18 9e 1b bd 79 84 f7 3c 90 1d 18 3d
       -0.044709813 -0.037992567 0.030214535 0.037137568
0003e0 f2 4b d1 3b 57 b1 04 bb 1e 3a 99 bd f3 b8 ab bd
       0.006387227 -0.0020247304 -0.07481788 -0.08384886
0003f0 a4 8a 09 3d 7f 47 7f 3d bd d8 d2 3d ab 5a 3a 3b
       0.033579484 0.062324043 0.10295246 0.002843539

hidden_layers.0.0.bias f4 [64]
000000 0e d9 b3 3a 0c 93 37 bd e5 d1 0f bc 72 92 13 bb
       0.0013721304 -0.04481797 -0.00877807 -0.0022517708
000010 e7 db 86 3b 53 2e 7f bb 51 eb 52 3c 5b e1 26 3c
       0.00411557 -0.0038937523 0.012873487 0.010185565
000020 6e 06 d8 bc 25 8a 99 3b 63 2c db bc 22 35 30 3b
       -0.026370253 0.0046856576 -0.026754564 0.0026887138
000030 24 e4 63 bd 9b fd ea 3c 5b f1 5b ba 5d 92 c5 bc
       -0.055637494 0.028685382 -0.0008390152 -0.024117643
000040 35 98 52 3d 3f 49 32 3c 18 ea 77 3b dc 13 93 3b
       0.051414687 0.010881721 0.003782874 0.0044884514
000050 a2 3d 2e ba eb b5 2a ba ea 3e 59 bc d3 99 4a 3c
       -0.0006646757 -0.0006512093 -0.013259629 0.012365776
000060 84 34 29 3b 6d 33 80 3c 5f d9 3a bc 24 33 dd b9
       0.0025818655 0.015649522 -0.011404364 -0.00042190508
000070 55 b0 dc 3b d0 8c 1d bd 5d fb c3 3c 61 3b 10 bd
       0.0067348876 -0.038464367 0.02392357 -0.03521288
000080 9e ba f3 3c 8a 00 9b bc fe ef 19 bd d4 53 2b 3c
       0.029752072 -0.018921155 -0.03758239 0.010456998
000090 da d2 16 3b f5 3a 16 bd 46 43 22 3c 1f 9a 8f 3b
       0.002301386 -0.03667732 0.009903735 0.0043823863
0000a0 91 b5 8e 3c 7e 55 0f 3c c9 2c 94 bb d5 e6 be 3b
       0.017420562 0.00874841 -0.0045219404 0.005825857
0000b0 05 a1 11 bc 49 b5 91 3a 10 f7 d8 39 06 7b e8 3b
       -0.008888488 0.0011116649 0.00041382806 0.0070947437
0000c0 84 03 1f bb ec 0e bc bb 2f e0 47 3d 5c 33 3d bc
       -0.002426357 -0.0057390835 0.048797783 -0.01154789
0000d0 e5 00 3c 3d 98 5c e2 bb 77 46 58 3b e0 c5 5d bb
       0.04589929 -0.0069080107 0.0033000985 -0.0033839867
0000e0 ab c2 80 3b f6 a0 17 3c a8 2f 9c 39 03 2c b9 3c
       0.003929456 0.009254685 0.00029790145 0.022603994
0000f0 97 52 05 3b 1f 91 96 3c 0e b6 d7 3b 70 5c 1b 3c
       0.0020343417 0.018379746 0.006582982 0.009482488

hidden_layers.1.0.weight f4 [64, 64]
000000 63 0b d2 3d 9a 8e c9 bd 0b 61 04 bd dd 85 25 bd
       0.10256078 -0.09841652 -0.03231911 -0.040410865
000010 e0 5b 22 3d d6 50 62 bd bd f2 63 3d 9f e8 bc 3c
       0.0396384 -0.055252872 0.055651415 0.023060141
000020 f6 9b f3 3d 39 99 da 3d 08 e5 d1 3d a1 b8 d3 3d
       0.118949816 0.10673756 0.10248762 0.103379495
000030 18 00 65 3d 99 37 b0 bc c6 74 9e 3d f9 d5 d0 bc
       0.055908293 -0.021510886 0.077371165 -0.025492655
000040 8e 12 3d 3d 9f 7c 58 bd fd d7 53 3d e2 40 9a bd
       0.046160273 -0.052853223 0.051719654 -0.07531907
000050 00 01 e4 bd b2 30 69 bb e3 ba 34 bd da 46 f2 bc
       -0.11133003 -0.0035582003 -0.04412354 -0.0295748
000060 62 ee 29 3d 44 0b 52 3d 65 6e ee bd b8 7c 55 bd
       0.041487105 0.051280275 -0.1164215 -0.052120894
000070 e5 84 2c bd 67 ad bf 3d a4 ad 94 3d dc c2 2c bd
       -0.042118926 0.09359246 0.07259682 -0.04217802
000080 51 19 2e bd a5 0c e6 3c e3 a1 35 bd 4d bf 8d 3d
       -0.042504612 0.028082201 -0.04434384 0.06921253
000090 98 bc a4 bd 4a aa b2 3d 49 f2 78 bd 48 f1 95 bd
       -0.08043784 0.08723886 -0.060777936 -0.07321411
0000a0 22 f6 99 3d 46 43 26 bd 5f 6d 64 3d 6a e2 09 bc
       0.07517649 -0.0405915 0.055768367 -0.008415798
0000b0 dc 2a 4c bd 7b ee bc 3c 6e 1a f0 3c bd 37 62 bc
       -0.04984556 0.023062935 0.029309478 -0.013807234
0000c0 69 69 11 ba c8 71 8a 3d 63 01 93 3d 70 17 b0 bd
       -0.00055470184 0.06759983 0.07177999 -0.0859822
0000d0 ee a5 d9 3c ab 87 a7 bc b3 7d d1 bd 34 75 ce bd
       0.02656838 -0.020450434 -0.10229053 -0.100809485
0000e0 68 20 4c 3d 63 28 c7 bd 12 77 8d bd c2 95 30 3d
       0.049835593 -0.097245 -0.069074765 0.04311157
0000f0 cf a0 8f bd 0d 9e be 3d 93 e9 86 3d d2 ef d4 3d
       -0.07013094 0.093074895 0.065875195 0.103973046
000100 38 24 bf bd 7c ff 5d 3d dd 00 e1 bc 46 25 69 3d
       -0.0933308 0.054198727 -0.027466232 0.056920312
000110 85 12 5f bb 9e 0d 82 bd 42 22 ac 3d 45 0b 8f 3c
       -0.0034038138 -0.063502535 0.08404972 0.017461428
000120 16 b0 b7 3d 10 bb 68 3c 7c 38 0e 3c 8f 77 8a 3c
       0.089691326 0.014204755 0.008680459 0.016902713
000130 be cc 82 bd 03 09 54 bd 66 16 8c bd 1f 83 37 bd
       -0.06386708 -0.051766407 -0.0684021 -0.04480278
000140 5a 65 53 bd 89 eb a0 3d 3c 55 be 3c b7 eb 97 bc
       -0.05161033 0.07857425 0.023234002 -0.018545015
000150 d5 34 20 3d ca a5 29 bb e9 dd 86 bc f9 39 8b 3d
       0.039112885 -0.0025886171 -0.016463237 0.06798167
000160 4f 7d c8 bd 7c 70 c5 bc 8e a9 98 bd 7a e3 0d bc
       -0.09789526 -0.024101488 -0.07454215 -0.008660192
000170 21 ed ce 3d 25 aa 24 bd 3f 48 39 3c da b8 8a bd
       0.101038225 -0.040201325 0.011308729 -0.06773539
000180 69 39 9a bc 1a 21 db 3c 36 c1 c9 bd b3 68 92 3c
       -0.018826203 0.026749182 -0.09851305 0.01787219
000190 b6 25 bf bd 07 cf 04 3d 41 33 25 bd 1a e1 c0 3d
       -0.09333365 0.032424 -0.040332083 0.09417935
0001a0 78 1b 3d bc 0e 0c 6b bd fe 57 96 bd 3d 3c 87 3d
       -0.011542194 -0.057384543 -0.07341002 0.066032864
0001b0 9c 16 c9 bd 5d 50 12 3d da 23 8b 3d 33 b8 08 3d
       -0.098187655 0.03572117 0.067939475 0.03337879
0001c0 b5 69 f8 bb f8 45 19 bd fe 0a 1f 3d fe 98 b5 bd
       -0.0075809606 -0.037420243 0.038828842 -0.088670716
0001d0 25 fa 36 3d 28 63 1f 3d 03 16 0f 3d 1d ec e0 bd
       0.04467215 0.038912922 0.0349331 -0.10982535
0001e0 62 7c 71 bd 2d ec cd 3d eb 77 75 bd 65 17 ad 3d
       -0.05895651 0.100548126 -0.059928816 0.08451728
0001f0 5c 4d 46 bd d8 b1 00 3e c6 34 4a bc 71 90 a0 bd
       -0.04841362 0.12567842 -0.012341684 -0.0784005
000200 37 75 c7 bd db b7 c2 3a aa 98 89 bd 99 a2 bb bd
       -0.09739154 0.0014855819 -0.067185715 -0.091618724
000210 27 cd 5d 3d fb 8c 82 3c 0a 11 83 bd cb 5f cd bc
       0.054150727 0.015936365 -0.06399734 -0.025070092
000220 28 c9 8a bc f8 76 a1 3d b8 ba 94 bd 54 84 08 bd
       -0.016941622 0.078840196 -0.07262176 -0.033329323
000230 55 ca ca bd 57 d3 d5 3c 12 f3 51 bc 37 7d 3e bd
       -0.09901873 0.026101751 -0.0128143 -0.046506133
000240 c1 94 2e bd 1c 37 46 3d 9d b2 1a bd 69 3b d1 bd
       -0.04262233 0.0483924 -0.037767995 -0.1021641
000250 bd 4c 8a 3d 8f 1d 08 bd 17 46 e9 3b 8e 76 61 bb
       0.06752918 -0.033231314 0.007118951 -0.003440294
000260 5a bd 0a bc fa 0f d9 bd 35 79 3c 3d 63 89 87 3d
       -0.0084679965 -0.105987504 0.04601403 0.06618001
000270 3b db 89 bd f4 89 57 bd bb 92 af bc 38 a4 9e 3d
       -0.06731268 -0.052621797 -0.021432271 0.07746166
000280 99 51 aa 3d 25 da a6 bc 0a f7 b9 3d 7f e6 32 3d
       0.08316345 -0.020367691 0.09080322 0.04367685
000290 3a b2 05 3d 4f bb 03 3d 0e 9f 94 3d 32 20 e0 3d
       0.032640673 0.032161053 0.072569 0.10943641
0002a0 dc ea 48 bc e5 1c e2 3c 04 8e af bd 9e 8d 51 3d
       -0.012263026 0.027601669 -0.08572009 0.051160447
0002b0 30 9c ce 3d d5 10 9c bd 15 6e a6 3d 71 4e a2 bc
       0.10088384 -0.07620398 0.08126465 -0.019812794
0002c0 52 60 12 bd f1 5d ce bd cc a1 95 bd ac 30 ef bc
       -0.03573639 -0.10076512 -0.07306251 -0.029198013
0002d0 7e 5d 67 3d 06 53 d5 bc 7b dd 95 bd 1d 48 62 3d
       0.056485645 -0.026040565 -0.07317635 0.055244554
0002e0 fb dc 6e bd 62 73 d8 bc 72 fa 6b bd 4c 37 e8 bd
       -0.058316212 -0.026422206 -0.05761189 -0.11338672
0002f0 2b 63 a5 3c b1 f4 8d bd a5 f9 f9 3d 81 2e 53 bc
       0.020188889 -0.06931437 0.12205819 -0.012889505
000300 3b 3f 5d bb 88 b8 6a 3c fe 5c 13 bd 20 ce 06 bc
       -0.0033759612 0.014326222 -0.035977356 -0.008227855
000310 37 3c b7 bd a4 15 81 bd 30 6f 4a bd 8f 05 23 bd
       -0.08947032 -0.06302956 -0.049422443 -0.039800223
000320 f8 bd c6 3c e8 36 51 bd 43 36 e3 bc 1f 64 32 bd
       0.024260506 -0.051077753 -0.027735835 -0.043552514
000330 e7 7d ba bd 8e 59 36 bd 0a c9 bb bc 90 37 6e bc
       -0.09106045 -0.044519 -0.022923011 -0.014539614
000340 1d d1 6a 3b 8f bb bc 3d 7d fd 61 3d a8 2f bf 3c
       0.0035830208 0.092154615 0.055173386 0.023338154
000350 81 29 5d bd 18 75 44 3d 56 2f 7d bd a4 a0 55 bd
       -0.05399466 0.04796323 -0.06181272 -0.052155152
000360 76 e3 cd 3d 92 e9 b3 3d 63 24 da 3c 90 74 54 bd
       0.1005315 0.087847844 0.026628679 -0.051868975
000370 ad a6 e3 3d b9 96 c9 bd d7 1f 9a bd 16 eb a7 3d
       0.11115775 -0.09843201 -0.07525604 0.08199136
000380 64 ea 80 3d 82 f6 56 3c e4 5a 16 bd db f6 be 3d
       0.062947065 0.0131202955 -0.036707774 0.09324428
000390 81 43 74 3d 2c dd d9 bd a5 a1 f2 3d d8 89 b1 3b
       0.05963469 -0.10637888 0.118472375 0.0054180436
0003a0 2c e6 92 bd 88 90 9b 3d c5 7e 43 bb e1 79 57 3d
       -0.07172808 0.075959265 -0.00298302 0.052606467
0003b0 d2 b1 b9 3d 8e 68 80 bd b2 49 80 3d 71 fc c7 3d
       0.0906712 -0.06269942 0.06264056 0.09764946
0003c0 5f cf 8f 3c ba 19 91 3d 6c d9 fb bc 7c d2 97 bd
       0.017554937 0.07084985 -0.030743323 -0.074131936
0003d0 72 e8 68 bd 67 ae 73 bd c0 f6 95 bd 30 57 39 3b
       -0.056862302 -0.059492495 -0.073224545 0.0028280728
0003e0 01 6a 99 bd 8b 10 b7 3d c4 0f ec bc 56 51 75 3c
       -0.07490922 0.08938702 -0.028816111 0.014973005
0003f0 3c 16 b8 3d 86 66 6f bd 0b 6c 49 3d a2 eb 08 bd
       0.08988616 -0.058447383 0.049175303 -0.033427842

hidden_layers.1.0.bias f4 [64]
000000 44 d0 a9 3c da 42 96 3c 48 21 40 3c e5 36 da 3b
       0.020729192 0.018342424 0.011726685 0.006659376
000010 fb 3c 0f 3b d2 36 93 bb 9d 8d fc 3c 66 82 8a bd
       0.0021856416 -0.004492619 0.030829245 -0.06763153
000020 4b 21 af bc 86 86 74 3b 33 2e fa bb bc c3 40 bd
       -0.02137818 0.0037311628 -0.007634902 -0.047061667
000030 b5 0a e7 bc ae 4a e6 3b 12 88 2c 3d a4 52 82 bd
       -0.028203348 0.0070279455 0.042121954 -0.06363419
000040 96 f6 a6 3c 5d 8c 79 3c d4 b9 e4 bb b5 d2 80 3a
       0.020381253 0.015231219 -0.0069801603 0.0009828421
000050 f8 d8 81 3d 22 a4 7a bb 68 cb e1 3b 7c cf 92 bc
       0.06340212 -0.0038244803 0.006890703 -0.017921202
000060 42 2f 47 3d 99 63 d3 ba 66 1f 5e bd c0 7d d2 bc
       0.048629053 -0.0016127705 -0.054229163 -0.025694728
000070 c6 7a c2 bc f2 e4 62 3d 1e a6 12 bc 53 9f 87 bd
       -0.023740184 0.05539412 -0.008950738 -0.066221856
000080 4b 32 1b bc 90 77 fc 39 7d 61 1b 3d 8d f3 77 3c
       -0.00947244 0.00048154267 0.03793477 0.015133751
000090 2a b0 3e 3d 3a 44 a7 3c 67 0d bb bc b4 73 2d 3d
       0.046554722 0.020418275 -0.02283354 0.04234667
0000a0 5b 23 0c 3d 7f 3d 30 bd 05 c8 79 3d 83 b9 db 3c
       0.034213405 -0.043027397 0.06098177 0.026821857
0000b0 3b 17 66 bc 21 89 2f 3c 02 c0 4f 3b 8a dd 40 bb
       -0.0140436245 0.010713846 0.003170014 -0.0029428923
0000c0 84 b6 4a bd 6c 82 c4 3c 88 89 90 3c 7e c2 51 3c
       -0.049490467 0.023987971 0.017643705 0.012802718
0000d0 7f c3 03 3d 78 4d 58 3d 74 cb 85 bd c1 a9 2c 3c
       0.03216886 0.052808255 -0.06532946 0.010538519
0000e0 16 3a 20 bd 39 be e8 3b a1 70 9b bb 94 ef 6f bd
       -0.039117895 0.0071027544 -0.004743651 -0.05857809
0000f0 fa d7 cf bb 20 eb 7a bc 25 b9 5b bd ca 82 84 bc
       -0.006342885 -0.015314847 -0.053643364 -0.016175646

hidden_layers.2.0.weight f4 [64, 64]
000000 4c c9 d0 bc 14 4c 9e bd 62 c1 71 3d 49 66 b1 3d
       -0.02548661 -0.077293545 0.059022315 0.086620875
000010 40 d3 ee bd c7 21 88 3a 29 80 58 ba 97 ad af bd
       -0.116613865 0.0010386043 -0.00082588434 -0.085780315
000020 e4 99 c3 3c de 80 0d bd 27 a2 f0 3b 51 cb 2b bd
       0.023877092 -0.034546725 0.007343549 -0.041941945
000030 b6 c6 7e 3d 5b 3c a1 3d eb 82 e5 bc cb 90 95 bd
       0.062201224 0.0787284 -0.028016528 -0.07303008
000040 b1 bf 17 bc 0c b9 83 3c d0 ff ab 3d ae 99 87 bd
       -0.009262011 0.016079448 0.08398402 -0.06621109
000050 da 15 16 bd 52 12 9a bd 85 81 18 3d ac af 38 3d
       -0.036641933 -0.075230256 0.037232894 0.04508941
000060 61 db a7 3d bd f0 7b bd c8 9b df ba 38 15 39 bd
       0.0819614 -0.061508883 -0.0017059976 -0.04518625
000070 da 6f 49 3d e8 a0 2b bc 49 27 28 bb b9 d5 f0 3c
       0.049178936 -0.010475375 -0.0025658181 0.029398786
000080 db df 46 bd ee 50 8e 3d c2 39 2a bd f0 f3 c3 bd
       -0.04855333 0.0694903 -0.04155899 -0.09568012
000090 ba f1 f4 3c 33 ab 37 3d 7a 8f f9 bc ea 50 a7 3d
       0.02990042 0.044841003 -0.030463923 0.0816973
0000a0 2b f5 79 ba 9b c7 9b 3d 24 11 ac 3d f1 65 2f 3d
       -0.0009535129 0.07606431 0.08401707 0.04282183
0000b0 8c b9 4e 3d e1 42 6e bd 95 84 28 bd 02 e6 d0 3c
       0.05046992 -0.05816925 -0.041142065 0.025500301
0000c0 b8 0d 35 3c 35 7f d1 3d 48 43 4c bd ce c9 f3 bc
       0.011050634 0.10229341 -0.049868852 -0.029759314
0000d0 cc bb 10 bd 51 ab 6c 3d 06 c3 5b bc 77 ef a1 3d
       -0.035335347 0.057780568 -0.013413196 0.079070024
0000e0 cd da 8c 3d 34 46 1a bc c3 21 0c 3d f3 1a 84 bd
       0.068776704 -0.009416152 0.034211885 -0.06450453
0000f0 03 34 be bc e5 fd 95 3d 47 2c 21 ba 5a 0e 94 3c
       -0.02321816 0.07323817 -0.00061482604 0.01807325
000100 78 b2 68 3d d1 ac 66 bd 3a 7b 13 3d c7 b0 dc 3c
       0.056810826 -0.056317154 0.03600619 0.026939763
000110 18 ef 1c 3d 57 82 40 3d 95 54 59 3d 4e aa 61 bc
       0.038313955 0.0469993 0.05305918 -0.013773514
000120 29 34 88 3c 87 9b 85 3c e8 fc 9a 3d 76 48 e1 bd
       0.016626434 0.016309513 0.07567769 -0.11000149
000130 c8 50 55 3d 56 54 24 3d 8f 81 87 3c 47 bb 1c 3d
       0.052078992 0.04011949 0.01654127 0.03826454
000140 fc fa 51 3d 72 3e cc 3c a7 e4 ba bd 46 6a 5a 3d
       0.051264748 0.02493212 -0.09125643 0.053324006
000150 93 f9 00 3d 62 fb 14 bd 51 c1 ec bc d8 8a c9 3d
       0.031488013 -0.03637255 -0.028900774 0.098409355
000160 4d bc af bd 33 88 3a 3c ec 7b d2 3c 32 72 63 3d
       -0.085808374 0.0113850115 0.025693856 0.055528827
000170 5a 6a 2d 3d 49 68 05 3d f6 07 5d bd 13 ef ec bc
       0.042337753 0.032570157 -0.05396267 -0.028922593
000180 69 79 87 bd 98 fc ae bd 03 97 93 3d 8b 8d a9 3d
       -0.06614954 -0.08544272 0.072065376 0.0827895
000190 3f fd 9c 39 c6 88 ae bd 46 4d c0 3d 7c 60 6c bd
       0.00029943322 -0.08522181 0.09389739 -0.057709202
0001a0 af ed aa bd 3f b3 1b bd d8 cd 9f bd 39 3d 8e 3d
       -0.08346116 -0.03801274 -0.078029335 0.06945271
0001b0 03 3e 08 bc 9c ac 06 bc 92 d1 88 3c 5f 45 99 bd
       -0.008315566 -0.008219864 0.016701493 -0.074839346
0001c0 95 fc 49 3c 88 ed b1 3d be 6d 72 3d 9f fc cf 3d
       0.012328287 0.086878836 0.05918669 0.101556055
0001d0 46 fe 84 bd 06 46 ef 3c 76 d9 96 3d a5 5a ac bd
       -0.06493811 0.029208194 0.07365696 -0.084157266
0001e0 94 fc 78 bd d5 16 8a 3d 89 4f 4f bd 38 c5 7d 3d
       -0.060787752 0.06742636 -0.05061296 0.06195566
0001f0 2d a5 c0 bd 2d 55 ca bc 7c 3c a6 bd 7c 35 83 3d
       -0.09406505 -0.024698818 -0.08117005 0.06406686
000200 46 d8 81 3c dd 51 f8 bc 44 a7 21 bd df 76 ac 3d
       0.015850198 -0.030312473 -0.039466158 0.0842111
000210 44 97 a8 bd 0e 09 f3 bb 05 b9 8f 3d 6e 69 89 3d
       -0.08231977 -0.007416851 0.070177115 0.06709562
000220 23 5e 53 bd f7 97 9c bc b8 fd 89 3c 30 e4 a8 bd
       -0.051603448 -0.019115431 0.016844615 -0.08246648
000230 96 9a 37 3d 44 1f 95 3d 48 30 dd 3d 47 dd 8f bb
       0.04482516 0.07281354 0.108002245 -0.004390392
000240 5a 09 d8 bc 3a 83 4f 3c 98 e9 9d bd 05 05 98 bc
       -0.026371647 0.012665564 -0.0771057 -0.018557081
000250 ab 11 b1 3c 3f 8c be 3c 1a fc 21 3d 74 a4 2e 3d
       0.02161487 0.023260234 0.039547063 0.042637303
000260 8a 59 ed 3b dc 82 0d bc 03 4f 21 3d 95 6c e0 3c
       0.00724334 -0.008637156 0.039381992 0.027395526
000270 1a 08 eb bc be 81 19 bd 12 ca 89 3d f3 92 b2 3b
       -0.028690387 -0.037477247 0.06727995 0.0054496466
000280 42 cb 60 bc 4b 94 b0 3d 65 3f 8a bd 45 8d cb bd
       -0.013720335 0.08622035 -0.06750373 -0.099390544
000290 b4 4a db bc d8 6a c4 bd 2f 71 8c bd 5b be 1f bb
       -0.02676902 -0.09590691 -0.068575256 -0.0024374935
0002a0 6c 10 49 3d f9 62 61 bd 58 c9 09 3d c0 d3 36 bd
       0.049087927 -0.05502603 0.033639282 -0.044635534
0002b0 9b c3 84 3d 98 b5 7d bd 72 36 03 3d 2d fb 57 bd
       0.06482621 -0.06194076 0.032034345 -0.052729774
0002c0 ce 04 31 3d 81 3d fd bc ee b5 96 3d 8c 4f cc 3d
       0.043217473 -0.030913116 0.07358919 0.0997611
0002d0 26 be 92 bd cf 40 05 bc 54 17 45 3d ac b2 c1 bd
       -0.07165174 -0.008133127 0.04811795 -0.09457907
0002e0 22 bd b3 3d aa 08 e2 3c 52 6c 88 bd 20 1d 22 bd
       0.087763086 0.027592022 -0.066612855 -0.039578557
0002f0 13 e9 c1 3c 8b 8d b4 bd b1 c0 36 3d 30 93 f3 3c
       0.023670709 -0.0881606 0.04461736 0.02973327
000300 1c 4a 2c 3d df e9 b9 3d 33 22 7b 3d 17 54 93 bd
       0.042062864 0.090778105 0.06131191 -0.07193773
000310 bd 3b f7 3c 3a ce d9 3c 06 4a 00 be d8 6a 9f bd
       0.030179853 0.026587594 -0.12528238 -0.07784051
000320 8b 51 fa bb db da 0a bc c2 17 bf bb 9f 1e 44 3c
       -0.007639115 -0.008475031 -0.0058316896 0.011970191
000330 f3 13 49 3d e8 ac 05 3e 0a 7d 8c 3d b6 3c f9 3b
       0.04909129 0.1305424 0.06859787 0.0076061143
000340 c9 78 34 3d 2f af 8f 3c 7c 3a 80 bd c6 a4 9e bd
       0.044060502 0.017539589 -0.06261155 -0.07746272
000350 cf 07 65 bd 21 75 5f 3d ad 95 bc bc 3d a6 44 bd
       -0.05591565 0.054555062 -0.02302059 -0.0480101
000360 41 8d 90 bd 9c 61 01 bd e1 75 b2 3d c8 7a ce 3d
       -0.07058192 -0.03158723 0.0871389 0.100820124
000370 e0 8d 28 bd ba 94 07 bd 0b 70 4f 3d fe 67 21 bc
       -0.041150928 -0.03310082 0.050643962 -0.009851454
000380 79 ed a9 bb 8e 40 a5 bd c5 75 07 bc 88 38 a1 3d
       -0.0051857796 -0.080689535 -0.008267825 0.078721106
000390 2c 63 9b 3d a6 16 3a bd 1f e1 d0 bd a8 a7 f2 bd
       0.07587275 -0.045431755 -0.101991884 -0.11848384
0003a0 68 54 33 3d 15 70 9e bd 01 5c 07 3e 7a 12 72 3d
       0.043781668 -0.07736222 0.1321869 0.059099652
0003b0 11 b0 da 3c 17 02 c9 3a 52 e9 85 3d e5 91 91 3d
       0.026695283 0.0015335706 0.06538643 0.07107905
0003c0 84 fd bf 3d 7d 2a b3 3d 3e c0 e5 bc 30 cf 08 be
       0.09374526 0.08748338 -0.02804577 -0.13360286
0003d0 eb 7b 87 3d 7a 61 b4 bd 0f 1a 05 3d d8 08 fb 3d
       0.06615432 -0.08807655 0.032495555 0.12257546
0003e0 1a d3 90 3d 07 fe 8c bd 02 58 01 3c 44 e0 1a 3d
       0.070715144 -0.06884389 0.007894518 0.037811533
0003f0 6b 55 a9 3d 03 8b b5 bc 85 bc 05 3d b5 c0 bd bd
       0.08268245 -0.022161013 0.03265049 -0.092652716

hidden_layers.2.0.bias f4 [64]
000000 7a df bb ba 45 5d 2e 3d 95 eb c5 3c ae 3e e3 bc
       -0.0014333569 0.042569418 0.024160186 -0.027739849
000010 e8 bf b9 3b d6 a7 4c 3d 6f cf 30 3d ff 3a b7 bc
       0.005668629 0.04996475 0.043166574 -0.022366999
000020 a2 54 25 3d 3e 17 20 bd b9 61 ef bc 78 ff c4 3c
       0.040363915 -0.039084665 -0.029221402 0.024047598
000030 37 28 80 bc f1 9d 55 bc e8 58 f2 3a 55 05 f7 3c
       -0.015644176 -0.013038144 0.0018489631 0.03015391
000040 e2 69 54 bd c0 5a 8c bc 50 bd dd bc 87 0a 94 bc
       -0.05185879 -0.017133117 -0.02706781 -0.018071426
000050 28 22 26 bd e3 5b 4f 3c ca f1 22 3a d6 65 0e bd
       -0.040559918 0.012656185 0.0006215839 -0.034765087
000060 b3 b4 43 bc d5 8d 2f 3b 4e 17 97 3d 3b 1c 62 bd
       -0.0119449375 0.002678742 0.07377492 -0.055202704
000070 79 a8 bc bc 5b f1 09 3d 74 1d 72 3a a4 8d 53 3d
       -0.023029553 0.03367744 0.0009235956 0.05164875
000080 9f 61 fa 3c 9e 4d bb b9 64 43 42 3d b7 bc 50 3d
       0.030564127 -0.0003572525 0.04742755 0.050961222
000090 41 ac 09 bd 9d 22 80 3c 13 0f 3c bc 63 f4 85 bd
       -0.03361154 0.015641505 -0.011478203 -0.06540754
0000a0 6b 4e b1 bb a2 7f af bb ad 25 82 bd e1 b1 7c 3c
       -0.0054109595 -0.005355791 -0.06354842 0.015423269
0000b0 2c 3a 9e bd b0 82 7b 3d 95 ba 42 bc 51 dc d8 3c
       -0.07725939 0.06140393 -0.011885305 0.026472243
0000c0 33 b6 19 bc 01 19 eb 3c 90 25 1d bd 77 95 5b bd
       -0.009381819 0.028698446 -0.0383659 -0.053609338
0000d0 a2 b7 ca 3c 3d ad 5c bb b3 4f 9d bc 34 1f 98 bc
       0.024745766 -0.0033672594 -0.019203043 -0.018569566
0000e0 27 87 64 3a 2f 96 0e bc 37 9b 8b 3c 6c 70 22 bd
       0.0008717649 -0.008702799 0.017041786 -0.039657995
0000f0 33 d8 c7 3b 12 f1 10 3c 38 83 a3 3c ca 7f ef 3c
       0.006098771 0.008846538 0.01996003 0.02923574

hidden_layers.3.0.weight f4 [64, 64]
000000 e6 80 3b bd a4 6b 78 3d 10 ac 48 bd d5 28 3a 3d
       -0.045777224 0.06064953 -0.048992217 0.045449097
000010 cc a5 49 bd be 1b 85 bd 6d 6a b5 3d 95 55 d9 3d
       -0.04923038 -0.06499432 0.0885819 0.106120266
000020 7f 69 a5 3d d6 39 9f 3c f0 bb 8e bd eb e6 57 bc
       0.080767624 0.019436758 -0.0696944 -0.013177614
000030 e4 ca 67 bd 9f b1 ce 3d 1a dc 87 3d d3 58 9f bd
       -0.056589976 0.10092472 0.06633778 -0.07780614
000040 8d 1b ae 3d c6 46 66 3c fd da 09 be ed 97 20 3b
       0.08501349 0.01405496 -0.13462444 0.0024504617
000050 0e 35 e4 3c 41 83 48 bd 7a a8 8a bd 82 e6 31 3d
       0.02785733 -0.0489533 -0.067704156 0.04343272
000060 2e ef 3e bd 98 c0 a2 3d b2 db 08 3d 09 2d 0b bd
       -0.04661482 0.079468906 0.033412643 -0.033978496
000070 dc d0 18 3d dc de b7 3d 37 4c f3 bc 6f 6b 66 3d
       0.03730856 0.08978054 -0.029699428 0.0562548
000080 2c 43 22 3d 2e 30 fb 3d 93 a1 14 3c bc fa b6 bd
       0.03961484 0.12265049 0.009071725 -0.089345425
000090 9e de 4c 3c 06 d2 de bd ce f1 84 3d 6c f8 1d bd
       0.012504248 -0.108799025 0.06491433 -0.03856699
0000a0 35 7d 98 bd d9 8c c9 bd 3c e0 81 bd 23 bb a8 bd
       -0.07445756 -0.09841318 -0.063415974 -0.082388185
0000b0 8a 5b 56 3d 07 77 16 bd 15 d1 63 3a bf 4c 95 bd
       0.052333392 -0.036734607 0.00086905184 -0.07290029
0000c0 ea 99 e2 ba ff c7 ca 3d 05 76 85 3d 6e cc d7 bd
       -0.0017288302 0.099014275 0.06516651 -0.10537039
0000d0 e9 b9 e5 3c 6f c5 9d 3b 95 af 92 bd 7d d8 6b bd
       0.02804275 0.0048147957 -0.07162396 -0.057579506
0000e0 64 e6 cc bd ce 87 cb bd 37 e1 e4 3d 1f 55 36 3d
       -0.10004881 -0.09938012 0.11175769 0.04451477
0000f0 ab 24 53 3d 40 c5 db 3d 16 bc 91 3d 61 e2 14 bd
       0.05154864 0.10730982 0.07115953 -0.036348704
000100 dd 44 41 3c a9 44 98 bd e8 14 5f 3d 57 89 40 3d
       0.011796203 -0.07434971 0.054463297 0.047005977
000110 26 5d 91 3d c6 6a 15 bd 04 a6 08 3e e2 a5 46 bd
       0.07097845 -0.03647878 0.1334458 -0.048498042
000120 0f 1f 71 3b 18 c4 01 be 66 44 62 3d e7 c8 7a bc
       0.0036792194 -0.1267246 0.05524101 -0.015306688
000130 b2 46 b5 bd 6b 9e 54 3d bf 9f 5f 3d 3d ca a5 3d
       -0.08851375 0.05190889 0.054595705 0.080952145
000140 29 59 89 bd 84 ca 0b bd 61 53 9f 3d 3e d2 ee 3c
       -0.06706459 -0.03412868 0.07779575 0.029152986
000150 b0 6d b5 3c f6 90 b2 bd 54 97 82 3c c3 49 50 3d
       0.02214703 -0.08719055 0.0159413 0.050851595
000160 d6 65 09 3e 4f 51 4d 3d 04 ad 80 bd fd e2 6f bd
       0.13417754 0.05012637 -0.06283 -0.058566082
000170 51 89 a8 3d ae a6 a9 3d 45 56 d0 3d 19 21 1a bc
       0.08229316 0.08283745 0.101727046 -0.009407305
000180 4d 6d 0c bd 8a 05 53 bb 26 c7 c3 bd eb 1a 38 3c
       -0.034283925 -0.0032199346 -0.09559469 0.0112368865
000190 ba 0f b3 3d 2f c8 dd bd 49 f4 72 3d ff ab a2 bd
       0.08743234 -0.108291976 0.059315 -0.07942962
0001a0 4d 7a 8c 3d de fa c6 bd 15 e0 e4 bc 29 df 44 3d
       0.068592645 -0.09715818 -0.027938882 0.048064385
0001b0 6a 32 b5 bd 49 d8 b3 bd 76 ab ba bb 5b 83 91 bd
       -0.08847506 -0.087814875 -0.0056967093 -0.07105132
0001c0 b3 1c 50 bd 62 bb c4 3d 9d 4e c4 bd 54 31 e5 3d
       -0.05080862 0.09606053 -0.09585307 0.11191049
0001d0 53 77 b0 3d dd 3f 87 bb 71 7a fe bc f8 cb 81 bd
       0.08616509 -0.004127486 -0.031064244 -0.06337732
0001e0 02 9b 8b bd 0f ed 5a bd 26 75 91 3d 42 48 81 3d
       -0.06816675 -0.053448733 0.071024224 0.0631261
0001f0 60 3d 71 bd 6f 60 c4 bc 97 3f 3e bd 1f a1 ed 3d
       -0.058896422 -0.023971764 -0.046447363 0.11602997
000200 10 7e c1 3b 0c 91 a6 3d ec f2 7b bd 36 ce bf 3d
       0.0059049204 0.08133134 -0.061510965 0.093655035
000210 7e 9b 17 3c b6 29 cb bd 5f 59 c0 3d 06 89 b2 3d
       0.009253381 -0.09920065 0.09392046 0.087175414
000220 fb d7 cb 3c b3 15 56 3b 4a fe 9e 3d c5 53 0e 3d
       0.024883261 0.0032666742 0.077633455 0.034747858
000230 d2 d6 c4 bb 1f dc 2a 3c b4 05 34 3c f8 70 06 3d
       -0.006007054 0.0104284575 0.010987688 0.03282258
000240 23 47 96 3a 43 4c 08 bd 67 76 cd 3d db 92 f0 3d
       0.0011465292 -0.033275854 0.10032349 0.117467605
000250 a8 a8 d6 bc 11 65 bc 3d 10 68 95 3d 7f b6 56 3d
       -0.026203468 0.091989644 0.07295239 0.052420136
000260 af a8 11 3d d9 04 d5 3c ee ed f4 bc 61 93 9c bc
       0.03556126 0.026003288 -0.02989861 -0.019113244
000270 c4 be 95 bd 6e 94 91 bd 66 73 2f 3d 21 07 c1 bd
       -0.07311776 -0.07108389 0.042834662 -0.09425188
000280 36 a6 7c 3d 64 18 5c 3c dc ec f6 bc a0 61 f3 b9
       0.06168195 0.01343355 -0.03014224 -0.00046421308
000290 30 d2 83 bd 49 c7 8c 3d 8a 05 8d 3d 5e c2 c1 bd
       -0.064365745 0.06873948 0.06885822 -0.09460901
0002a0 6d 00 a1 bb e5 1e e5 3d 4e 3d 77 3d 22 ba e1 bd
       -0.004913381 0.11187533 0.0603612 -0.1102183
0002b0 38 6f dd bd 02 8f e9 3c 56 a4 e4 3c 6a 87 e5 bc
       -0.10812229 0.028510574 0.027910393 -0.028018672
0002c0 e4 b8 e2 bd 9c 20 b6 bc 1e 9a 5e bd 90 4e 38 bd
       -0.11070421 -0.022232346 -0.054346196 -0.044996798
0002d0 08 c0 3c bd 84 9b 85 bd 4d 83 d0 bd 37 a9 9b bd
       -0.046081573 -0.06523803 -0.10181294 -0.076006345
0002e0 aa ae 3f 3d 82 62 16 bd 34 b0 3b bd 3f 7e a8 bd
       0.046797432 -0.036715038 -0.045822337 -0.082272045
0002f0 91 3b 91 3d 32 20 55 bd e0 d7 45 bd 27 4d 91 3c
       0.070914395 -0.052032657 -0.048301578 0.017736984
000300 15 50 92 3d ed ba d9 3d cc 25 00 3d a6 a4 e4 3d
       0.07144181 0.106313564 0.031286046 0.11164217
000310 9c 43 38 3d 84 fb a2 bd dd eb aa bc ec 59 cd 3c
       0.044986352 -0.07958129 -0.020864422 0.025067292
000320 3b 12 83 bd 0e e4 01 3c 9c be 0f 3d 63 88 ad 3c
       -0.063999616 0.007927908 0.03509389 0.021183198
000330 a8 22 b3 3d bf 10 d6 bb 29 3d 95 bd 53 01 4e bd
       0.087468445 -0.006532758 -0.07287056 -0.05029423
000340 07 bd 8f bd 7b 11 cf 3d b7 f1 e9 3d be ad a8 3d
       -0.07018476 0.10110756 0.114230566 0.08236264
000350 87 2b ed 3c de 0b bf bd d1 9c ba bd 1d 83 f0 bd
       0.02895142 -0.09328435 -0.091119416 -0.11743758
000360 72 dc 88 bb f0 cd 76 bd c1 8d 9a 3c 08 fe 3a bd
       -0.0041766698 -0.06025499 0.018866422 -0.04565242
000370 d3 ea 94 3d 43 1e cf bd f8 90 27 bd a3 f8 e6 3d
       0.07271352 -0.10113194 -0.040909737 0.112778924
000380 6a 96 9e 3d 1c ac d7 bd b5 4c 96 3d fb 98 4e 3d
       0.07743533 -0.10530874 0.073388495 0.050438862
000390 02 9a 33 bd 3b ef 0b 3d 9b 90 88 bd 50 d4 b6 ba
       -0.043848045 0.034163695 -0.06668206 -0.0013948772
0003a0 58 9f ce bd b1 6e e3 3d 20 f7 2f 3d a4 a6 05 3d
       -0.10088986 0.11105097 0.042960286 0.032629624
0003b0 2c 3a db bd 85 0f ca bd a2 c5 e1 3d 6f 67 df 3d
       -0.10704455 -0.09866241 0.110240236 0.109084
0003c0 df 26 6d 3d 6b a9 90 bd 1a 70 c6 bd 5c ec f4 bc
       0.0578984 -0.07063564 -0.096893504 -0.029897861
0003d0 4c b8 76 3c 89 11 4e 3d 1a ab c2 3b 6f 1a a2 bd
       0.015058588 0.05030969 0.005940807 -0.07915198
0003e0 47 9d c6 3d 48 b4 8b bc 45 5d 4d bc c2 28 6e 3c
       0.09697967 -0.017053738 -0.012534444 0.014536085
0003f0 0f 78 b0 bd 7e 20 3d 3d fc 5b 09 3d 33 a2 ed bb
       -0.08616649 0.046173565 0.03353499 -0.0072520017

hidden_layers.3.0.bias f4 [64]
000000 78 5b e6 bc 69 44 c6 bd 36 d3 9a bb 92 4e 30 3d
       -0.028119788 -0.09681017 -0.0047248853 0.04304368
000010 e7 8a 55 bd ab cb 94 3c 83 c7 ec bb 7b 36 54 3c
       -0.05213442 0.018163523 -0.007225932 0.012952442
000020 e8 e2 a4 3d 7b 8b b2 ba 82 5f 20 bc d3 e2 25 3c
       0.080510914 -0.0013621891 -0.009788396 0.01012488
000030 76 8a 23 3b 9d 2f b6 bb 09 5b 0d bd f5 f1 09 bd
       0.0024954355 -0.005559875 -0.034510646 -0.033678014
000040 7c b1 91 bd e3 6a 89 bd c2 b2 0b bd 6a b0 e5 3c
       -0.071139306 -0.0670984 -0.034106024 0.028038222
000050 58 8c db 3b a4 69 20 bd 3b ad c4 3d eb de 4e 3d
       0.00670008 -0.039163247 0.096033536 0.05050556
000060 31 76 de 3c 3e c5 60 3d d4 ef b9 3d e0 ec 59 3d
       0.027155967 0.054875605 0.09078947 0.053204417
000070 7b 6d 01 3c 02 a0 94 bc 73 14 5b 3d bd 1d 9e bd
       0.007899637 -0.018142704 0.0534863 -0.07720516
000080 c8 a6 1f bb 00 94 79 3d f1 0e c4 bc 74 98 05 3d
       -0.0024360884 0.06093216 -0.023932906 0.032616094
000090 71 16 21 3d db ce b9 bc cd d6 47 3d 2b 9b 57 bd
       0.039328042 -0.022681644 0.048788834 -0.052638214
0000a0 19 51 fc 39 f1 e0 1a bd a7 b9 1e bd 5d f4 0b bd
       0.00048125608 -0.037812177 -0.03875127 -0.03416859
0000b0 85 b1 9a ba f9 5f 82 3d 6d 32 ab 3d 99 16 c3 3d
       -0.0011802173 0.063659616 0.08359227 0.095257945
0000c0 4b f7 2b bd 82 1c 24 3d 88 69 2a 3d cc d4 93 bc
       -0.041983884 0.04006625 0.04160455 -0.018045805
0000d0 fe 0d 15 3d 8a 78 28 bd 1a 45 5c 3d c9 af 5f 3d
       0.036390297 -0.04113058 0.053776838 0.054611
0000e0 2c a7 41 3d f6 f1 59 bc 14 44 ef bb f1 38 57 bd
       0.04727857 -0.013302317 -0.0073018167 -0.052544538
0000f0 cd d8 53 3c 8b 62 97 3c 55 ea 59 3c 86 ce 95 3c
       0.012930107 0.018479606 0.013300498 0.018286955
