Neural Networks Codes/PINN/Save_models/model_RANS_based_PINN_channel.pth (torch, 161168 bytes, 22 tensors)

input_layer.0.weight f4 [64, 4]
0.0732778 -0.19022545 0.20188172 0.00070580724 -0.0035270213 0.17195919 0.15561049 -0.00015612089
-0.15490709 0.0014504651 0.103508726 -0.009723435 -0.0008454843 -0.13376538 0.44716218 -0.24773519
0.02382086 0.07841645 -0.20854656 0.115527496 -0.00011180831 0.025278246 -0.34405464 0.4804209
0.060549695 -0.11814394 0.2315347 -0.00043791084 0.08457553 0.31288555 -0.19738415 0.00029904366
0.004022001 -0.026489912 0.0019477154 -0.015624877 0.056857973 0.0069365553 0.003368509 -0.035160083
0.006052492 -0.00038637733 -0.03491854 -0.021000907 0.00017529471 0.018076666 0.31828997 -0.25040996
-0.0020854017 0.08431278 -0.18091069 0.060457572 0.046744984 -0.050281268 -0.012951119 -0.0024442966
0.032749653 -0.004991333 0.0046926504 0.026489228 0.02744523 -0.01779843 -0.0043422612 0.008969124
6.146883e-05 -0.0077982433 -0.34900117 0.27454165 -0.23238485 -0.20284635 0.15591332 -0.31078324
-0.011612989 0.045605592 0.010844852 -0.021573786 -0.0035840925 -0.05004526 0.0017179183 -0.015066755
-0.006459742 0.006326724 0.0024848816 0.0050756964 0.38977736 0.36511168 -0.07445751 0.00014798407
-2.426285e-06 0.007420899 -0.0025053977 0.01951969 -0.3188537 -0.09754337 -0.0058049415 0.013034732
-0.00026173602 0.0050129136 1.9839712e-05 0.023525067 -1.4830866e-05 -0.0006249148 -0.0041723168 -0.024985952
0.00073782785 0.07132614 -0.19436677 0.3169337 -0.061627198 0.022848465 -0.05193319 -0.008749564
0.00014103862 0.04649308 0.39881223 -0.46921408 -0.20980217 -0.29436 0.010656873 -0.021128012
-0.046018265 -0.120744966 0.14428423 -0.0006060858 0.032130264 -0.030388331 0.0027863265 -0.008673987
-0.03293499 -0.0056417137 -0.0016443339 0.005747143 0.0001417212 -0.004885268 0.0013057935 -0.01569245
0.00035968822 -0.0060404763 -0.33844143 0.2000122 -0.009193508 0.011373286 -0.018523963 -0.026568895
0.24919641 0.034858275 0.27989504 -0.00017133528 -0.025159754 0.0011163652 0.0057339943 0.022858031
0.009432939 -0.013326065 -0.0029423293 0.011674644 0.00072094187 0.019919354 0.3656341 -0.082437925
0.36936575 -0.0997717 -0.078166634 0.00025575294 0.06849917 0.09150253 -0.016123064 -0.0017544146
0.014237491 0.045476314 0.0037762756 0.019054351 -0.027651086 0.043116912 0.2805299 -0.5104491
-0.034714974 -0.116400234 -0.008449284 0.020077448 0.1356206 -0.3499301 0.118078284 -0.23539814
-0.00073897664 0.017591717 -0.030757276 -0.012827199 -4.3020773e-05 -0.0104069635 -0.021667697 -0.02086335
0.01443553 -0.018918306 -0.009228907 0.03128701 0.029601512 -0.012252167 -0.42055416 0.25841913
-2.2117763e-05 -0.0021274332 0.0013209766 0.024475679 -0.12017342 0.33342227 0.21693055 -0.4126102
-0.0769116 0.5225769 0.2611506 -0.51945776 -4.6689842e-05 0.003119759 -0.0400701 -0.017128138
-0.00071759126 -0.077865906 -0.4632228 0.21137618 -0.009692829 0.0008586298 0.031231394 0.022292731
-0.0015167956 0.0035429264 -0.006970725 -0.017662853 -0.00010827207 -0.004926958 0.00023344657 0.02469918
-0.015626712 -0.0027481618 0.04178157 0.013385116 0.0003498346 -0.014242133 -0.429176 0.30051333
0.035881285 -0.0011401509 0.011035408 -0.022006597 -7.176855e-05 -0.024228493 -0.3155521 0.293922
-7.705352e-06 0.0024347538 -0.004943044 -0.023971926 -1.6229553e-05 0.018070318 -0.0031492717 -0.024117071
00000000: ac12 963d 76ca 42be 15ba 4e3e ec05 393a
00000010: 9925 67bb 1216 303e 5b58 1f3e 62b4 23b9
00000020: f79f 1ebe 881d be3a 62fc d33d 0b4f 1fbc
00000030: 7ea3 5dba cbf9 08be 71f2 e43e 4bae 7dbe
00000040: f723 c33c ce98 a03d 3b8d 55be ae99 ec3d
00000050: a17a eab8 5314 cf3c ee27 b0be baf9 f53e
00000060: f502 783d 73f5 f1bd 6f17 6d3e 6697 e5b9
00000070: ef35 ad3d 8932 a03e 121f 4abe f6c8 9c39
00000080: fdca 833b 5f01 d9bc 7c4a ff3a 7cff 7fbc
00000090: e8e3 683d 0b4c e33b 34c2 5c3b 0504 10bd
000000a0: fc53 c63b b092 cab9 be06 0fbd 180a acbc
000000b0: 51cf 3739 8415 943c e7f6 a23e bc35 80be
000000c0: 3cab 08bb 2eac ac3d a740 39be 5ca2 773d
000000d0: ab77 3f3d bbf3 4dbd ee30 54bc 7e30 20bb
000000e0: 8024 063d 568e a3bb cec4 993b f0ff d83c
000000f0: d2d4 e03c 03ce 91bc 8749 8ebb 3cf3 123c
00000100: d4e8 8038 6888 ffbb 48b0 b2be b990 8c3e
00000110: 4bf6 6dbe f4b6 4fbe bea7 1f3e fb1e 9fbe
00000120: 6844 3ebc eecc 3a3d 9bae 313c 82bb b0bc
00000130: 18e3 6abb 42fc 4cbd c62b e13a 8dda 76bc
00000140: 3eac d3bb 6850 cf3b 65d9 223b 0752 a63b
00000150: e690 c73e ebef ba3e 2e7d 98bd 2c2c 1b39
00000160: 42d3 22b6 032b f33b 9931 24bb c2e7 9f3c
00000170: cb40 a3be d2c4 c7bd 6137 bebb a18f 553c
00000180: 9d39 89b9 5e43 a43b 756d a637 a4b7 c03c
00000190: 16d2 78b7 53d1 23ba eeb7 88bb 57af ccbc
000001a0: ca6a 413a 7013 923d 1508 47be 2245 a23e
000001b0: cd6c 7cbd b42c bb3c e6b7 54bd 555a 0fbc
000001c0: c4e3 1339 876f 3e3d 1e31 cc3e d43c f0be
000001d0: 61d6 56be 5bb6 96be 2a9a 2e3c a714 adbc
000001e0: a67d 3cbd 2349 f7bd 3fbf 133e bbe1 1eba
000001f0: 069b 033d f3f0 f8bc cd9a 363b 571d 0ebc
00000200: d7e6 06bd 20de b8bb b186 d7ba 8852 bc3b
00000210: ff9a 1439 9914 a0bb 2927 ab3a 748d 80bc
00000220: 8994 bc39 30ef c5bb 3248 adbe 00d0 4c3e
00000230: 5ea0 16bc 0557 3a3c 91bf 97bc 03a7 d9bc
00000240: 582d 7f3e 8dc7 0e3d 674e 8f3e 77a8 33b9
00000250: d41b cebc 0053 923a 3be4 bb3b c440 bb3c
00000260: 9d8c 1a3c 9155 5abc 18d4 40bb 0247 3f3c
00000270: 97fd 3c3a ea2d a33c 6534 bb3e 37d5 a8bd
00000280: 821d bd3e 1b55 ccbd d415 a0bd 9416 8639
00000290: 4b49 8c3d ae65 bb3d 8414 84bc 63f4 e5ba
000002a0: 5e44 693c 5f45 3a3d 647b 773b df17 9c3c
000002b0: 8884 e2bc 5c9b 303d 9da1 8f3e cbac 02bf
000002c0: 4a31 0ebd 3f63 eebd de6e 0abc 7679 a43c
000002d0: 20e0 0a3e 0a2a b3be 07d3 f13d 360c 71be
000002e0: e2b7 41ba 811c 903c aff6 fbbc 2c29 52bc
000002f0: 3471 34b8 f881 2abc 7480 b1bc 9ee9 aabc
00000300: 0083 6c3c 90fa 9abc d734 17bc cf26 003d
00000310: df7e f23c 50bd 48bc e052 d7be 834f 843e
00000320: 8989 b9b7 686c 0bbb 9f24 ad3a 3881 c83c
00000330: 7b1d f6bd 53b6 aa3e 0b23 5e3e a541 d3be
00000340: d483 9dbd 9ac7 053f 88b5 853e 2ffb 04bf
00000350: d6d4 43b8 df74 4c3b 8c20 24bd 4f50 8cbc
00000360: bc1c 3cba 2978 9fbd 8a2b edbe ff72 583e
00000370: acce 1ebc ac15 613a fbd8 ff3c 3f9f b63c
00000380: 37cf c6ba 7130 683b ae6a e4bb b0b1 90bc
00000390: 2010 e3b8 5272 a1bb 56c9 7439 ef55 ca3c
000003a0: 9703 80bc 811a 34bb 2723 2b3d 3f4d 5b3c
000003b0: 016a b739 d657 69bc f5bc dbbe e2dc 993e
000003c0: 41f8 123d 1e71 95ba dbcd 343c 2e47 b4bc
000003d0: 7282 96b8 d57a c6bc 0b90 a1be f27c 963e
000003e0: 3c46 01b7 6490 1f3b 42f9 a1bb c660 c4bc
000003f0: b324 88b7 3408 943c 0364 4ebb 2a91 c5bc

input_layer.0.bias f4 [64]
-0.033291794 0.0020540876 0.090031005 -0.028848294 -0.074462324 0.0014254487 0.19450496 0.13064091
0.028260807 -0.0061454517 -0.0011119832 0.01284215 -0.043570556 0.0223464 5.2441435e-05 -0.027398981
0.007481378 -0.18771327 0.008098221 0.026677785 -0.003167406 0.18538132 -0.00040892753 -0.13199611
-1.893364e-05 -4.8703518e-05 0.016215377 0.0155047625 -0.001348506 0.2656872 -0.0050166324 0.0058407327
-0.009894701 0.0006463116 -0.0018467982 0.00024285572 0.05477007 4.417961e-05 0.015890446 0.022820367
0.39285123 0.06493999 -0.0111961095 -0.016217547 0.14525117 0.40891442 -0.044204645 -3.4876564e-05
0.00014160173 -0.0031703326 3.453593e-05 0.29200247 -0.13806973 -0.000121336605 -0.011889104 -0.0008490325
0.024676492 -2.6270525e-05 0.0049829176 -0.0044517447 -0.0051146536 0.0005614673 0.001309089 -0.009112091
00000000: fa5c 08bd df9d 063b 2d62 b83d 4253 ecbc
00000010: b47f 98bd 1fd6 ba3a 4f2c 473e bbc6 053e
00000020: 3583 e73c c95f c9bb f7bf 91ba e267 523c
00000030: 0a77 32bd cc0f b73c 90f4 5b38 d473 e0bc
00000040: 5926 f53b e837 40be 67ae 043c 5f8b da3c
00000050: 4194 4fbb 9ad4 3d3e 5365 d6b9 fd29 07be
00000060: afd3 9eb7 0147 4cb8 1cd6 843c b007 7e3c
00000070: 5ac0 b0ba 2708 883e 9062 a4bb 9e63 bf3b
00000080: 621d 22bc 3d6d 293a 4410 f2ba 16a7 7e39
00000090: 9556 603d 7f4d 3938 ae2c 823c c7f1 ba3c
000000a0: cc23 c93e 42ff 843d e36f 37bc a9da 84bc
000000b0: b9bc 143e 3b5d d13e ee0f 35bd 6d48 12b8
000000c0: ed7a 1439 5bc5 4fbb acda 1038 5981 953e
000000d0: 2762 0dbe 1876 feb8 84ca 42bc 9b91 5eba
000000e0: 5b26 ca3c 865f dcb7 be47 a33b f1df 91bb
000000f0: d398 a7bb 6f2f 133a bd95 ab3a e14a 15bc

hidden_layers.0.0.weight f4 [64, 64]
-0.11352942 -0.019078542 -0.06809385 0.098731935 -0.0187318 0.02515565 0.06572027 -0.063954115
-0.10304751 0.020659294 -0.1199745 0.07779194 0.063399166 -0.024924219 -0.105404906 0.008223452
-0.012282134 -0.09749856 -0.050736133 0.0550138 -0.08746113 -0.018832453 0.034963243 -0.01843261
0.11509957 -0.08003358 0.012909081 0.027701676 0.010372223 0.07031186 -0.08408625 -0.085312724
-0.07253489 0.007840642 -0.006542303 -0.040729593 0.106688 0.10697047 -0.09245268 0.012384275
-0.12043352 0.08399914 0.0040598586 0.10143041 0.08921175 0.08970319 -0.09204767 -0.044636503
0.035613067 -0.043642435 0.067274205 0.032768767 -0.05666506 0.07825681 -0.030652136 0.069080055
0.012901265 0.043935712 0.09562176 -0.054270063 0.05541027 0.041703507 0.0799027 -0.010741844
-0.09924535 0.101631664 0.06568998 0.09239381 0.09543363 -0.019465134 -0.090201564 0.07002522
-0.07703014 0.020882426 0.12191966 -0.10006655 -0.026233358 0.056965496 -0.02411128 0.016857669
-0.087986276 0.06836263 0.009834326 0.11506991 -0.005664561 -0.08638772 -0.11090749 -0.0036242576
-0.11461103 -0.09540094 0.09527161 -0.09835451 -0.10268124 -0.08829288 -0.100744225 -0.03741789
-0.11421761 -0.010235076 -0.050843086 -0.05341547 0.15059024 -0.021545062 -0.0038302492 0.02240339
-0.13794197 -0.06689833 -0.083930165 0.039416645 0.06761617 -0.15743196 -0.020670936 0.06650962
-0.09630061 -0.09143928 0.08458135 0.08898481 0.008928586 0.0037536635 -0.0821435 0.015268202
-0.06815521 -0.12109003 0.077221796 0.114925124 0.008708011 0.117498405 0.094813205 -0.07109834
-0.0478915 0.10355367 0.10990731 0.08564507 -0.069449835 0.11588089 0.12056405 -0.0015844974
0.08061944 -0.074770115 -0.09247654 -0.05046102 0.08423131 -0.112354085 -0.023826418 0.00093149545
0.02894981 -0.12038496 -0.10132709 0.11430334 0.099005975 -0.03260644 0.02727971 0.11705329
-0.11731573 -0.07802747 0.058124878 -0.0013544091 -0.054904453 -0.009155809 -0.0142083075 -0.0051588546
0.062106736 0.053444296 -0.055191733 -0.0140684 -0.019474126 0.08244154 0.056425843 0.05429334
0.13010788 -0.1149328 -0.08949598 -0.07606472 0.10834745 -0.07175297 0.04587226 -0.018330773
0.010584541 -0.079747334 -0.0407468 -0.0041172695 0.025435401 0.046292935 0.03987004 -0.064606994
0.08599307 -0.10215563 0.05705649 -0.016458686 0.08712952 -0.10503129 -0.09845925 -0.116165124
0.10831301 -0.10196863 -0.031091828 -0.033201758 0.08503958 -0.0673628 -0.16104022 0.024771588
-0.06828642 0.05266453 -0.103058405 -0.046150226 0.101217195 -0.012108561 0.009292978 -0.02845194
0.062781096 -0.019836731 0.050522864 -0.028336057 0.020018768 0.0695641 0.07026051 -0.050418112
0.014763247 0.07943576 -0.079493515 0.040274933 -0.071901806 0.009132369 0.041454207 0.04489622
-0.03936291 -0.088138804 -0.00121988 -0.019027904 0.053678334 -0.092755705 -0.079045504 -0.0747677
0.013136103 0.0777395 -0.08626566 0.048125606 -0.04234376 0.10343839 -0.03766033 -0.067417346
-0.11532301 0.022429315 -0.033673245 0.02380672 -0.009072586 0.012924354 0.095880486 -0.015612828
0.112940185 0.022894599 -0.02909768 -0.044258516 0.032643605 0.06466967 0.046172094 0.014080874
00000000: 1d82 e8bd 9a4a 9cbc ca74 8bbd f833 ca3d
00000010: 6f73 99bc 3913 ce3c 5998 863d 60fa 82bd
00000020: 930a d3bd ae3d a93c 31b5 f5bd 6151 9f3d
00000030: 6cd7 813d e02d ccbc 87de d7bd a8bb 063c
00000040: 013b 49bc 53ad c7bd b1d0 4fbd 2656 613d
00000050: d21e b3bd 8446 9abc 9e35 0f3d fcff 96bc
00000060: 53b9 eb3d a5e8 a3bd 9c80 533c a0ee e23c
00000070: 42f0 293c aaff 8f3d 6935 acbd 70b8 aebd
00000080: 2c8d 94bd 0976 003c d160 d6bb 13d4 26bd
00000090: 3d7f da3d 5513 db3d d557 bdbd 6ae7 4a3c
000000a0: d9a5 f6bd be07 ac3d 9008 853b bfba cf3d
000000b0: a6b4 b63d 4eb6 b73d 7d83 bcbd c4d4 36bd
000000c0: 02df 113d 69c2 32bd 0fc7 893d 8b38 063d
000000d0: 9f19 68bd 1b45 a03d 301a fbbc d879 8d3d
000000e0: d45f 533c eff5 333d 57d5 c33d 494a 5ebd
000000f0: e1f5 623d 4cd1 2a3d 07a4 a33d 8ffe 2fbc
00000100: 2541 cbbd 4324 d03d 7888 863d f738 bd3d
00000110: b572 c33d 5875 9fbc 99bb b8bd 6269 8f3d
00000120: fac1 9dbd 9f11 ab3c 04b1 f93d b1ef ccbd
00000130: 57e7 d6bc a754 693d 0585 c5bc 1819 8a3c
00000140: 2632 b4bd b501 8c3d 2720 213c c6a9 eb3d
00000150: c89d b9bb 0cec b0bd 7723 e3bd f484 6dbb
00000160: 30b9 eabd 9161 c3bd c31d c33d 176e c9bd
00000170: 8b4a d2bd e6d2 b4bd fd52 cebd 8043 19bd
00000180: ecea e9bd 05b1 27bc d740 50bd 2eca 5abd
00000190: 5434 1a3e 457f b0bc eb04 7bbb 5087 b73c
000001a0: a940 0dbe fe01 89bd 94e3 abbd 5973 213d
000001b0: 597a 8a3d d835 21be 1856 a9bc 3236 883d
000001c0: 4139 c5bd 8444 bbbd fd38 ad3d ab3d b63d
000001d0: 3449 123c 0600 763b da3a a8bd 7b27 7a3c
000001e0: f594 8bbd 0dfe f7bd 7626 9e3d dd5d eb3d
000001f0: 0cac 0e3c 01a3 f03d 6d2d c23d 029c 91bd
00000200: e129 44bd f213 d43d 1517 e13d af66 af3d
00000210: b73b 8ebd f652 ed3d 49ea f63d e9ae cfba
00000220: ce1b a53d 1321 99bd 5764 bdbd 37b0 4ebd
00000230: 7781 ac3d e619 e6bd 9f2f c3bc 9a2f 743a
00000240: 2728 ed3c 648c f6bd 9484 cfbd df17 ea3d
00000250: a5c3 ca3d 558e 05bd b379 df3c a3b9 ef3d
00000260: 3b43 f0bd decc 9fbd 5a14 6e3d 6e86 b1ba
00000270: 7ee3 60bd 3f02 16bc f6c9 68bc 9c0b a9bb
00000280: a263 7e3d 68e8 5a3d ba10 62bd 257f 66bc
00000290: 3488 9fbc 1cd7 a83d c91e 673d b162 5e3d
000002a0: 003b 053e e361 ebbd ab49 b7bd d2c7 9bbd
000002b0: 45e5 dd3d 39f3 92bd 8de4 3b3d 6b2a 96bc
000002c0: c86a 2d3c 9252 a3bd 1ee6 26bd 29ea 86bb
000002d0: e75d d03c a99d 3d3d c44e 233d ac50 84bd
000002e0: 221d b03d f936 d1bd 11b4 693d 5ed4 86bc
000002f0: f670 b23d a51a d7bd 01a5 c9bd fbe7 edbd
00000300: 36d3 dd3d eed4 d0bd 4ab4 febc 91fe 07bd
00000310: 3b29 ae3d 82f5 89bd bae7 24be c9ed ca3c
00000320: c0d9 8bbd c3b6 573d 4910 d3bd 0508 3dbd
00000330: f64a cf3d fc62 46bc 9341 183c 0b14 e9bc
00000340: 6093 803d a480 a2bc 10f1 4e3d 0521 e8bc
00000350: 66fe a33c 9f77 8e3d bee4 8f3d 3983 4ebd
00000360: 8ce1 713c 37af a23d 7fcd a2bd 54f7 243d
00000370: 4141 93bd ef9f 153c e3cb 293d 19e5 373d
00000380: 013b 21bd 1e82 b4bd 61e4 9fba 68e0 9bbc
00000390: d0dd 5b3d b4f6 bdbd 9ce2 a1bd cf1f 99bd
000003a0: cf38 573c e335 9f3d 0dac b0bd 5b1f 453d
000003b0: a770 2dbd 82d7 d33d b841 1abd 1b12 8abd
000003c0: 782e ecbd afbd b73c f5ec 09bd 4f06 c33c
000003d0: 2fa5 14bc abc0 533c fd5c c43d f2cc 7fbc
000003e0: 2f4d e73d 748d bb3c 425e eebc 6b48 35bd
000003f0: 4db5 053d 8871 843d f31e 3d3d 77b3 663c

hidden_layers.0.0.bias f4 [64]
0.06914396 0.037691757 -0.012769497 0.07492632 -0.0044193976 0.052348856 -0.057468135 -0.06073086
0.0057334383 -0.008584477 0.03479688 -0.018221455 0.056329086 0.0036604002 -0.0093589 0.053058613
-0.04839109 -0.018867364 0.063754104 -0.079649545 -0.026525434 -0.010061533 -0.02258458 -0.0770905
-0.031363837 0.0051529887 0.085998945 0.011173624 -0.06684163 -0.026442945 0.0023198684 -0.09873717
0.052911635 -0.049319167 -0.06195956 -0.044094563 -0.11453204 -0.065265045 -0.010328406 0.063484065
0.1222403 0.07326017 -0.028099302 -0.0109733865 0.08155166 -0.05161142 -0.01530244 0.029383034
-0.102797076 0.032143548 0.0804241 0.0022478045 -0.030743945 0.079506785 0.015779637 -0.021602703
0.036781527 -0.08794338 -0.06714096 0.029610582 -0.021126138 -0.012830894 0.0072462764 -0.047261164
00000000: 599b 8d3d ac62 1a3d 2737 51bc f872 993d
00000010: 98d0 90bb c16b 563d b563 6bbd ecc0 78bd
00000020: 91df bb3b e8a5 0cbc 2c87 0e3d 2945 95bc
00000030: 54b9 663d 53e3 6f3b 1256 19bc fd53 593d
00000040: bc35 46bd bb8f 9abc 8391 823d 4d1f a3bd
00000050: de4b d9bc 21d9 24bc 4c03 b9bc a0e1 9dbd
00000060: 5e77 00bd 67da a83b 3720 b03d 9311 373c
00000070: 44e4 88bd e09e d8bc ef08 183b b736 cabd
00000080: dfb9 583d e502 4abd 4fc9 7dbd 809c 34bd
00000090: c68f eabd aea9 85bd 7938 29bc ef03 823d
000000a0: 1f59 fa3d 6e09 963d 8230 e6bc b8c9 33bc
000000b0: 8f04 a73d 7f66 53bd 16b7 7abc b0b4 f03c
000000c0: 4687 d2bd f4a8 033d 64b5 a43d e74f 133b
000000d0: bada fbbc 74d4 a23d 4c44 813c 27f8 b0bc
000000e0: 3aa8 163d a91b b4bd 3381 89bd e491 f23c
000000f0: b910 adbc ac38 52bc 2c72 ed3b ec94 41bd

hidden_layers.1.0.weight f4 [64, 64]
0.055939008 0.09889705 -0.0716986 0.06866305 -0.01675012 0.1075677 0.0031541383 -0.013292323
-0.07628216 -0.068121485 0.11669407 0.01807202 0.010810389 0.11549035 -0.05676517 -0.026327955
-0.045317333 0.055988915 -0.08855 -0.07741962 0.025806414 -0.10296182 -0.037618462 -0.06756417
0.08465864 -0.009963506 -0.0642503 0.066351876 -0.000768483 0.027428009 0.090787224 -0.096081525
0.110311195 0.11290405 0.08970835 -0.10851807 0.12773678 -0.11893047 0.07886428 -0.0038534703
-0.052289166 0.0011838656 0.025459398 -0.028672477 -0.03137793 -0.105354376 -0.057744883 0.103850484
-0.031628367 0.11243567 0.05155932 -0.015420154 0.04070538 -0.10192599 -0.044628933 -0.031197399
0.02318928 0.021901341 -0.100350074 -0.14153332 0.039273564 -0.057567462 -0.10174467 -0.009647367
-0.010495304 0.047818355 -0.10825993 -0.09594974 -0.06257899 -0.03926865 -0.017570848 -0.12583248
0.027860131 -0.05943348 -0.07012824 -0.061534237 0.008215873 -0.057600692 0.07070269 0.06566052
0.05028079 -0.081681885 0.03994059 -0.093575984 0.12316895 0.01407763 0.09502431 -0.0017937418
-0.10427758 -0.0383921 0.079615906 -0.059427597 0.072661944 0.054807533 -0.113502346 0.096432
0.09977006 -0.028956557 -0.12199984 0.04666877 0.07318117 -0.0025864313 -0.070454985 -0.066642515
0.004499269 -0.056049343 0.08005569 -0.034182835 0.052444696 -0.07687906 0.099513695 0.058899045
0.032152906 0.020232676 0.06019474 -0.059461784 0.055178653 -0.13017082 -0.12035101 0.09708067
0.110917546 0.090785444 0.12011236 0.10213001 0.038998716 -0.07781388 0.026879726 -0.13034122
-0.08637766 -0.07881228 0.05914812 0.07111206 0.07988212 -0.018357322 0.0013342145 0.0051354878
-0.026597327 -0.06175591 0.04028506 0.074418314 -0.06588082 0.11822735 0.09302438 -0.12760627
-0.084363304 0.02208665 -0.03766913 0.07363127 0.10496546 0.059020914 -0.042784262 -0.08823579
0.07683124 -0.11023725 -0.023881685 0.11619945 -0.08388707 0.019869654 0.105278626 0.0063409973
0.07565814 -0.03837004 -0.020810897 0.11084504 -0.055127416 0.05195474 -0.11262833 -0.092943184
-0.06816816 0.010113776 0.0964985 -0.10572731 -0.095989704 0.006659249 0.037585244 0.060443476
0.023962798 -0.07090076 -0.026273876 -0.028819403 -0.12621708 -0.005713752 -0.1242657 -0.07354896
0.06921551 -0.1308264 -0.102729365 0.015876023 0.11868425 -0.07524291 -0.062038895 -0.0014621885
0.0072873505 -0.06813876 -0.089658596 0.02226741 0.14881709 -0.083210744 0.084087335 -0.07726119
-0.016221236 -0.10070529 0.01928255 0.0800473 0.118076004 0.099588685 0.11218611 -0.029741239
-0.08817034 0.006570339 0.11097478 -0.012840409 0.0475949 0.12999633 -0.082005076 -0.1084761
0.062231734 0.074798465 0.0975033 0.032605726 0.070325166 -0.036437582 -0.017172461 0.010042931
-0.0919743 -0.021310234 -0.02736675 -0.11562136 -0.06930118 0.1328098 0.059652697 0.05916277
0.046699822 0.059168275 0.015532355 0.0012024367 0.06360419 -0.09498747 0.032903496 -0.112564445
0.06645924 0.01089974 -0.03745988 0.13083981 0.011294527 -0.014013485 0.09259353 0.090844266
-0.039983463 0.06890043 0.12065332 0.027864743 0.119628035 0.039228592 0.026680378 0.0021957986
00000000: 4d20 653d 898a ca3d b7d6 92bd 379f 8c3d
00000010: 8c37 89bc 744c dc3d a9b5 4e3b 0bc8 59bc
00000020: d239 9cbd 4783 8bbd 4dfd ee3d c60b 943c
00000030: 0f1e 313c 3486 ec3d 9882 68bd b9ad d7bc
00000040: ab9e 39bd a254 653d b459 b5bd 2d8e 9ebd
00000050: f967 d33c a6dd d2bd d115 1abd 155f 8abd
00000060: 8261 ad3d f93d 23bc a995 83bd 7ee3 873d
00000070: 0574 49ba b4b0 e03c a7ee b93d 64c6 c4bd
00000080: d6ea e13d 3d3a e73d 03b9 b73d b93e debd
00000090: 6ecd 023e d191 f3bd 9883 a13d 818a 7cbb
000000a0: 2a2d 56bd f02b 9b3a 3a90 d03c 8be2 eabc
000000b0: 2586 00bd 09c4 d7bd e685 6cbd 90af d43d
000000c0: bf8c 01bd ac44 e63d de2f 533d d0a4 7cbc
000000d0: afba 263d 93be d0bd d4cc 36bd b091 ffbc
000000e0: 72f7 bd3c 716a b33c 5784 cdbd 1cee 10be
000000f0: 51dd 203d dccb 6bbd 825f d0bd fd0f 1ebc
00000100: 7ff4 2bbc 2edd 433d 62b7 ddbd 4c81 c4bd
00000110: 6a29 80bd 2ad8 20bd bdf0 8fbc 3bda 00be
00000120: ee3a e43c 8570 73bd 659f 8fbd 530b 7cbd
00000130: de9b 063c b4ee 6bbd 92cc 903d 0679 863d
00000140: 3bf3 4d3d d548 a7bd be98 233d c4a4 bfbd
00000150: 0140 fc3d dca5 663c 1b9c c23d fd1b ebba
00000160: 7c8f d5bd 0941 1dbd aa0d a33d 5a6a 73bd
00000170: c9cf 943d dd7d 603d eb73 e8bd 247e c53d
00000180: 3f54 cc3d 4d36 edbc 0ddb f9bd c127 3f3d
00000190: 02e0 953d 1e81 29bb b44a 90bd df7b 88bd
000001a0: 9b6e 933b ff93 65bd 3df4 a33d 4d03 0cbd
000001b0: 40d0 563d c572 9dbd d6cd cb3d 2040 713d
000001c0: c4b2 033d ffbe a53c c28e 763d 338e 73bd
000001d0: 0303 623d 804b 05be 977a f6bd 3bd2 c63d
000001e0: bd28 e33d b8ed b93d 78fd f53d 8a29 d13d
000001f0: 1ebd 1f3d e25c 9fbd df32 dc3c 2b78 05be
00000200: c5e6 b0bd 5568 a1bd 4d45 723d 33a3 913d
00000210: 3d99 a33d 1862 96bc cfe0 ae3a 9847 a83b
00000220: a3e2 d9bc c4f3 7cbd f201 253d a168 983d
00000230: 86ec 86bd 2e21 f23d 9183 be3d 38ab 02be
00000240: abc6 acbd 10ef b43c f24a 1abd fecb 963d
00000250: 22f8 d63d eabf 713d 8d3e 2fbd f7b4 b4bd
00000260: b259 9d3d 11c4 e1bd 86a3 c3bc faf9 ed3d
00000270: fccc abbd afc5 a23c 529c d73d 24c8 cf3b
00000280: a8f2 9a3d e729 1dbd 9d7b aabc b902 e33d
00000290: 49cd 61bd 7ece 543d afa9 e6bd ff58 bebd
000002a0: c09b 8bbd 40b4 253c 01a1 c53d 8f87 d8bd
000002b0: 4096 c4bd d435 da3b fcf2 193d 9493 773d
000002c0: a14d c43c 6b34 91bd 503c d7bc ab16 ecbc
000002d0: 0d3f 01be 6d3a bbbb 047f febd d6a0 96bd
000002e0: dcc0 8d3d 5bf7 05be c663 d2bd 6f0e 823c
000002f0: ba10 f33d f418 9abd 7f1c 7ebd e8a6 bfba
00000300: baca ee3b 568c 8bbd ed9e b7bd 256a b63c
00000310: 8263 183e 656a aabd fb35 ac3d 1d3b 9ebd
00000320: 66e2 84bc 933e cebd 70f6 9d3c d7ef a33d
00000330: d5d1 f13d 27f5 cb3d d5c1 e53d e6a3 f3bc
00000340: a792 b4bd 004c d73b bf46 e33d 9460 52bc
00000350: dff2 423d c21d 053e 47f2 a7bd b828 debd
00000360: b4e6 7e3d f02f 993d cfaf c73d 958d 053d
00000370: a406 903d 933f 15bd 43ad 8cbc 1b8b 243c
00000380: 065d bcbd cd92 aebc 3c30 e0bc e4ca ecbd
00000390: c7ed 8dbd 4bff 073e 6356 743d a954 723d
000003a0: 5048 3f3d 6f5a 723d 6b7b 7e3c 159b 9d3a
000003b0: ea42 823d ca88 c2bd d1c5 063d 3088 e6bd
000003c0: c81b 883d d394 323c 886f 19bd dffa 053e
000003d0: ae0c 393c d198 65bc ada1 bd3d 8f0c ba3d
000003e0: b3c5 23bd ab1b 8d3d 1619 f73d 9a44 e43c
000003f0: 8bff f43d 29ae 203d cf90 da3c 63e7 0f3b

hidden_layers.1.0.bias f4 [64]
-0.07594723 0.06985215 -0.04345038 -0.07487641 0.0020240871 0.045282643 0.02878595 0.01162133
-0.09759228 -0.024381943 -0.110514134 0.05308441 -0.0010263281 -0.012578527 -0.031659983 0.051640455
0.0135528 0.09648346 -0.036337834 0.06828291 -0.03261425 0.091303274 -0.02799314 -0.08397383
-0.046911065 -0.037203696 -0.06325396 -0.06837023 0.10572491 -0.041112658 -0.008608155 0.1056749
-0.03242522 0.048975904 0.014532744 -0.0708158 -0.068461604 -0.055978715 -0.061037842 0.09771649
0.030476611 -0.03952022 -0.02452621 0.007178001 0.058124658 0.014147458 0.048148565 0.084520414
0.0039286683 -0.031050378 0.10548112 0.012772365 -0.056511894 -0.0167256 -0.118915774 0.04498259
-0.054221448 0.031594787 0.033257563 0.08216491 0.11543608 0.10575884 -0.0069858246 0.060126524
00000000: 398a 9bbd a50e 8f3d 07f9 31bd ce58 99bd
00000010: 8ca6 043b 4b7a 393d 83d0 eb3c 6467 3e3c
00000020: 76de c7bd a4bc c7bc 3c55 e2bd 0a6f 593d
00000030: db85 86ba 2b16 4ebc e6ad 01bd f184 533d
00000040: 900c 5e3c 1f99 c53d fbd6 14bd e9d7 8b3d
00000050: 8596 05bd 36fd ba3d df51 e5bc 79fa abbd
00000060: d125 40bd e762 18bd 4b8b 81bd b105 8cbd
00000070: 4d86 d83d bf65 28bd 3809 0dbc 156c d83d
00000080: 4fd0 04bd f59a 483d bf1a 6e3c e007 91bd
00000090: 9935 8cbd f049 65bd d102 7abd 951f c83d
000000a0: 16aa f93c f4df 21bd 31eb c8bc 7035 eb3b
000000b0: 1f14 6e3d bdca 673c 6e37 453d 0a19 ad3d
000000c0: 0fbc 803b 5d5d febc 7c06 d83d 2e43 513c
000000d0: 0479 67bd 2004 89bc 1d8a f3bd aa3f 383d
000000e0: 4f17 5ebd 8969 013d 1539 083d 1446 a83d
000000f0: c069 ec3d 1798 d83d 58e9 e4bb 3b47 763d

hidden_layers.2.0.weight f4 [64, 64]
0.1144661 0.027060943 0.122003295 -0.04289396 0.05497866 -0.07147177 -0.00044568413 0.10959772
0.0962283 -0.0102881715 0.055705648 0.10097736 -0.025928857 0.049811643 0.084085 -0.0063127954
-0.055834785 0.023262572 0.05789038 0.08445845 0.102947325 0.04428417 0.0011312647 0.03700492
0.03241651 0.0038569188 0.114742465 -0.068493344 -0.06727276 0.044804256 -0.10999134 -0.03702155
0.02610098 -0.06382732 0.10046924 0.0028401136 0.028779447 -0.08755382 0.043820802 0.109378085
0.09763666 0.07841365 -0.067242146 -0.09388978 0.09243874 -0.040649325 -0.042287298 -0.10182939
0.09325307 0.1182395 -0.086562954 0.05294251 0.033223175 0.05090275 -0.05636166 -0.085487075
-0.10419131 -0.0075055766 0.052294347 0.007950965 0.00247007 -0.0106680915 0.028423037 -0.03077147
0.016810365 0.019104818 0.09044785 -0.10480628 0.13478197 0.09155647 0.009818621 -0.099686734
0.12062462 -0.08539363 -0.100211196 -0.03847667 -0.11687582 0.010922241 -0.06078876 0.010981513
-0.035083245 -0.08553449 -0.087344095 -0.021254668 0.054402485 0.04371418 -0.102697715 -0.03254725
0.0877497 0.031833116 0.0138768405 0.029582178 0.009892894 -0.0024579135 0.052256975 0.10710064
0.12142853 0.027896054 -0.024373235 -0.066706985 -0.13194531 -0.060713887 0.083192974 -0.04053511
0.03839418 0.055847857 -0.07328226 -0.014921897 0.03663856 -0.13385361 0.098172195 -0.09960724
0.04261568 -0.096989974 0.08889787 -0.0090981675 0.039902043 -0.07889396 -0.022881277 0.12636705
0.0947965 -0.1297255 -0.07153561 -0.015169048 0.015641209 -0.054360885 0.046678238 -0.034255844
0.090291955 -0.08314753 -0.0011332693 -0.08125875 -0.07556004 -0.05495447 -0.1322733 -0.08408266
0.027898254 -0.1158715 -0.04047705 -0.08010635 0.028892525 -0.08761199 0.108869284 -0.052346658
-0.057947233 -0.022031408 0.08730524 -0.035844058 0.01538924 0.09923805 0.06925078 -0.04617936
0.114316806 0.056050163 0.034571625 -0.046604615 -0.014533494 -0.098898046 -0.10229841 -0.13140497
0.037323885 0.1182689 0.05984062 0.007972558 0.0021868632 -0.017519465 -0.0040972093 -0.024083521
0.07533456 0.08349875 -0.037936736 -0.10019262 -0.034133017 0.108848974 -0.005538049 0.08312349
-0.058807693 0.042259324 0.094349615 0.086967 -0.09194904 -0.03320637 0.10842882 -0.05642234
-0.0315302 -0.13174576 0.05530958 0.034268603 0.04462889 0.11669775 -0.12682132 -0.052445002
-0.10607556 -0.048438784 -0.12151762 -0.05770109 -0.08969247 0.09610426 0.05395313 -0.09086366
0.049305502 -0.13780254 -0.05694511 -0.10058413 0.12235696 -0.04504003 -0.06552786 0.11402806
0.068878524 -0.032741684 0.04089114 -0.0616775 0.05568998 -0.108742386 -0.098603 -0.028960079
-0.037497647 0.12557545 0.041800443 0.0078035723 -0.030336333 0.049893778 0.040941384 -0.054436687
0.03827407 -0.03077892 -0.048318777 -0.01719515 0.10084492 0.029524254 0.090591386 -0.069057174
0.020845152 -0.01874316 0.06722013 -0.0059667416 -0.062192738 -0.08222289 -0.012606414 -0.025198532
0.008208268 0.099985614 0.00894662 -0.10877229 0.11281942 -0.042657547 -0.121805415 -0.0027479855
-0.04660962 -0.032767538 -0.028315948 0.0030264729 -0.115247294 -0.13173096 0.12808391 -0.037794884
00000000: 346d ea3d e9ae dd3c dddc f93d 94b1 2fbd
00000010: 4e31 613d cb5f 92bd b6aa e9b9 c574 e03d
00000020: 5813 c53d b88f 28bc 9b2b 643d 38cd ce3d
00000030: c168 d4bc 4b07 4c3d c234 ac3d 91db cebb
00000040: 04b3 64bd 2691 be3c 771e 6d3d 8df8 ac3d
00000050: 0cd6 d23d 5163 353d f246 943a 7992 173d
00000060: 2dc7 043d 5cc4 7c3b 19fe ea3d 3d46 8cbd
00000070: 4dc6 89bd ab84 373d 2443 e1bd e9a3 17bd
00000080: b9d1 d53c e6b7 82bd d1c2 cd3d 3321 3a3b
00000090: e0c2 eb3c 6b4f b3bd 717d 333d 9e01 e03d
000000a0: bbf5 c73d 5697 a03d 40b6 89bd 4949 c0bd
000000b0: 8650 bd3d e87f 26bd 7235 2dbd ed8b d0bd
000000c0: 77fb be3d 8d27 f23d eb47 b1bd 3fda 583d
000000d0: 0615 083d 677f 503d 7cdb 66bd d913 afbd
000000e0: 4162 d5bd 57f1 f5bb 9932 563d c444 023c
000000f0: e6e0 213b 38c9 2ebc 6ed7 e83c 7314 fcbc
00000100: e4b5 893c b581 9c3c b93c b93d ada4 d6bd
00000110: 4904 0a3e f581 bb3d 48de 203c 8f28 ccbd
00000120: 0a0a f73d dbe2 aebd 873b cdbd b699 1dbd
00000130: 975c efbd 33f3 323c a3fd 78bd ceeb 333c
00000140: 73b3 0fbd b52c afbd 76e1 b2bd 451e aebc
00000150: 24d5 5e3d a40d 333d 2e53 d2bd 4450 05bd
00000160: 1db6 b33d 7163 023d b05b 633c 5356 f23c
00000170: ce15 223c f214 21bb 690b 563d 9557 db3d
00000180: 85af f83d 4486 e43c 61aa c7bc ac9d 88bd
00000190: ac1c 07be 20af 78bd 1461 aa3d 2508 26bd
000001a0: 3743 1d3d b9c0 643d 0215 96bd f97a 74bc
000001b0: 5112 163d ec10 09be 810e c93d e1fe cbbd
000001c0: c78d 2e3d aea2 c6bd 1610 b63d 7b10 15bc
000001d0: 5370 233d 2893 a1bd 8471 bbbc 5d66 013e
000001e0: ab24 c23d c3d6 04be 4381 92bd 9987 78bc
000001f0: fe21 803c 85a9 5ebd ae31 3f3d db4f 0cbd
00000200: fdea b83d 4149 aabd 358a 94ba fd6a a6bd
00000210: 39bf 9abd f017 61bd a772 07be 8833 acbd
00000220: e18a e43c 094e edbd 43cb 25bd cc0e a4bd
00000230: 04b0 ec3c ea6d b3bd dcf6 de3d 7369 56bd
00000240: 145a 6dbd 367b b4bc 17cd b23d 38d1 12bd
00000250: 2723 7c3c 523d cb3d 5ad3 8d3d 9226 3dbd
00000260: ee1e ea3d db94 653d fa9a 0d3d 7be4 3ebd
00000270: e41d 6ebc 0f8b cabd d481 d1bd 068f 06be
00000280: eee0 183d f736 f23d 701b 753d 559f 023c
00000290: 7a51 0f3b fb84 8fbc e241 86bb ce4a c5bc
000002a0: 0149 9a3d 6501 ab3d 8d63 1bbd ca31 cdbd
000002b0: 10cf 0bbd 36ec de3d 8678 b5bb a63c aa3d
000002c0: 56e0 70bd 1d18 2d3d 5f3a c13d c11b b23d
000002d0: c74f bcbd 6703 08bd ee0f de3d 1d1b 67bd
000002e0: d025 01bd 5ce8 06be 4c8c 623d 3c5d 0c3d
000002f0: c8cc 363d 3bff ee3d 73dd 01be 92d0 56bd
00000300: 253e d9bd bf67 46bd 3bde f8bd fa57 6cbd
00000310: b0b0 b7bd 4fd2 c43d f5fd 5c3d ba16 babd
00000320: 91f4 493d 1c1c 0dbe 473f 69bd 0dff cdbd
00000330: 4996 fa3d e57b 38bd 7833 86bd 8b87 e93d
00000340: 2f10 8d3d 251c 06bd 787d 273d 8ca1 7cbd
00000350: 2d1b 643d 54b4 debd 5ff0 c9bd b03d edbc
00000360: 2297 19bd da96 003e f136 2b3d 1cb5 ff3b
00000370: e783 f8bc 6b5d 4c3d 27b2 273d 01f9 5ebd
00000380: 45c5 1c3d 1324 fcbc e9e9 45bd d8dc 8cbc
00000390: c887 ce3d d9dc f13c fa87 b93d d96d 8dbd
000003a0: 74c3 aa3c 418b 99bc b5aa 893d a884 c3bb
000003b0: d0bd 7ebd 7964 a8bd 228b 4ebc 276d cebc
000003c0: f97b 063c 42c5 cc3d d894 123c 02c4 debd
000003d0: de0d e73d aeb9 2ebd 1e75 f9bd 8c17 34bb
000003e0: bbe9 3ebd 4137 06bd d9f6 e7bc ca57 463b
000003f0: c606 ecbd 7be4 06be 6e28 033e cfce 1abd

hidden_layers.2.0.bias f4 [64]
0.10063691 -0.06347474 0.0060019777 -0.053081486 -0.096184 0.048222322 0.049103092 -0.004167568
-0.030255353 -0.020292968 -0.062923424 0.069130264 0.12558663 -0.09421647 -0.084801 0.011315897
0.046097323 0.0961954 -0.03004366 -0.04879113 -0.050811127 0.019280408 0.0339179 0.098372996
-0.011091963 0.097031556 -0.0036816073 0.04277846 0.011217236 -0.06709703 0.024091024 0.013799812
-0.061659265 -0.108189054 -0.054000456 -0.089332916 -0.013524577 -0.07854266 -0.0435649 0.018882893
-0.04003007 -0.09306269 0.09537867 -0.099660695 0.04473961 -0.009147932 -0.004700847 0.063329645
0.096550494 -0.039707646 0.050345432 -0.021147873 -0.04695561 -0.07856373 0.06298963 -0.056586873
0.009333478 0.086117335 -0.012216372 0.03399907 -0.0777174 0.109135024 0.022432514 0.096847154
00000000: b91a ce3d 0bff 81bd 3dac c43b f96b 59bd
00000010: 1efc c4bd c584 453d 5320 493d 1890 88bb
00000020: 13da f7bc 703d a6bc ffdd 80bd 2b94 8d3d
00000030: c899 003e 91f4 c0bd 26ac adbd 5066 393c
00000040: 8cd0 3c3d 1802 c53d 1f1e f6bc 35d9 47bd
00000050: 541f 50bd f2f1 9d3c 7fed 0a3d c877 c93d
00000060: 11bb 35bc 7bb8 c63d 1f47 71bb 7738 2f3d
00000070: 7fc8 373c 2b6a 89bd 8a5a c53c 9b18 623c
00000080: 6d8e 7cbd 3992 ddbd 952f 5dbd 2df4 b6bd
00000090: 3096 5dbc f9da a0bd 1c71 32bd 4cb0 9a3c
000000a0: 92f6 23bd a797 bebd e455 c33d e81a ccbd
000000b0: e240 373d 35e1 15bc 9009 9abb f9b2 813d
000000c0: 44bc c53d 7ca4 22bd 0337 4e3d 4e3e adbc
000000d0: 8754 40bd 05e6 a0bd b500 813d a3c7 67bd
000000e0: 72eb 183c 495e b03d 2e27 48bc 9c42 0b3d
000000f0: 4d2a 9fbd 2f82 df3d 64c4 b73c cd57 c63d

hidden_layers.3.0.weight f4 [64, 64]
0.08121234 0.018386094 -0.10908179 0.065174505 0.020061912 -0.045603022 -0.019137902 -0.03052147
-0.01305279 0.10939265 0.05145768 -0.10503185 -0.11279323 -0.084671766 -0.0022332014 -0.06641994
-0.057556592 -0.08772247 -0.10603835 0.017649664 0.09893141 -0.12018701 -0.08211326 -0.044574093
-0.11106032 -0.059220154 -0.102428496 -0.0853133 0.10404256 0.089778356 -0.121448226 0.08569654
-0.021225186 0.04788506 -0.11590544 0.09407543 -0.12239838 0.03674618 -0.047040574 0.096182585
-0.09356411 0.08930891 0.11156321 -0.13188508 0.063173145 0.009783207 0.051201086 -0.09431729
-0.07948254 -0.1031107 0.0105674835 -0.0216291 0.07280747 0.003312453 0.017802611 0.06656763
-0.046031322 -0.030061448 -0.024118487 0.00848983 0.062978566 0.04490691 -0.082617015 0.032635394
0.09830379 0.064164974 -0.042319164 0.07516955 0.08547482 -0.10720355 -0.1307908 0.11772236
0.07294024 0.112310566 -0.05963891 0.015611633 -0.11702732 0.12088743 0.13484047 0.08276527
-0.07191171 0.014272307 0.12942636 -0.12981267 -0.08498478 -0.03587254 0.09506765 0.0895415
0.07890081 -0.050269563 -0.107311755 -0.08390393 -0.11355743 0.012496529 -0.10291829 0.013394032
0.1579454 -0.021770643 -0.046074916 -0.11437217 0.08044562 -0.062132113 0.05184931 0.08185651
-0.08100943 -0.009410654 -0.11125556 -0.11327418 0.05504639 -0.05860408 -0.098346286 -0.041641325
-0.1159632 0.07317104 0.0501268 0.05204109 -0.10244248 -0.016608741 -0.08441492 0.10450073
0.02056351 0.08146266 -0.007623331 0.0369699 -0.0053901277 0.06055684 0.065020025 -0.08586882
-0.06311857 0.0015188482 0.047437068 0.115505815 -0.0086558275 0.02765571 0.060729604 0.024456521
0.015115188 0.03953522 -0.0028606937 -0.101962164 -0.16283356 0.109461874 0.12693122 -0.017128062
-0.074102916 0.021861188 0.074108675 0.066036254 0.12752613 0.0068379333 0.029823668 -0.0071321516
-0.061253276 -0.09648828 0.12119699 0.008918039 -0.13162054 -0.054712962 -0.048920173 -0.06018397
0.17686859 0.099032804 -0.03233921 -0.0028421844 0.010302968 -0.023911962 -0.08072949 -0.0231884
0.05161045 0.079980716 -0.11646252 -0.1473964 0.055383556 0.0904368 0.064897336 0.11756478
-0.05177929 -0.09519439 -0.062297437 -0.032611903 0.030487444 -0.09585882 0.048016276 -0.04662471
0.09896006 -0.10989207 -0.013699309 0.088093236 0.073345825 0.07475663 -0.13327971 0.106062874
0.08421986 -0.111209475 0.083943725 0.05101935 -0.04932259 0.04855875 -0.034043398 -0.075527675
0.07182928 -0.02278527 0.12001668 -0.11918575 -0.0382842 0.09193214 -0.03426175 0.077839896
0.04176254 -0.08813744 -0.08525443 -0.12034303 -0.0837527 -0.04285779 -0.08561276 -0.08044478
-0.10272443 -0.10867456 -0.043559715 0.06343238 -0.03257967 0.03866562 -0.08678148 -0.03451525
-0.07048608 0.008658609 -0.013841298 -0.124182016 -0.07496443 -0.083350815 0.12307558 0.05366985
-0.046922363 0.097762294 0.0785415 -0.059381135 0.058108438 -0.1315236 0.04169883 0.07482286
-0.092226356 0.10570075 -0.01602383 -0.0058299107 -0.097887255 0.07378361 0.03987532 0.056944415
0.048895273 -0.03615905 0.020627033 0.026495928 -0.11819325 0.044619925 0.021697389 0.118403815
00000000: a852 a63d 6f9e 963c 4666 dfbd 367a 853d
00000010: e158 a43c 3cca 3abd 17c7 9cbc 2908 fabc
00000020: 5fdb 55bc 4109 e03d 4ac5 523d f01a d7bd
00000030: 2300 e7bd 6468 adbd e75a 12bb 2d07 88bd
00000040: 76c0 6bbd d7a7 b3bd a22a d9bd 0796 903c
00000050: 8d9c ca3d 9b24 f6bd ff2a a8bd 5393 36bd
00000060: 9873 e3bd d590 72bd 08c6 d1bd bdb8 aebd
00000070: 4414 d53d b7dd b73d d9b9 f8bd ab81 af3d
00000080: 71e0 adbc 2023 443d d55f edbd 9eaa c03d
00000090: 00ac fabd 2a83 163d 9ead 40bd 60fb c43d
000000a0: 8a9e bfbd 97e7 b63d 417b e43d e20c 07be
000000b0: ec60 813d bf49 203c 3bb8 513d 6c29 c1bd
000000c0: bec7 a2bd b42b d3bd 3d23 2d3c 832f b1bc
000000d0: 151c 953d bd15 593b c8d6 913c 9c54 883d
000000e0: 578b 3cbd 6d43 f6bc 2294 c5bc ee18 0b3c
000000f0: e8fa 803d 4ff0 373d 1c33 a9bd b1ac 053d
00000100: 7f53 c93d ed68 833d dc56 2dbd 7ef2 993d
00000110: 6c0d af3d 898d dbbd 06ee 05be 6c18 f13d
00000120: b161 953d 1503 e63d ee47 74bd efc7 7f3c
00000130: 05ac efbd d493 f73d 9f13 0a3e d680 a93d
00000140: 7246 93bd 65d6 693c 5888 043e 9ded 04be
00000150: 800c aebd 16ef 12bd d4b2 c23d 8961 b73d
00000160: bf96 a13d 75e7 4dbd 44c6 dbbd d3d5 abbd
00000170: cc90 e8bd 3ebe 4c3c d3c6 d2bd a472 5b3c
00000180: 70bc 213e 5958 b2bc 0db9 3cbd f53b eabd
00000190: acc0 a43d 3e7e 7ebd f15f 543d 63a4 a73d
000001a0: 46e8 a5bd 252f 1abc f4d9 e3bd 4bfc e7bd
000001b0: 5378 613d d50a 70bd c769 c9bd 1890 2abd
000001c0: 1d7e edbd b3da 953d c251 4d3d 0a29 553d
000001d0: 5dcd d1bd 0e0f 88bc bbe1 acbd 7b04 d63d
000001e0: ce74 a83c e5d5 a63d 23cd f9bb c06d 173d
000001f0: ab9f b0bb 730a 783d 3829 853d fedb afbd
00000200: 4f44 81bd 1714 c73a 5f4d 423d 508e ec3d
00000210: 2cd1 0dbc 3a8e e23c 9bbf 783d 0b59 c83c
00000220: b2a5 773c afef 213d 7a7a 3bbb 8ad1 d0bd
00000230: d7bd 26be 8c2d e03d 42fa 013e 2650 8cbc
00000240: 45c3 97bd 3c16 b33c 4ac6 973d 043e 873d
00000250: 3696 023e be10 e03b c450 f43c d3b4 e9bb
00000260: b7e4 7abd a69b c5bd 2136 f83d f71c 123c
00000270: 89c7 06be b31a 60bd 8560 48bd 7783 76bd
00000280: 0a1d 353e b6d1 ca3d 1f76 04bd f143 3abb
00000290: c8cd 283c 05e3 c3bc 8155 a5bd 99f5 bdbc
000002a0: 7b65 533d eecc a33d e783 eebd 15ef 16be
000002b0: ded9 623d ee36 b93d e5e8 843d cec5 f03d
000002c0: 8516 54bd 47f5 c2bd 992b 7fbd 0f94 05bd
000002d0: cec0 f93c a151 c4bd b7ac 443d 8df9 3ebd
000002e0: 92ab ca3d 180f e1bd 1173 60bc 3a6a b43d
000002f0: 5636 963d 011a 993d 7a7a 08be 7e37 d93d
00000300: 767b ac3d cbc1 e3bd b0ea ab3d aaf9 503d
00000310: 7c06 4abd 8ae5 463d 1771 0bbd 41ae 9abd
00000320: 3b1b 933d 2da8 babc 4ecb f53d a917 f4bd
00000330: e5cf 1cbd eb46 bc3d 0c56 0cbd 866a 9f3d
00000340: 320f 2b3d 6781 b4bd e099 aebd 6876 f6bd
00000350: 8986 abbd a68b 2fbd be55 afbd 3cc0 a4bd
00000360: 3061 d2bd c590 debd ac6b 32bd d6e8 813d
00000370: 4372 05bd d75f 1e3d 7dba b1bd dd5f 0dbd
00000380: 025b 90bd d7dc 0d3c 9dc6 62bc 2453 febd
00000390: f386 99bd d5b3 aabd 0d0f fc3d ebd4 5b3d
000003a0: aa31 40bd 9937 c83d 5eda a03d a239 73bd
000003b0: 1d03 6e3d 1fae 06be 64cc 2a3d ba3c 993d
000003c0: 2ce1 bcbd a379 d83d 6844 83bc d608 bfbb
000003d0: 1d79 c8bd dc1b 973d 4e54 233d 8c3e 693d
000003e0: 6946 483d 831b 14bd 06fa a83c fd0d d93c
000003f0: 4d0f f2bd 62c3 363d b9be b13c b37d f23d

hidden_layers.3.0.bias f4 [64]
-0.09780872 -0.10305503 -0.0960528 -0.07247948 0.04829341 0.11715567 -0.11172984 0.010449041
-0.040418003 0.040382177 0.04431724 0.03420366 0.09787373 0.032889944 0.084549464 -0.11492648
0.0151103595 -0.04420932 -0.020913469 -0.05384456 0.061837517 -0.110276 0.025210872 -0.029886957
-0.0753125 -0.055814 0.011925207 -0.1123158 0.06440529 0.01635874 -0.11587926 -0.07083833
-0.083113365 0.033098023 -0.008654513 -0.10563744 -0.09193278 0.098922 0.0033424317 -0.0319161
0.08582871 0.10173643 0.11137594 -0.10824011 0.08283404 0.06221766 -0.045905463 0.06337737
0.031480968 0.07131327 -0.03245634 0.06360303 -0.083416775 -0.06273944 0.07983142 0.081062205
0.03357288 -0.06694144 0.07261016 -0.081098594 0.07111241 -0.04862038 0.08431465 0.045750212
00000000: f04f c8bd 840e d3bd 55b7 c4bd 1f70 94bd
00000010: 50cf 453d 50ef ef3d 9dd2 e4bd 7432 2b3c
00000020: 598d 25bd c867 253d ff85 353d 2319 0c3d
00000030: 0672 c83d 9bb7 063d 4528 ad3d 935e ebbd
00000040: 7191 773c d514 35bd b952 abbc 1d8c 5cbd
00000050: 5649 7d3d 62d8 e1bd 0887 ce3c 7ed5 f4bc
00000060: 713d 9abd 399d 64bd f261 433c d305 e6bd
00000070: ece6 833d c402 863c 1b52 edbd b013 91bd
00000080: 5737 aabd cb91 073d a9cb 0dbc 7158 d8bd
00000090: 4147 bcbd 9e97 ca3d b30c 5b3b 75ba 02bd
000000a0: f6c6 af3d 305b d03d 1219 e43d feac ddbd
000000b0: e5a4 a93d f2d7 7e3d 5e07 3cbd ffcb 813d
000000c0: 30f2 003d b10c 923d f0f0 04bd 4e42 823d
000000d0: 6ad6 aabd 897d 80bd a87e a33d f103 a63d
000000e0: b783 093d 9818 89bd a3b4 943d 0517 a6bd
000000f0: 62a3 913d 2a26 47bd 29ad ac3d 9364 3b3d

hidden_layers.4.0.weight f4 [64, 64]
-0.099099025 -0.084895276 -0.0041436274 -0.0991562 -0.06903212 0.041635096 0.0765635 -0.054040622
0.012179091 -0.020489391 0.08369989 0.09104725 0.099686585 0.067192055 -0.086307116 0.10271096
-0.077024005 0.06395054 0.02832782 0.080700934 0.08497567 -0.007924016 -0.08845375 -0.056975197
0.017961234 -0.071045026 0.10337789 -0.08862591 0.06995829 0.064985834 0.10833816 0.05308349
0.075119354 0.0026597497 0.08741663 0.05588616 -0.10236852 -0.09446308 -0.009801142 -0.010129987
0.04287669 -0.10091785 0.040601213 -0.013093747 0.08876978 0.04551171 0.01696009 0.032103222
-0.1165575 0.077047974 0.03118153 0.0467821 -0.07815422 -0.06363886 -0.08570825 -0.08783691
-0.03544514 -0.07694025 0.041210346 -0.03282092 -0.07305443 0.0711135 -0.03887396 0.023893973
0.07469745 0.13086772 -0.038262326 -0.057847034 -0.037748843 -0.10800115 -0.036944024 0.030316668
-0.040853746 -0.07205655 0.052913442 -0.10596331 0.113825046 0.0155926 0.0961956 0.026683487
-0.025973063 -0.040676348 -0.100555256 0.08049066 0.014518329 0.111502014 0.0021333513 -0.12446986
0.035595186 0.078819476 0.042641778 0.11661747 -0.064311564 -0.074721046 -0.010650191 0.056570575
0.05600136 0.09216562 0.07873167 0.09737892 -0.114180095 0.12534554 0.014459241 -0.10840954
0.04358999 -0.094567426 0.0040776115 -0.06298036 -0.07385899 -0.09178849 -0.03499918 -0.038053136
-0.034039076 0.08891248 0.019773671 -0.11879244 -0.02246361 0.0065959394 -0.07840127 -0.10667722
-0.07410269 0.13281225 0.07050489 -0.14340793 -0.07309419 -0.10893312 -0.05360625 -0.058930427
-0.08080935 -0.029717676 0.124264516 0.034567833 -0.10018312 -0.05301119 0.05289983 -0.022824325
0.016557436 -0.05088552 -0.0028008185 0.074762344 -0.1133409 -0.027790815 -0.067829 -0.07600776
0.023571262 -0.09582487 0.0696776 -0.01573175 -0.038453486 -0.047737997 0.04525641 -0.058352187
0.14397472 0.018791568 -0.044933546 -0.12583598 0.07456719 -0.1063326 -0.028978376 -0.025783611
0.03213111 0.030791197 0.054383412 0.07245235 0.08246945 -0.030011818 0.031033833 -0.067945205
-0.1215983 -0.11634626 0.10380238 -0.07549715 -0.19509567 -0.003217799 -0.06621993 -0.071250886
0.074952714 0.12850235 0.038850058 -0.044814743 0.07971172 -0.012735084 0.103663124 0.012258243
-0.08944498 -0.101285994 0.049467936 0.09178773 -0.08035231 -0.11593757 -0.102956854 0.11571845
0.06514549 -0.13153943 0.080500595 -0.10589441 -0.05002759 -0.015744057 0.050992455 0.051362988
0.011485788 0.042050574 0.06782625 0.034769036 0.12521404 0.07124706 0.08636921 -0.09901507
0.06453883 -0.10218946 0.08918195 -0.09553977 -0.124208264 -0.09030755 0.08831764 0.12896508
-0.089318685 0.011754492 -0.012219731 0.01502331 0.041932516 0.105755284 0.0028885521 -0.13182181
0.07090583 0.038750883 -0.03201829 -0.01218909 0.02603551 -0.066421665 0.01330405 -0.07740484
-0.10389059 -0.12621072 -0.030985447 -0.091907576 -0.058137316 -0.056768972 0.095287934 -0.0074808863
-0.11270633 -0.010565392 0.014202117 -0.0673765 0.071192704 -0.060030594 0.041536752 -0.016744127
0.08862366 0.07304263 0.11252394 -0.038096916 0.057346143 0.044785947 0.09236906 0.03347491
00000000: 6ef4 cabd 93dd adbd 44c7 87bb 6812 cbbd
00000010: b660 8dbd 9089 2a3d 53cd 9c3d b359 5dbd
00000020: cf8a 473c 5ed9 a7bc d96a ab3d fb76 ba3d
00000030: 7b28 cc3d fd9b 893d c9c1 b0bd 205a d23d
00000040: c3be 9dbd 80f8 823d bf0f e83c 8846 a53d
00000050: b907 ae3d bbd3 01bc 3d27 b5bd d35e 69bd
00000060: 7023 933c 0e80 91bd cab7 d33d 8081 b5bd
00000070: 4b46 8f3d 4b17 853d 66e0 dd3d 136e 593d
00000080: 2dd8 993d 324f 2e3b 7d07 b33d e3e8 643d
00000090: 96a6 d1bd dc75 c1bd f894 20bc 3ff8 25bc
000000a0: 789f 2f3d 05ae cebd 754d 263d 2887 56bc
000000b0: eecc b53d 7d6a 3a3d e3ef 8a3c ab7e 033d
000000c0: b3b5 eebd 54cb 9d3d 6870 ff3c 969e 3f3d
000000d0: 520f a0bd 1755 82bd cf87 afbd d6e3 b3bd
000000e0: ec2e 11bd da92 9dbd 2ecc 283d 3b6f 06bd
000000f0: 909d 95bd f4a3 913d 4d3a 1fbd 4bbd c33c
00000100: fafa 983d 3002 063e f5b8 1cbd 03f1 6cbd
00000110: 889e 1abd b52f ddbd 9e52 17bd a95a f83c
00000120: 4256 27bd 6292 93bd c4bb 583d 4b03 d9bd
00000130: 1b1d e93d 1b78 7f3c 3302 c53d 5497 da3c
00000140: 76c5 d4bc 3e9c 26bd eaef cdbd 4ad8 a43d
00000150: 49de 6d3c 2b5b e43d b2cf 0b3b 0eea febd
00000160: 42cc 113d 1b6c a13d 25a9 2e3d 24d5 ee3d
00000170: c8b5 83bd 5907 99bd 247e 2ebc 8cb6 673d
00000180: af61 653d 54c1 bc3d 123e a13d 996e c73d
00000190: 41d7 e9bd 955a 003e 74e6 6c3c d205 debd
000001a0: 6b8b 323d 91ac c1bd 7c9d 853b d9fb 80bd
000001b0: 6243 97bd 9bfb bbbd 4d5b 0fbd 9bdd 1bbd
000001c0: 8f6c 0bbd bf17 b63d 65fc a13c 7349 f3bd
000001d0: 9b05 b8bc c022 d83b d890 a0bd 9679 dabd
000001e0: 27c3 97bd efff 073e de64 903d 87d9 12be
000001f0: 68b2 95bd 5418 dfbd 3a92 5bbd 0861 71bd
00000200: 5f7f a5bd 7c72 f3bc 657e fe3d 0097 0d3d
00000210: cf2c cdbd 4322 59bd 7ead 583d 14fa babc
00000220: 76a3 873c 566d 50bd f08d 37bb 001d 993d
00000230: 461f e8bd 90a9 e3bc eee9 8abd f5a9 9bbd
00000240: 8518 c13c d43f c4bd 21b3 8e3d dfdf 80bc
00000250: 6781 1dbd eb88 43bd c95e 393d b402 6fbd
00000260: 1c6e 133e c6f0 993c 3d0c 38bd 26db 00be
00000270: afb6 983d e8c4 d9bd 0f64 edbc 2738 d3bc
00000280: e99b 033d d23d fc3c 24c1 5e3d e661 943d
00000290: bee5 a83d 58db f5bc aa3a fe3c db26 8bbd
000002a0: 8808 f9bd f346 eebd 5896 d43d 409e 9abd
000002b0: 29c7 47be b5e1 52bb 519e 87bd fceb 91bd
000002c0: cf80 993d 1f96 033e 3d21 1f3d aa8f 37bd
000002d0: e63f a33d d0a6 50bc 554d d43d ccd6 483c
000002e0: ee2e b7bd 086f cfbd e49e 4a3d 35fb bb3d
000002f0: c08f a4bd ad70 edbd 0bdb d2bd cbfd ec3d
00000300: 006b 853d 46b2 06be 7fdd a43d 2bdf d8bd
00000310: bbe9 4cbd aef9 80bc 77dd 503d ff61 523d
00000320: e32e 3c3c 393d 2c3d 7de8 8a3d fa69 0e3d
00000330: 1c38 003e fbe9 913d 57e2 b03d 6ac8 cabd
00000340: ef2c 843d b548 d1bd 07a5 b63d 5baa c3bd
00000350: e760 febd 2af3 b8bd e1df b43d 6c0f 043e
00000360: b7ec b6bd ea95 403c 4435 48bc 5424 763c
00000370: 6ec1 2b3d 3a96 d83d dd4d 3d3b 4cfc 06be
00000380: 1337 913d 3fb9 1e3d 9c25 03bd c0b4 47bc
00000390: 6c48 d53c 1508 88bd 3bf9 593c 6e86 9ebd
000003a0: 97c4 d4bd 623d 01be 31d5 fdbc 0a3a bcbd
000003b0: 6521 6ebd 9586 68bd 5226 c33d 3922 f5bb
000003c0: 94d2 e6bd 771a 2dbc ffaf 683c b1fc 89bd
000003d0: 7bcd 913d a4e2 75bd 7122 2a3d fb2a 89bc
000003e0: 5280 b53d 6097 953d f472 e63d 830b 1cbd
000003f0: cae3 6a3d 7871 373d fd2b bd3d fd1c 093d

hidden_layers.4.0.bias f4 [64]
0.00025577997 -0.01172797 0.100421384 0.011793189 0.0030766295 -0.105377235 -0.0009591154 0.08414199
-0.02491171 -0.10765735 -0.08652013 0.10540143 0.00017034859 -0.053242262 -0.0603777 -0.0125504
0.0769039 0.07999924 -0.0677593 -0.016548852 0.011748248 -0.045716736 0.095953755 -0.02352186
-0.107410535 0.032112375 0.056819715 -0.019940525 -0.076092504 0.10926304 0.058656108 0.09618918
-0.034923796 0.11308748 0.09959406 -0.020354081 -0.0810939 -0.08732083 -0.08885995 -0.108508386
-0.1128815 0.0028720845 -0.016565928 -0.113850884 -0.05441181 0.031030172 0.097316615 -0.06717281
0.014456695 0.107193016 -0.05433134 -0.06238954 0.05267025 -0.032265645 0.11220024 0.1009982
-0.0865077 -0.057302482 -0.008418969 0.07048465 -0.033781536 0.029489072 0.06507665 -0.042443294
00000000: 351a 8639 ac26 40bc baa9 cd3d 3838 413c
00000010: 47a1 493b 05d0 d7bd 256d 7bba a352 ac3d
00000020: a413 ccbc 757b dcbd 7731 b1bd b4dc d73d
00000030: 9a9f 3239 8f14 5abd 9b4e 77bd 31a0 4dbc
00000040: cb7f 9d3d a4d6 a33d 63c5 8abd 7591 87bc
00000050: b97b 403c 7941 3bbd 6783 c43d eab0 c0bc
00000060: 0efa dbbd 4488 033d cabb 683d 505a a3bc
00000070: 63d6 9bbd 4dc5 df3d 6341 703d d5fe c43d
00000080: 410c 0fbd 699a e73d f8f7 cb3d 9abd a6bc
00000090: 8f14 a6bd 43d5 b2bd 35fc b5bd a539 debd
000000a0: 6a2e e7bd 9539 3c3b 45b5 87bc a72a e9bd
000000b0: ebde 5ebd fd32 fe3c ef4d c73d e691 89bd
000000c0: c6db 6c3c 0388 db3d 8a8a 5ebd 2d8c 7fbd
000000d0: c3bc 573d fb28 04bd 3dc9 e53d 25d8 ce3d
000000e0: f32a b1bd 02b6 6abd b7ef 09bc 425a 903d
000000f0: 825e 0abd 1193 f13c e846 853d 05d9 2dbd
